model.pt (torch, 170741 bytes, 212 tensors)

token_embedding_table.weight f4 [65, 16]
0	0x3ebe0c75	0.3711888
1	0x3f26ca8f	0.6515283
2	0xbffb4bf2	-1.9632552
3	0x3e92c044	0.28662312
4	0xbd4bb028	-0.049728543
5	0x3f3d6a4d	0.7399033
6	0x3ef3d52d	0.47623578
7	0xbe755ede	-0.2396197
8	0xbec44914	-0.38337004
9	0xbfd3e0e8	-1.6553011
10	0x3f80acd0	1.0052738
11	0xbf3ac7d1	-0.72961146
12	0xbeb0d632	-0.34538418
13	0x3f3799a6	0.71718824
14	0x3ec2dd15	0.38059297
15	0xbe8626ff	-0.26201627
16	0x3f26d51d	0.65168935
17	0xbd694d36	-0.0569584
18	0xbf320763	-0.6954252
19	0x3ef855a2	0.48502833
20	0x3f7fdeed	0.9994953
21	0xbe287fb5	-0.16454966
22	0x3e168ca4	0.14702088
23	0x3e99580f	0.29949996
24	0xbf00220f	-0.5005197
25	0xbe3a668b	-0.1820318
26	0x3c51b0f5	0.0127985375
27	0xbf4aba64	-0.7919066
28	0xbe969722	-0.2941218
29	0x3e06f1c8	0.1317817
30	0xbe7d3b3f	-0.24729632
31	0xbfc75c66	-1.5575073
32	0xbf28c1ba	-0.65920603
33	0xbf234870	-0.63782406
34	0xbff3c82a	-1.904546
35	0x3edd03fc	0.43167102
36	0xbf0d4a60	-0.5519161
37	0xbf05cc84	-0.5226519
38	0x3f972fbe	1.1811445
39	0x3eedadd4	0.46421683
40	0x3e0b693d	0.13614364
41	0x3f685726	0.9075798
42	0x3fd24c37	1.6429509
43	0xbefe5def	-0.4968104
44	0x3f3e24fb	0.7427518
45	0x3f0a9d37	0.5414614
46	0xbe22b92d	-0.15890951
47	0x3e82d4d0	0.25552988
48	0x3f852f0f	1.0404986
49	0x3fd9c734	1.7013917
50	0x3f6a5de5	0.9154952
51	0x3fd49626	1.6608322
52	0xbf4b5bae	-0.7943677
53	0x3fb80644	1.4376912
54	0xbec17fe0	-0.37792873
55	0xc03a66e1	-2.9125292
56	0x40260adf	2.5944135
57	0xbeccfc8f	-0.40036437
58	0xbfd94ff5	-1.6977526
59	0xbf8d39cc	-1.1033263
60	0x40016d14	2.0222826
61	0xbf6b6f20	-0.9196644
62	0x3f8500ef	1.039091
63	0x3e52992a	0.2056624
64	0x3f29c90a	0.66322386
65	0xbf5eb71b	-0.86998147
66	0x3f97865a	1.1837876
67	0x3ff3abcb	1.9036802
68	0x3fc69d05	1.5516669
69	0x3fd1170a	1.6335156
70	0xbf6ebffc	-0.93261695
71	0x3e6d4751	0.23171736
72	0x3f673dec	0.9032886
73	0xbf0c3914	-0.54774594
74	0xc024e775	-2.576627
75	0xbf99a5c4	-1.2003713
76	0xbf16beb0	-0.58884716
77	0xbdf1ff7e	-0.118163094
78	0xbf39ce31	-0.7258025
79	0xc0805e2b	-4.011495
80	0x3f0da6b9	0.55332524
81	0xbf4b1c2d	-0.7933987
82	0xbde2df67	-0.11077767
83	0xbf5ae5f9	-0.8550716
84	0x3e2fe401	0.1717682
85	0x3e4c2911	0.1993754
86	0xbf2eef10	-0.6833353
87	0xbfa2fe48	-1.273385
88	0xbf8b0d53	-1.0863441
89	0xbea3aeae	-0.31969208
90	0xbf2bb5ea	-0.67074454
91	0xbf9864d7	-1.1905774
92	0x3ee73c5e	0.45163244
93	0xbf1fd55a	-0.62434924
94	0x3f9d87ad	1.230703
95	0xbf736cb7	-0.9508776
96	0xbe643763	-0.22286753
97	0xbf3fe282	-0.74955
98	0x3d928fef	0.071563594
99	0x3f792e71	0.9733649
100	0xbe8bf75e	-0.27337164
101	0x3ed93a05	0.42427078
102	0xbef78749	-0.48345402
103	0xbec65eaa	-0.38744098
104	0x3ebe8180	0.37208176
105	0x3f8aab10	1.0833454
106	0xbf945eb6	-1.1591403
107	0x3edc7b4c	0.43062818
108	0x3f302bc9	0.6881681
109	0xbf10b22d	-0.56521875
110	0xbf1eeacb	-0.62077016
111	0x3e908465	0.2822601
112	0xbf09d35f	-0.5383815
113	0x3df29103	0.11844065
114	0xbfacf62a	-1.3512623
115	0x3e90ca60	0.282794
116	0xbfbaec6e	-1.4603403
117	0x3fd12808	1.6340342
118	0xbec28dee	-0.3799891
119	0xbf210b44	-0.62907815
120	0xbf091044	-0.53540444
121	0xbf6dede9	-0.9294115
122	0x3fad86e5	1.3556792
123	0xbf5f2de8	-0.8717942
124	0xbebe1720	-0.37127018
125	0x3f9cb1e1	1.2241784
126	0xbf6ec69b	-0.932718
127	0xbf089a0d	-0.5336006
128	0x3f033314	0.51249814
129	0xbf892457	-1.0714215
130	0xbf1cfba8	-0.61321497
131	0x3f459f35	0.77196056
132	0x3e09e9a4	0.13468033
133	0xbe9b61c8	-0.3034804
134	0xbf729724	-0.9476187
135	0xbe8deca2	-0.277196
136	0xbe7c007f	-0.24609564
137	0x3fbeebb9	1.4915687
138	0xbf8844a2	-1.0645945
139	0x3f7f5004	0.9973147
140	0xbedf1e4f	-0.4357781
141	0xbf2535ab	-0.64535016
142	0xbf482f96	-0.7819761
143	0x3efb74f5	0.4911267
144	0xbf527f7a	-0.82225764
145	0x3f6d257d	0.9263533
146	0xbf3acb4d	-0.7296646
147	0x3d8fca1c	0.07020971
148	0x3f0be8f9	0.54652363
149	0xc01a43bb	-2.410384
150	0xbfb9962b	-1.4498953
151	0xbfad1993	-1.352343
152	0xbf8fbf44	-1.1230245
153	0xbfebb93a	-1.8415902
154	0xbfe37cd9	-1.7772475
155	0x3ec12284	0.37721646
156	0xbf83ed99	-1.0306884
157	0x3f394cf3	0.7238304
158	0x3f41b95c	0.7567346
159	0xbeb29d3e	-0.3488559
160	0x3e13df1b	0.14440577
161	0xbefb37a5	-0.4906589
162	0xbe4b06e6	-0.1982685
163	0x3fd8213c	1.6885142
164	0xbe551640	-0.20809269
165	0xbf8c29df	-1.0950278
166	0x3ee8a5a7	0.45438883
167	0xbdbc6844	-0.091995746
168	0x3eb699f0	0.3566432
169	0x3eef0998	0.46687007
170	0xc0081608	-2.1263447
171	0x3e8c8420	0.27444553
172	0x3e0de977	0.13858591
173	0xbf1d182a	-0.61364996
174	0xbfec7eab	-1.8476156
175	0x3f8e94b5	1.1139132
176	0xbf830bf4	-1.0238023
177	0xbe893768	-0.26800084
178	0xbd3ab54c	-0.045583054
179	0x3fc228e9	1.5168735
180	0xbe2b2268	-0.16712344
181	0x3d6b52e9	0.057452116
182	0x3f047642	0.5174295
183	0x3f8f5329	1.1197253
184	0xbe562074	-0.20910817
185	0x3d6193e8	0.055072695
186	0x3f2d8957	0.6778769
187	0xbede31fb	-0.43397507
188	0xbe63d594	-0.22249442
189	0x3f0af218	0.54275656
190	0x3dd61e17	0.10454958
191	0xbf9ffa40	-1.2498245
192	0x3ea3adc5	0.31968513
193	0xbf1131b8	-0.5671649
194	0x3f31d604	0.69467187
195	0x3f087f20	0.5331898
196	0x3eec3751	0.46135953
197	0xbebada5b	-0.36494717
198	0xbfbfda22	-1.4988444
199	0xbf054442	-0.5205728
200	0x3dd08efb	0.10183521
201	0x3fb91b2d	1.4461418
202	0xbfc53dbf	-1.5409468
203	0x3eeeb0ca	0.46619254
204	0xbec4bd00	-0.38425446
205	0xbe8176dd	-0.25285998
206	0xbf4bdc9f	-0.79633516
207	0x3fac863a	1.3478463
208	0xbdfc31e1	-0.12314201
209	0x3e693e5b	0.22777693
210	0xba31c305	-0.00067810743
211	0xbf8d2070	-1.1025524
212	0x3eb8c743	0.36089525
213	0xbf7135b0	-0.94222546
214	0xbfc30cdb	-1.5238298
215	0xbf8c1055	-1.0942484
216	0xbf87dc4a	-1.0614102
217	0xbeac1143	-0.3360692
218	0xbf15edfc	-0.5856626
219	0x3f852136	1.040076
220	0x3e8ff222	0.2811442
221	0x3ca90fa8	0.020637348
222	0x3e850b49	0.25985172
223	0x3f7bd973	0.98378676
224	0x3f069a92	0.52579606
225	0x3e8d479e	0.27593702
226	0xbf5f4c9e	-0.87226284
227	0xbfc3fab0	-1.5310879
228	0x3f5e0ec6	0.8674129
229	0x3cd7ea54	0.026356854
230	0xbea7eb32	-0.32796627
231	0xbf84b26e	-1.0366952
232	0xbfa96dfd	-1.3236691
233	0xbf3a4600	-0.7276306
234	0xbfa3380e	-1.2751482
235	0x3f5993ff	0.8499145
236	0xbf711ae1	-0.9418164
237	0x3e09af44	0.13445765
238	0x3f7c9a71	0.9867316
239	0xbe074800	-0.1321106
240	0x3f484021	0.7822285
241	0xbe218027	-0.15771542
242	0xbecb6252	-0.3972345
243	0xbf04f67e	-0.5193862
244	0xbd06e8b3	-0.032936763
245	0xbeb68bc7	-0.35653517
246	0xbf9c71f1	-1.2222272
247	0xbff9208e	-1.946306
248	0xbf5c8e62	-0.8615476
249	0xbfa82796	-1.3137081
250	0xbec145aa	-0.37748462
251	0x3f977056	1.1831157
252	0xbf755e2b	-0.95846814
253	0x3f46ee86	0.7770771
254	0xbf1a2290	-0.6020899
255	0x3e63d9da	0.22251073

positional_embedding_table.weight f4 [8, 16]
0	0xc06230d7	-3.534231
1	0x3f7853ff	0.9700317
2	0xbf51504c	-0.8176315
3	0xbfa84dd9	-1.3148757
4	0x3f50d1ed	0.8157032
5	0xbf2e9931	-0.682025
6	0x3f006a0a	0.501618
7	0xc001d3a0	-2.0285416
8	0xbe75b12e	-0.2399337
9	0xbf4892a9	-0.78348786
10	0xbc46552a	-0.012105266
11	0x3f7722b8	0.9653735
12	0x3d357616	0.04430207
13	0x3ea3666d	0.31914082
14	0x3d73323a	0.05937407
15	0xc0064ce3	-2.0984428
16	0xbfb8c0f5	-1.4433886
17	0x3f473671	0.77817446
18	0xbe92b037	-0.28650066
19	0x3f0790e1	0.5295544
20	0x3c9b52ae	0.018960323
21	0xbf79b979	-0.97548634
22	0xbd58cb21	-0.052928094
23	0xbf5f00e0	-0.8711071
24	0xbe90b121	-0.2826014
25	0xbea1a1c3	-0.31568727
26	0xbeb84350	-0.35988855
27	0x3f3bf86d	0.7342594
28	0xbd92726e	-0.07150732
29	0xbf3242e0	-0.69633293
30	0xbd188d3f	-0.037244078
31	0xbfa7370e	-1.3063676
32	0xbf944eb1	-1.1586515
33	0x3ebe2e73	0.37144813
34	0xbdf748ea	-0.12074454
35	0xbebfa1c5	-0.37428108
36	0x3e89d969	0.26923683
37	0xbed35442	-0.4127522
38	0xbecc24be	-0.39871782
39	0x3c95e9d5	0.018299976
40	0xbd4ed696	-0.050497614
41	0xbea8811a	-0.32910997
42	0x3e4d7675	0.20064719
43	0xbdf2c8a4	-0.118546754
44	0x3f3e3f99	0.7431579
45	0xbf11ddd9	-0.5697914
46	0xbe5ea0f5	-0.21741088
47	0xbe25d13e	-0.16193101
48	0xbe16c04f	-0.14721797
49	0x3f08a7b1	0.53380877
50	0xbe357412	-0.17720059
51	0x3dad8591	0.084727414
52	0x3e48b042	0.19598487
53	0x3e28395f	0.16428135
54	0x3ce71984	0.028210409
55	0x3e767b2f	0.24070428
56	0xbf04b313	-0.51835746
57	0x3c3c730c	0.011502039
58	0xbedff577	-0.43741962
59	0xbdb0ac00	-0.086265564
60	0x3e8d597f	0.27607343
61	0xbed288c6	-0.41119975
62	0xbf1b7298	-0.6072173
63	0xbeaae0e5	-0.33374706
64	0x3ebf1448	0.3732016
65	0x3f130b32	0.5743896
66	0xbed9286b	-0.4241365
67	0x3e7cb22d	0.24677344
68	0x3d7a0bf8	0.06104657
69	0x3ea7cd76	0.32773942
70	0x3df42e98	0.119229496
71	0xbe7c508f	-0.24640106
72	0x3e6cb7cc	0.23116988
73	0x3e9ae316	0.30251378
74	0xbeb40b7f	-0.3516502
75	0xbf1e6591	-0.6187373
76	0xbeee2c72	-0.46518284
77	0xbf1871d6	-0.595487
78	0xbe8c4644	-0.27397358
79	0xbdc7bcab	-0.097527824
80	0x3dc3427f	0.095341675
81	0xbd737fae	-0.059447937
82	0x3ec4b400	0.3841858
83	0x3f006fc5	0.50170547
84	0x3e7b76f2	0.24557093
85	0xbeb9ed5a	-0.36313897
86	0xbc8271cc	-0.015923403
87	0xbeaa6860	-0.33282757
88	0xbe8b9abb	-0.27266487
89	0x3ef35a69	0.47529915
90	0xbe857141	-0.26062968
91	0xbefeb566	-0.4974777
92	0xbdb81fa9	-0.08990414
93	0xbe87bf08	-0.26512933
94	0xbea44cf1	-0.32089952
95	0xbe94160a	-0.28923064
96	0x3ed166be	0.408987
97	0xbdf0033a	-0.117193654
98	0x3e495fed	0.19665499
99	0x3e4a910e	0.19781896
100	0x3e48ddc6	0.1961585
101	0x3c513aa5	0.01277033
102	0xbe65a5b1	-0.22426488
103	0xbe3f0cc7	-0.18657218
104	0xbecc324c	-0.39882123
105	0x3f4b56b6	0.79429185
106	0x3ebd86ae	0.37016815
107	0xbf57fa1c	-0.8436601
108	0x3caaf676	0.020869475
109	0xbe6f7581	-0.23384668
110	0xbf49c0e6	-0.78809965
111	0xbe0bc402	-0.1364899
112	0x3dde10bc	0.108430356
113	0xbf49e571	-0.78865725
114	0xbd92de3a	-0.071712926
115	0xbe912b45	-0.28353325
116	0xbf584e40	-0.844944
117	0x3e5ea1f6	0.2174147
118	0xbf4e4949	-0.80580574
119	0x3e6b90de	0.23004481
120	0xbdba4511	-0.090952046
121	0x3e5ed7a0	0.21761942
122	0x3f090059	0.53516155
123	0xbf919ef9	-1.137664
124	0x3ec8fc5c	0.39255035
125	0xbeecea2b	-0.46272406
126	0xbf4eec3e	-0.80829227
127	0x3e4de527	0.20106946

heads.0.heads.0.tril f4 [8, 8]
0	0x3f800000	1.0
1	0x00000000	0.0
2	0x00000000	0.0
3	0x00000000	0.0
4	0x00000000	0.0
5	0x00000000	0.0
6	0x00000000	0.0
7	0x00000000	0.0
8	0x3f800000	1.0
9	0x3f800000	1.0
10	0x00000000	0.0
11	0x00000000	0.0
12	0x00000000	0.0
13	0x00000000	0.0
14	0x00000000	0.0
15	0x00000000	0.0
16	0x3f800000	1.0
17	0x3f800000	1.0
18	0x3f800000	1.0
19	0x00000000	0.0
20	0x00000000	0.0
21	0x00000000	0.0
22	0x00000000	0.0
23	0x00000000	0.0
24	0x3f800000	1.0
25	0x3f800000	1.0
26	0x3f800000	1.0
27	0x3f800000	1.0
28	0x00000000	0.0
29	0x00000000	0.0
30	0x00000000	0.0
31	0x00000000	0.0
32	0x3f800000	1.0
33	0x3f800000	1.0
34	0x3f800000	1.0
35	0x3f800000	1.0
36	0x3f800000	1.0
37	0x00000000	0.0
38	0x00000000	0.0
39	0x00000000	0.0
40	0x3f800000	1.0
41	0x3f800000	1.0
42	0x3f800000	1.0
43	0x3f800000	1.0
44	0x3f800000	1.0
45	0x3f800000	1.0
46	0x00000000	0.0
47	0x00000000	0.0
48	0x3f800000	1.0
49	0x3f800000	1.0
50	0x3f800000	1.0
51	0x3f800000	1.0
52	0x3f800000	1.0
53	0x3f800000	1.0
54	0x3f800000	1.0
55	0x00000000	0.0
56	0x3f800000	1.0
57	0x3f800000	1.0
58	0x3f800000	1.0
59	0x3f800000	1.0
60	0x3f800000	1.0
61	0x3f800000	1.0
62	0x3f800000	1.0
63	0x3f800000	1.0

heads.0.heads.0.key.weight f4 [4, 16]
0	0x3f7d4f89	0.98949486
1	0x3c46ee91	0.01214184
2	0x3f5d4a6e	0.86441696
3	0xbea0a089	-0.3137248
4	0x3f2ad8cc	0.66737056
5	0x3e49ef07	0.19720088
6	0x3e5fc6e0	0.21853209
7	0x3f42c22f	0.7607755
8	0xbe4c56de	-0.19955012
9	0xbeb53fcb	-0.35400233
10	0x3e2a9b9b	0.16660921
11	0xbf28d697	-0.6595244
12	0xbf6811b9	-0.9065204
13	0x3e797723	0.24361853
14	0x3f01c4b4	0.5069077
15	0x3cb8b175	0.022545556
16	0x3e6d8819	0.23196448
17	0xbf86adf6	-1.0521839
18	0x3f250992	0.6446773
19	0xbf143d0f	-0.5790567
20	0x3e8c375f	0.27385995
21	0xbf1b0ed2	-0.6056949
22	0x3e843f3b	0.2582949
23	0x3ecc2007	0.39868185
24	0xbd57a1fd	-0.05264472
25	0xbeb6bfef	-0.3569331
26	0x3f7ea637	0.99472374
27	0x3e07a3f3	0.13246135
28	0xbea8fc81	-0.33005145
29	0x3ce5b613	0.028040921
30	0xbd13a9b4	-0.036050513
31	0x3ebd85f0	0.3701625
32	0xbf0c60de	-0.5483531
33	0xbeea775f	-0.45794198
34	0xbe8a3c61	-0.2699919
35	0xbe82009d	-0.25391093
36	0xbf2ce772	-0.6754066
37	0xbf9c9630	-1.2233334
38	0xbe51ff13	-0.2050746
39	0xbe015310	-0.12629342
40	0xbf1d5b17	-0.6146712
41	0xbe1d067f	-0.1533451
42	0xbf03e10e	-0.5151528
43	0x3f24772f	0.6424436
44	0x3ec18388	0.37795663
45	0x3e649d7a	0.22325698
46	0xbf1d953c	-0.6155584
47	0xbd0a9385	-0.03383209
48	0xbe91a390	-0.284451
49	0xbe6e6315	-0.23279984
50	0x3e9c4cb0	0.30527258
51	0x3f32b690	0.6980982
52	0x3ea00e34	0.31260836
53	0x3e8607b5	0.26177755
54	0xbda822c5	-0.08209757
55	0xbe8f3641	-0.2797108
56	0x3e820518	0.2539451
57	0x3e613ed0	0.21996617
58	0xbf1e4673	-0.61826247
59	0x3e67049c	0.22560352
60	0x3e8efec2	0.2792874
61	0x3c4ee31a	0.012627387
62	0xbe956c6f	-0.2918429
63	0x3e9205fe	0.28520197

heads.0.heads.0.query.weight f4 [4, 16]
0	0x3f7d3461	0.9890805
1	0xbee44fb3	-0.44592056
2	0xbc7846ea	-0.015153626
3	0x3e8d41ae	0.27589172
4	0x3e1f9dba	0.15587512
5	0xbe0f44e4	-0.13991123
6	0xbe0251dd	-0.12726541
7	0x3f07fa01	0.5311585
8	0xbea54ff7	-0.3228757
9	0x3d3bf5fe	0.045888893
10	0x3ee4e919	0.4470909
11	0xbf8df1db	-1.1089433
12	0xbf042580	-0.5161972
13	0xbedf45af	-0.43607852
14	0x3f14f145	0.5818065
15	0x3ea9170a	0.3302539
16	0xbeeaa672	-0.45830113
17	0xbef9db9f	-0.4880037
18	0x3f047d01	0.5175324
19	0xbe4f97f0	-0.20272803
20	0xbe23a42c	-0.15980595
21	0x3d778fd5	0.060439903
22	0x3e8b1d47	0.27170774
23	0x3e6ecd6f	0.23320554
24	0xbec14743	-0.3774968
25	0x3e88e0f2	0.2673412
26	0xbe98ad0c	-0.29819524
27	0x3f26c9c6	0.6515163
28	0x3ebadf94	0.36498702
29	0x3e9c6f47	0.30553648
30	0xbe6d4727	-0.23171674
31	0xbe973921	-0.29535773
32	0xbd524404	-0.051334396
33	0x3e92ccb4	0.286718
34	0xbd84ff5a	-0.06494017
35	0x3e3d68b5	0.18496974
36	0xbe97b967	-0.29633638
37	0xbebda51d	-0.37040034
38	0x3eccd7d2	0.40008408
39	0x3e59f485	0.21284683
40	0xbe709e87	-0.23497973
41	0x3e8393d5	0.25698724
42	0x3daf39c1	0.085559376
43	0xbef591b8	-0.47962737
44	0xbf411743	-0.7542612
45	0xbdc55663	-0.096356176
46	0x3d4ae106	0.049531005
47	0x3e68a295	0.2271827
48	0xbf34c7ba	-0.7061726
49	0xbd9eae46	-0.07748084
50	0x3ef042b2	0.46925884
51	0x3f09dda2	0.5385381
52	0x3e2987d6	0.16555724
53	0xbf07a223	-0.52981776
54	0xbf1af412	-0.6052867
55	0x3e61943e	0.22029206
56	0x3c9a5472	0.018839095
57	0xbe336e26	-0.17522487
58	0x3f06f881	0.52722937
59	0x3e142344	0.14466578
60	0x3f3360b3	0.70069426
61	0x3d49f6d7	0.04930767
62	0x3f5d24da	0.86384356
63	0x3f03e740	0.51524734

heads.0.heads.0.value.weight f4 [4, 16]
0	0xbf84628f	-1.0342578
1	0xbf075215	-0.5285962
2	0x3ea8b04a	0.32946998
3	0xbfac4bb0	-1.3460598
4	0xbe8ea8f4	-0.27863276
5	0xbf210757	-0.62901825
6	0xbf978cc3	-1.1839832
7	0xbfb9185a	-1.4460557
8	0x3f76bcf5	0.96382076
9	0x3fed9e1a	1.8563874
10	0xbf3f143d	-0.74640256
11	0x400d000e	2.2031283
12	0x3ec4e434	0.38455355
13	0x3f985115	1.1899744
14	0xbeafac60	-0.343112
15	0x3fa33535	1.2750612
16	0x3d7a64bd	0.061131228
17	0x3f35fc9a	0.71088564
18	0x3f934de3	1.1508144
19	0x3fb6e080	1.4287262
20	0xbf3e5ada	-0.7435738
21	0x3f2f6527	0.6851372
22	0x3f3e4c95	0.74335605
23	0x3eb6d02b	0.35705695
24	0x3ef61cf6	0.4806897
25	0x3fa8d59d	1.319019
26	0x3f2ac2d3	0.6670353
27	0xbdbbc229	-0.091678925
28	0x3f991956	1.1960857
29	0x3e9bd613	0.30436763
30	0xbf9852d1	-1.1900274
31	0x3ff80748	1.9377222
32	0xc031721e	-2.7725902
33	0x3fe39ebe	1.7782819
34	0xbe664b2d	-0.22489615
35	0xbf22464d	-0.6338852
36	0x400f88b5	2.242719
37	0xbf7695bd	-0.9632223
38	0x3f78b6db	0.97154015
39	0xc033b662	-2.8080068
40	0x3fb9428b	1.4473432
41	0xbf54decb	-0.83152455
42	0xbfbc2638	-1.4699163
43	0xbea9cca1	-0.33163932
44	0x402ec063	2.7304924
45	0xc028aa50	-2.635395
46	0x3d809233	0.06277885
47	0xc045a2ef	-3.0880697
48	0x401cf5ff	2.4525144
49	0xbfac715f	-1.3472098
50	0x40128d74	2.2898836
51	0xbfa02f1a	-1.2514374
52	0xbedce9ba	-0.4314707
53	0x3f9f8f8e	1.2465684
54	0x3ee007ac	0.43755853
55	0x40329d14	2.7908373
56	0xbfaa801d	-1.3320347
57	0x3f297b6c	0.6620395
58	0xbfddc8ea	-1.7326939
59	0xbf38c874	-0.7218087
60	0xc0062e70	-2.0965843
61	0xbfafb335	-1.3726565
62	0x4023095d	2.5474465
63	0x3ff7feb1	1.9374601

heads.0.heads.1.tril f4 [8, 8]
0	0x3f800000	1.0
1	0x00000000	0.0
2	0x00000000	0.0
3	0x00000000	0.0
4	0x00000000	0.0
5	0x00000000	0.0
6	0x00000000	0.0
7	0x00000000	0.0
8	0x3f800000	1.0
9	0x3f800000	1.0
10	0x00000000	0.0
11	0x00000000	0.0
12	0x00000000	0.0
13	0x00000000	0.0
14	0x00000000	0.0
15	0x00000000	0.0
16	0x3f800000	1.0
17	0x3f800000	1.0
18	0x3f800000	1.0
19	0x00000000	0.0
20	0x00000000	0.0
21	0x00000000	0.0
22	0x00000000	0.0
23	0x00000000	0.0
24	0x3f800000	1.0
25	0x3f800000	1.0
26	0x3f800000	1.0
27	0x3f800000	1.0
28	0x00000000	0.0
29	0x00000000	0.0
30	0x00000000	0.0
31	0x00000000	0.0
32	0x3f800000	1.0
33	0x3f800000	1.0
34	0x3f800000	1.0
35	0x3f800000	1.0
36	0x3f800000	1.0
37	0x00000000	0.0
38	0x00000000	0.0
39	0x00000000	0.0
40	0x3f800000	1.0
41	0x3f800000	1.0
42	0x3f800000	1.0
43	0x3f800000	1.0
44	0x3f800000	1.0
45	0x3f800000	1.0
46	0x00000000	0.0
47	0x00000000	0.0
48	0x3f800000	1.0
49	0x3f800000	1.0
50	0x3f800000	1.0
51	0x3f800000	1.0
52	0x3f800000	1.0
53	0x3f800000	1.0
54	0x3f800000	1.0
55	0x00000000	0.0
56	0x3f800000	1.0
57	0x3f800000	1.0
58	0x3f800000	1.0
59	0x3f800000	1.0
60	0x3f800000	1.0
61	0x3f800000	1.0
62	0x3f800000	1.0
63	0x3f800000	1.0

heads.0.heads.1.key.weight f4 [4, 16]
0	0xbec3f788	-0.3827479
1	0x3ea0fc07	0.31442282
2	0xbe8b1bdc	-0.27169693
3	0xbf3e5d0c	-0.7436073
4	0x3f242736	0.6412233
5	0xbd8271b3	-0.06369343
6	0xbeecb92e	-0.4623503
7	0xbeb065de	-0.34452718
8	0x3e9c7dcb	0.30564722
9	0x3e6ea167	0.23303758
10	0xbd90ec60	-0.07076335
11	0x3fa4dbab	1.2879537
12	0xbd875ed5	-0.06609885
13	0xbf8e2e21	-1.1107827
14	0x3f7bf38d	0.98418504
15	0xbcbc60ba	-0.022995342
16	0xbd3fa056	-0.046783768
17	0x3f649421	0.89288527
18	0x3cd0da3b	0.025494685
19	0x3e35d920	0.17758608
20	0xbed9ba50	-0.42524958
21	0xbe81205d	-0.25220004
22	0x3e8912a8	0.26772046
23	0x3e3dde09	0.18541731
24	0xbdf8f1fe	-0.12155531
25	0x3ea4dcbc	0.32199657
26	0xbdb5157d	-0.08841989
27	0xbeb06338	-0.34450698
28	0xbee4f3e4	-0.44717324
29	0xbe867d8d	-0.26267663
30	0xbdfc42b4	-0.1231741
31	0x3ef2e230	0.47438192
32	0xbeea1514	-0.45719206
33	0xbeaccee9	-0.3375161
34	0x3e81731c	0.25283134
35	0xbf6d3faa	-0.9267527
36	0xbcc6f05c	-0.024284534
37	0xbe7537cc	-0.23947066
38	0xbeafee43	-0.34361467
39	0xbf374227	-0.71585315
40	0x3e33b1de	0.1754832
41	0x3efd336e	0.494533
42	0x3edfce7c	0.43712223
43	0x3f18ec0c	0.5973518
44	0xbe16ced0	-0.1472733
45	0xbed238f4	-0.41059077
46	0xbe97f672	-0.2968021
47	0xbd8941cf	-0.06702005
48	0x3e2b7d0e	0.16746923
49	0xbe95260a	-0.29130584
50	0x3e29abdd	0.16569467
51	0x3ebc263f	0.3674793
52	0xbd35066e	-0.044195585
53	0x3e90355e	0.28165716
54	0x3c783d91	0.015151397
55	0x3eb093b0	0.34487677
56	0xbe7b230e	-0.24525091
57	0xbeb87d62	-0.3603316
58	0xbf315141	-0.6926461
59	0xbda6f84a	-0.08152826
60	0xbe676bd5	-0.22599728
61	0xbb7463f5	-0.0037291024
62	0x3cfc6195	0.03080825
63	0x3d914502	0.0709324

heads.0.heads.1.query.weight f4 [4, 16]
0	0xbf045bb6	-0.5170244
1	0x3ecf2916	0.40461034
2	0xbe769d61	-0.24083473
3	0x3ef3b701	0.47600558
4	0x3ec99871	0.39374116
5	0x3e428261	0.18995048
6	0xbf1c2b9d	-0.6100405
7	0xbed88a03	-0.42292795
8	0xbe49483e	-0.19656464
9	0xbd6956a6	-0.0569674
10	0xbc612b01	-0.013743163
11	0xbe0e786a	-0.13913122
12	0x3eae32dd	0.3402318
13	0xbe638ec1	-0.22222425
14	0xbe2745c1	-0.16335203
15	0xbec81af6	-0.3908307
16	0xbe876557	-0.26444504
17	0x3e279b7f	0.16367911
18	0x3eb64b31	0.35604241
19	0x3f1e8ad6	0.61930597
20	0xbda0d00b	-0.07852181
21	0x3e9bf663	0.30461416
22	0xbe32040a	-0.17384353
23	0x3e507fc8	0.20361245
24	0xbfacd704	-1.3503118
25	0xbf228e5b	-0.6349847
26	0xbea4e50f	-0.32206008
27	0xbea92891	-0.33038762
28	0x3f05a51f	0.5220508
29	0x3e2aa27e	0.16663548
30	0x3ebabfcc	0.36474454
31	0xbea2ebd8	-0.3182056
32	0x3f426097	0.75928634
33	0xbef1a262	-0.471942
34	0xbc882bda	-0.016622473
35	0xbf31892c	-0.6934993
36	0xbc878b4e	-0.016545918
37	0xbf0fa19c	-0.5610597
38	0x3f05b4fa	0.52229273
39	0x3f19127d	0.59793836
40	0xbc988af6	-0.01862095
41	0xbe191755	-0.14950307
42	0x3e129b77	0.14317118
43	0xbf3316ff	-0.69956964
44	0x3eb4f8eb	0.3534616
45	0x3f156d9e	0.5837039
46	0x3f2847d8	0.65734625
47	0x3e4da8cf	0.20083927
48	0xbf5d1352	-0.86357605
49	0x3f456874	0.7711251
50	0xbebd8269	-0.37013558
51	0xbf67480e	-0.9034432
52	0x3e9a2957	0.30109665
53	0xbf202a13	-0.625642
54	0xbe60182d	-0.21884222
55	0x3e84a8b5	0.25909963
56	0xbe2bad65	-0.16765364
57	0xbda4ab23	-0.08040454
58	0xbf7a609e	-0.97803676
59	0x3dc01f70	0.09380996
60	0xbe6da888	-0.23208821
61	0x3e42181d	0.18954511
62	0x3eaeb33e	0.34121126
63	0x3e0a5a18	0.1351093

heads.0.heads.1.value.weight f4 [4, 16]
0	0x3f12c2a5	0.57328254
1	0x3cdf270c	0.027240299
2	0x3f749fd4	0.9555638
3	0x3f35502a	0.70825446
4	0x40036120	2.052803
5	0xbf902ed6	-1.1264293
6	0x3f134095	0.5752042
7	0x3fd4081b	1.6564974
8	0x3f335d5f	0.7006435
9	0x3fbc4613	1.4708885
10	0xc0346770	-2.8188133
11	0x4005e6fc	2.0922232
12	0xbfd5c698	-1.6701231
13	0xbea50c0b	-0.3223575
14	0x3f06403a	0.5244175
15	0xbf60dfbb	-0.87841386
16	0x3f2c042d	0.6719387
17	0xbf615ed0	-0.880353
18	0x3eccf075	0.40027204
19	0xbfcbfda4	-1.593678
20	0x3f4f5bba	0.8099934
21	0x3e0db895	0.13839944
22	0x3d8cb505	0.06870464
23	0xc00cee31	-2.202038
24	0x3f3fc3ff	0.7490844
25	0xbf1dbcc1	-0.6161614
26	0x3fe4031d	1.781345
27	0xbe66fd29	-0.2255751
28	0x3d8f4e03	0.069973014
29	0xc0098db5	-2.149274
30	0x3f8475ca	1.0348446
31	0x3cf44d8f	0.02982214
32	0xbfaf06b4	-1.3673921
33	0x3fb7dd2a	1.4364369
34	0x3f59da14	0.85098386
35	0xbe17cdb3	-0.14824562
36	0xbfbe69dc	-1.4876056
37	0xbd442c64	-0.047893897
38	0x3f8a9d41	1.082924
39	0x3f87d45a	1.061168
40	0x3e793ca1	0.24339534
41	0x3f5ed204	0.8703921
42	0x3fa91556	1.3209636
43	0x3f4234c8	0.7586179
44	0x3f3d9ed1	0.7407046
45	0xbe843b14	-0.25826323
46	0xbdf17c9a	-0.11791344
47	0x3f09775f	0.5369777
48	0x3ef5a62c	0.47978342
49	0xbfbdfcc9	-1.4842769
50	0xbf5daa26	-0.8658775
51	0x3f925420	1.1431923
52	0x3ef7f57d	0.4842948
53	0xbf0fdd8e	-0.5619744
54	0xbfd4a4ec	-1.661283
55	0xbf5513e2	-0.83233464
56	0xbfc17519	-1.511386
57	0x3fc55494	1.5416436
58	0xbfe6cccb	-1.8031248
59	0xc002301f	-2.034187
60	0x3f8165ad	1.0109154
61	0xbfed64b5	-1.8546358
62	0xc0009a62	-2.0094228
63	0xbf9af93a	-1.2107308

heads.0.heads.2.tril f4 [8, 8]
0	0x3f800000	1.0
1	0x00000000	0.0
2	0x00000000	0.0
3	0x00000000	0.0
4	0x00000000	0.0
5	0x00000000	0.0
6	0x00000000	0.0
7	0x00000000	0.0
8	0x3f800000	1.0
9	0x3f800000	1.0
10	0x00000000	0.0
11	0x00000000	0.0
12	0x00000000	0.0
13	0x00000000	0.0
14	0x00000000	0.0
15	0x00000000	0.0
16	0x3f800000	1.0
17	0x3f800000	1.0
18	0x3f800000	1.0
19	0x00000000	0.0
20	0x00000000	0.0
21	0x00000000	0.0
22	0x00000000	0.0
23	0x00000000	0.0
24	0x3f800000	1.0
25	0x3f800000	1.0
26	0x3f800000	1.0
27	0x3f800000	1.0
28	0x00000000	0.0
29	0x00000000	0.0
30	0x00000000	0.0
31	0x00000000	0.0
32	0x3f800000	1.0
33	0x3f800000	1.0
34	0x3f800000	1.0
35	0x3f800000	1.0
36	0x3f800000	1.0
37	0x00000000	0.0
38	0x00000000	0.0
39	0x00000000	0.0
40	0x3f800000	1.0
41	0x3f800000	1.0
42	0x3f800000	1.0
43	0x3f800000	1.0
44	0x3f800000	1.0
45	0x3f800000	1.0
46	0x00000000	0.0
47	0x00000000	0.0
48	0x3f800000	1.0
49	0x3f800000	1.0
50	0x3f800000	1.0
51	0x3f800000	1.0
52	0x3f800000	1.0
53	0x3f800000	1.0
54	0x3f800000	1.0
55	0x00000000	0.0
56	0x3f800000	1.0
57	0x3f800000	1.0
58	0x3f800000	1.0
59	0x3f800000	1.0
60	0x3f800000	1.0
61	0x3f800000	1.0
62	0x3f800000	1.0
63	0x3f800000	1.0

heads.0.heads.2.key.weight f4 [4, 16]
0	0x3d9e288c	0.077225775
1	0xbe09853e	-0.13429734
2	0x3f138baf	0.57635015
3	0xbe3f721e	-0.18695876
4	0x3f3b5f2e	0.7319211
5	0x3e945b36	0.28975838
6	0x3f4ae91f	0.79261965
7	0xbe8649ae	-0.26228088
8	0xbe996052	-0.299563
9	0x3ee87b65	0.45406643
10	0x3da29069	0.079377
11	0x3db16fec	0.086639255
12	0xbeeaa011	-0.45825246
13	0xbeabfc88	-0.33591104
14	0x3ecdb386	0.40176028
15	0xbdb1ad3b	-0.08675619
16	0x3ec00098	0.37500453
17	0x3e36254b	0.17787664
18	0x3f82a236	1.0205753
19	0x3f96a796	1.1769893
20	0x3f2b972c	0.67027545
21	0xbd9762df	-0.07391905
22	0x3f3e16b3	0.74253386
23	0xbd944b1a	-0.07240887
24	0xbf092189	-0.53566796
25	0x3f4a1d5b	0.7895104
26	0xbe9e5934	-0.30927432
27	0x3f7ebd2d	0.9950741
28	0x3f12a99e	0.57290065
29	0xbeaf58dd	-0.34247485
30	0x3e9cd53a	0.3063143
31	0x3f0fdfca	0.5620085
32	0xbec3a559	-0.38212088
33	0x3e4c3659	0.19942607
34	0xbf25d46a	-0.64777243
35	0x3e75fcba	0.24022189
36	0x3ead91f9	0.3390043
37	0x3ee75f3e	0.45189852
38	0xbe88ad7d	-0.2669486
39	0xbe002896	-0.12515482
40	0xbe812010	-0.25219774
41	0x3f076bc8	0.52898836
42	0x3da19424	0.07889584
43	0x3f18882b	0.59582776
44	0xbdac7a77	-0.08421796
45	0x3eebc76c	0.46050584
46	0x3d075e2a	0.033048786
47	0xbd5ec8e2	-0.054390796
48	0xbefe3cbf	-0.4965572
49	0x3f20dc04	0.6283572
50	0x3c7394df	0.014867037
51	0x3f4d34ba	0.8015858
52	0xbb84532d	-0.0040382356
53	0x3ea14735	0.3149964
54	0xbe6fbc3f	-0.23411654
55	0xbfa343e5	-1.2755095
56	0xbf1197c8	-0.56872225
57	0xbd8f99fb	-0.07011791
58	0x3eb396fe	0.35076135
59	0x3ecc38da	0.39887124
60	0x3f45018e	0.769555
61	0x3df3e545	0.11908964
62	0xbf052103	-0.52003497
63	0xbe6793a6	-0.22614917

heads.0.heads.2.query.weight f4 [4, 16]
0	0xbdbf7f51	-0.093504556
1	0xbe4b3f53	-0.19848375
2	0xbe221f90	-0.15832353
3	0x3d705043	0.058670294
4	0x3f14b16e	0.58083236
5	0x3fa1e505	1.2648016
6	0x3df3fba1	0.11913229
7	0x3d5ac619	0.053411577
8	0x3eb73b1a	0.35787278
9	0xbf57b74a	-0.8426405
10	0x3e9a3d5a	0.30124933
11	0x3e59cf6a	0.21270528
12	0xbf4c3721	-0.7977162
13	0xbecb2c4d	-0.39682236
14	0xbf7d3be1	-0.9891949
15	0xbf625c83	-0.8842241
16	0x3fc90e0d	1.5707413
17	0xbe62c10d	-0.22143956
18	0x3f0b9f75	0.5454019
19	0x3eb48a29	0.35261658
20	0x3ec4d37a	0.38442594
21	0x3effdb66	0.49972075
22	0xbe891636	-0.26774758
23	0x3e1a66da	0.15078297
24	0xbf3cd4f7	-0.7376246
25	0x3f5b4c02	0.85662854
26	0xbde98d8e	-0.114039525
27	0x3d84361d	0.06455634
28	0x3e1f02d6	0.15528426
29	0xbf137b15	-0.57609683
30	0x3e6a1f55	0.22863515
31	0x3da3122d	0.07962451
32	0x3e3dd3bb	0.185378
33	0x3f1cdb2f	0.6127195
34	0x3e16edd8	0.14739168
35	0xbea28656	-0.31743115
36	0x3e8ce09e	0.2751512
37	0x3f503e19	0.81344754
38	0x3e928574	0.28617442
39	0xbe4c730f	-0.19965766
40	0xbe4e982e	-0.2017524
41	0x3e324c3c	0.17411894
42	0xbe7813f6	-0.24226364
43	0xbda55ab1	-0.08073939
44	0x3e9800c2	0.29688078
45	0x3f685a4c	0.9076278
46	0xbf0665a9	-0.5249887
47	0x3e0898d5	0.13339551
48	0xbf72cb64	-0.948416
49	0x3f46ec76	0.7770456
50	0xbf1dc36d	-0.6162632
51	0x3e855129	0.26038483
52	0xbe8a6b12	-0.27034813
53	0xbec139a1	-0.3773928
54	0xbef6d1a4	-0.48206818
55	0xbebcd8c5	-0.36884132
56	0xbde9a8f8	-0.11409181
57	0xbf2c8800	-0.6739502
58	0xbf249264	-0.64285874
59	0x3ee610de	0.44934744
60	0x3f4bc8f8	0.7960353
61	0xbe5cfe80	-0.21581459
62	0x3e6d1050	0.23150754
63	0xbf31ec44	-0.6950114

heads.0.heads.2.value.weight f4 [4, 16]
0	0xbff2bf5a	-1.8964646
1	0x400cbe52	2.1991162
2	0xbe05c8d6	-0.13064894
3	0xbf477a27	-0.77920765
4	0x3e0478e5	0.12936743
5	0xbe2195be	-0.15779778
6	0x3fee0579	1.859542
7	0x3f2e2e21	0.6803914
8	0x3f753f86	0.95800054
9	0xbfb626a0	-1.4230537
10	0x3ff19d21	1.8876077
11	0x3fd271ad	1.6440941
12	0xbf4cc8fa	-0.79994166
13	0x3ffce809	1.9758312
14	0x3f9af878	1.2107077
15	0xbfa7c6c6	-1.3107536
16	0x3fbf1c9d	1.4930607
17	0x3fa288f8	1.269805
18	0x3fde361d	1.7360264
19	0xbe8ef612	-0.27922112
20	0xbf90d295	-1.1314265
21	0x3f9987d6	1.1994579
22	0x3f6a9e78	0.91648054
23	0x3fdff311	1.7496053
24	0x3f438e08	0.763886
25	0xbef06b44	-0.46956837
26	0x3f1494b9	0.5803943
27	0xbfc7af0e	-1.5600297
28	0xbfab0b6b	-1.336286
29	0x3e956eaa	0.29185992
30	0x3f9743d0	1.181757
31	0x3f2ae22c	0.6675136
32	0xbf452a2b	-0.7701747
33	0x3f6a2236	0.9145845
34	0x3eb5fe7b	0.35545716
35	0xbf9d5bb5	-1.2293612
36	0xbf826c63	-1.0189327
37	0xbeb2b860	-0.34906292
38	0x3f2d8b1d	0.67790395
39	0xbcd0ca61	-0.025487127
40	0x3f89e37a	1.0772545
41	0x3eaff7e6	0.3436882
42	0xbf0afd7d	-0.5429304
43	0x3facb65f	1.3493155
44	0xbf3d85be	-0.740322
45	0x3f34cfa2	0.7062932
46	0xbbcaf061	-0.006193206
47	0x3fd248f7	1.6428517
48	0x3fc2c4b9	1.5216285
49	0x3c63f0c4	0.0139123835
50	0xbfae5411	-1.3619405
51	0x3f1e6e03	0.61886615
52	0xbf91fb41	-1.1404802
53	0x3f8c2187	1.0947732
54	0xbddfc595	-0.10926358
55	0x3fe82aae	1.8138025
56	0xbf80d3a7	-1.0064591
57	0xbf9d5233	-1.229071
58	0x3f8ed5fc	1.1159053
59	0xbfbcab38	-1.4739752
60	0xbe99bc85	-0.3002664
61	0x3f859719	1.0436736
62	0x3e8ef724	0.27922928
63	0x3f6bbfd1	0.92089564

heads.0.heads.3.tril f4 [8, 8]
0	0x3f800000	1.0
1	0x00000000	0.0
2	0x00000000	0.0
3	0x00000000	0.0
4	0x00000000	0.0
5	0x00000000	0.0
6	0x00000000	0.0
7	0x00000000	0.0
8	0x3f800000	1.0
9	0x3f800000	1.0
10	0x00000000	0.0
11	0x00000000	0.0
12	0x00000000	0.0
13	0x00000000	0.0
14	0x00000000	0.0
15	0x00000000	0.0
16	0x3f800000	1.0
17	0x3f800000	1.0
18	0x3f800000	1.0
19	0x00000000	0.0
20	0x00000000	0.0
21	0x00000000	0.0
22	0x00000000	0.0
23	0x00000000	0.0
24	0x3f800000	1.0
25	0x3f800000	1.0
26	0x3f800000	1.0
27	0x3f800000	1.0
28	0x00000000	0.0
29	0x00000000	0.0
30	0x00000000	0.0
31	0x00000000	0.0
32	0x3f800000	1.0
33	0x3f800000	1.0
34	0x3f800000	1.0
35	0x3f800000	1.0
36	0x3f800000	1.0
37	0x00000000	0.0
38	0x00000000	0.0
39	0x00000000	0.0
40	0x3f800000	1.0
41	0x3f800000	1.0
42	0x3f800000	1.0
43	0x3f800000	1.0
44	0x3f800000	1.0
45	0x3f800000	1.0
46	0x00000000	0.0
47	0x00000000	0.0
48	0x3f800000	1.0
49	0x3f800000	1.0
50	0x3f800000	1.0
51	0x3f800000	1.0
52	0x3f800000	1.0
53	0x3f800000	1.0
54	0x3f800000	1.0
55	0x00000000	0.0
56	0x3f800000	1.0
57	0x3f800000	1.0
58	0x3f800000	1.0
59	0x3f800000	1.0
60	0x3f800000	1.0
61	0x3f800000	1.0
62	0x3f800000	1.0
63	0x3f800000	1.0

heads.0.heads.3.key.weight f4 [4, 16]
0	0x3ea8494c	0.3286842
1	0x3e2f6fa6	0.17132434
2	0x3d1b7ad3	0.03795893
3	0x3efb6a9c	0.49104774
4	0xbe4973b4	-0.19673043
5	0xbec3167e	-0.38103098
6	0x3eba50f1	0.36389878
7	0x3db1d84d	0.08683834
8	0x3f17f726	0.59361494
9	0x3d0cc4d7	0.03436741
10	0xbeae156d	-0.34000722
11	0xbdc990b6	-0.098420545
12	0x3dc35771	0.095381625
13	0xbdedcbc9	-0.116111346
14	0xbdbfbe9c	-0.09362528
15	0x3e398d40	0.18120289
16	0x3e52a027	0.20568906
17	0x3ec39967	0.38202974
18	0xbd89eaf1	-0.06734265
19	0x3e4978ec	0.19675034
20	0x3e28b8c3	0.16476731
21	0xbdd1443d	-0.102180935
22	0xbe999a28	-0.30000424
23	0xbc8a21e6	-0.016861867
24	0x3e96a820	0.29425144
25	0xbf0001e5	-0.5000289
26	0xbe332743	-0.17495446
27	0xbd925a41	-0.07146121
28	0x3ef86c44	0.485201
29	0x3bfb01d5	0.0076601305
30	0x3e57244d	0.21009941
31	0x3d912fbf	0.07089185
32	0xbe65665d	-0.2240233
33	0xbe7a0eb0	-0.24419665
34	0xbe3086ad	-0.17238875
35	0xbcb1faca	-0.02172603
36	0xbdee7842	-0.11644031
37	0xbd22d442	-0.039753206
38	0xbf0a6941	-0.54066855
39	0x3d47b80b	0.0487595
40	0xbe81b6a7	-0.25334665
41	0x3e83698c	0.25666463
42	0x3dcfa0a2	0.1013806
43	0xbe1d2eb1	-0.15349843
44	0xbea34a3c	-0.31892574
45	0x3db19b09	0.08672149
46	0x3d1b21f1	0.037874166
47	0x3dbfe51f	0.09369873
48	0xbe26a3a2	-0.16273358
49	0xbf25f2ab	-0.64823407
50	0xbe347cdb	-0.17625754
51	0x3e2762e9	0.16346325
52	0xbe966e77	-0.29381153
53	0x3da6e5af	0.081492774
54	0xbf195f64	-0.5991118
55	0x3e1f9d64	0.15587384
56	0xbef01933	-0.46894225
57	0xbbc502ec	-0.006012311
58	0xbe409d40	-0.18809986
59	0xbe225021	-0.15850879
60	0x3e8a7c34	0.27047884
61	0x3eb42e28	0.35191464
62	0xbe79c3de	-0.24391124
63	0xbda50738	-0.080580175

heads.0.heads.3.query.weight f4 [4, 16]
0	0xbeceaf63	-0.40368184
1	0x3f588d2e	0.84590423
2	0xbe86c53f	-0.26322362
3	0xbed46f64	-0.41491234
4	0xbc995249	-0.018715994
5	0xbdb629db	-0.08894702
6	0x3e4d8b4a	0.20072666
7	0xbe826e22	-0.2547465
8	0x3c77fd1b	0.015136029
9	0x3e5263e9	0.20545925
10	0xbe920fea	-0.28527766
11	0xbeb2c5f4	-0.3491665
12	0x3ee1ef38	0.44127822
13	0xbe8ac57a	-0.27103788
14	0xbf10fe6a	-0.56638205
15	0xbe63673b	-0.22207348
16	0xbef55c43	-0.47921953
17	0x3eb24ec2	0.34825712
18	0xbd9f41bb	-0.07776209
19	0xbeb8ff04	-0.3613206
20	0x3f17ffb4	0.59374547
21	0x3ed1efb7	0.410032
22	0xbf1aeee7	-0.60520786
23	0xbcb37c9f	-0.02191001
24	0x3ea54b45	0.3228399
25	0x3d41c3c7	0.04730585
26	0xbef4f27d	-0.47841254
27	0xbe2f1a85	-0.1709996
28	0x3d5153f5	0.05110546
29	0x3cc87ce7	0.02447362
30	0xbe6fbe12	-0.2341235
31	0x3dccc854	0.09999147
32	0xbf0c4e8c	-0.54807353
33	0x3dfda8a4	0.12385681
34	0x3eaf5f18	0.34252238
35	0xbf2d3b96	-0.67669046
36	0x3e7afe7b	0.24511139
37	0x3e832fb0	0.2562232
38	0xbe135135	-0.14386447
39	0xbef4fb3e	-0.47847933
40	0xbe2b3ba1	-0.16721965
41	0x3f5f447a	0.8721386
42	0x3f16d1bf	0.589138
43	0xbe6814a2	-0.22664121
44	0xbf398fdf	-0.72485155
45	0xbef42925	-0.4768764
46	0xbf22fe31	-0.63669115
47	0xbe9de67a	-0.30839902
48	0xbd8202f3	-0.06348219
49	0x3d01552e	0.031575374
50	0xbe2b6353	-0.16737108
51	0x3d979736	0.07401888
52	0xbde0afc0	-0.10971022
53	0x3e1b4bc5	0.15165623
54	0xbe24e178	-0.16101635
55	0x3e81571e	0.25261778
56	0x3d02b98e	0.03191524
57	0xbe0808e0	-0.13284636
58	0xbeff4dd9	-0.4986408
59	0x3ef4b3bd	0.4779338
60	0xbe62f360	-0.22163153
61	0x3ec62aed	0.38704625
62	0x3dde873d	0.108656384
63	0x3c023a76	0.0079485085

heads.0.heads.3.value.weight f4 [4, 16]
0	0x3fd123cc	1.6339049
1	0xbddf1e53	-0.10894456
2	0xbf29a5b6	-0.6626848
3	0xbfaab02f	-1.3335017
4	0x400b6f99	2.1786864
5	0xbe9f5bb0	-0.3112464
6	0x3e4a06ad	0.19729109
7	0x3f0630a6	0.5241798
8	0xc017086a	-2.3598886
9	0xc0251463	-2.5793693
10	0x3f9b8d6f	1.2152537
11	0xbfef7864	-1.8708615
12	0xbff2530c	-1.8931594
13	0x3fac62b2	1.346762
14	0x3fc491b4	1.5356965
15	0xc00cb614	-2.1986132
16	0xc03f955c	-2.9934912
17	0x3fdff8e8	1.7497835
18	0xc04a627a	-3.1622605
19	0x3fb539d7	1.4158276
20	0x40277119	2.616278
21	0xc0151228	-2.3292332
22	0xbf243856	-0.6414846
23	0xc03a0273	-2.9063995
24	0xc015f94c	-2.3433409
25	0xc00da0df	-2.2129438
26	0xc02362c4	-2.5529032
27	0x402a1d03	2.6580207
28	0x3fd7abd5	1.6849314
29	0xbfa0ac24	-1.2552533
30	0xc008275a	-2.1274018
31	0xc03e8912	-2.977116
32	0x3fdd21c2	1.7275927
33	0xbecabeee	-0.39598793
34	0xbfbdb8a5	-1.4821974
35	0xbf8c3e1f	-1.0956458
36	0xbf8eaba7	-1.1146134
37	0xbfbd2c02	-1.4779055
38	0xbfe8a12d	-1.8174187
39	0xbfa634ab	-1.2984823
40	0xbfd2692d	-1.6438347
41	0xbea12e0e	-0.3148045
42	0x3f1e1ac7	0.6175961
43	0x3fe4b47a	1.7867577
44	0xc0039bfc	-2.0563955
45	0x3fae31e3	1.3608974
46	0xbef87b59	-0.48531607
47	0x400ed200	2.2315674
48	0xbecae495	-0.3962752
49	0xbe93d9d0	-0.28877115
50	0xc0325ec0	-2.787033
51	0x4017021e	2.3595042
52	0xbf491066	-0.7854065
53	0xbee7f9c6	-0.4530775
54	0x3fa2583c	1.2683177
55	0x3f418e44	0.75607705
56	0xbf2e55e0	-0.68099785
57	0xbed90f0f	-0.423943
58	0x3fdbb985	1.7165991
59	0xbe5812dc	-0.21100944
60	0xbf14c375	-0.58110744
61	0x3fdf10f5	1.742705
62	0xc0094a67	-2.1451662
63	0xbf915c9a	-1.1356385

heads.0.ffwds.net.0.weight f4 [64, 16]
0	0xbe6303cc	-0.22169417
1	0x3dc617d4	0.096725136
2	0x3d39d6a8	0.045370728
3	0xbdf613f8	-0.120155275
4	0x3dae3850	0.085068345
5	0x3e209514	0.15681869
6	0x3ce901b0	0.028443187
7	0x3c1e7380	0.009671092
8	0x3dd35940	0.103197575
9	0xbe624c6e	-0.22099468
10	0xbe2e2064	-0.17004544
11	0x3d753380	0.059863567
12	0xbe0db702	-0.13839343
13	0x3e6dec56	0.23234686
14	0xbda51990	-0.08061516
15	0xbe4f937a	-0.20271102
16	0xbe01d834	-0.12680131
17	0xbcdc2690	-0.026873857
18	0xbdf6b650	-0.12046492
19	0x3dcfa25c	0.101383895
20	0x3cfd68d0	0.030933768
21	0xbe33db12	-0.17564037
22	0x3d3bd8c8	0.045861036
23	0x3e387194	0.18012077
24	0x3c05a040	0.008155882
25	0xbe76deec	-0.24108475
26	0x3dd06ab8	0.10176605
27	0xbe7b1026	-0.24517879
28	0xbdaa413c	-0.08313224
29	0x3dbc7814	0.092025906
30	0xbe6b679a	-0.2298874
31	0x3d96c080	0.07360935
32	0x3e0985e0	0.13429976
33	0x3e5b8520	0.21437502
34	0x3db9c49c	0.090707034
35	0xbcb4d6f0	-0.022075146
36	0x3dbc94ac	0.092080444
37	0xbe1cfb24	-0.15330178
38	0xbd3cb7e8	-0.046073824
39	0xbe230d3a	-0.15923014
40	0xbdb77444	-0.08957723
41	0xbe665634	-0.22493821
42	0xbe0eb620	-0.13936663
43	0xbcbcbc80	-0.023039103
44	0x3d74ea70	0.05979389
45	0xbe1518a0	-0.14560175
46	0x3e64e350	0.22352338
47	0x3e27eab2	0.16398123
48	0x3e4b0340	0.19825459
49	0xbcc95410	-0.024576217
50	0xbd6b3728	-0.057425648
51	0xbe2c3146	-0.16815671
52	0xbdb27934	-0.08714524
53	0xbd29ba98	-0.041437715
54	0x3dbe356c	0.09287533
55	0xbdb49250	-0.088169694
56	0x3e3fa976	0.18716988
57	0x3e167b4e	0.14695475
58	0x3e3d20c2	0.18469527
59	0x3dcc7024	0.099823266
60	0xbe5da096	-0.2164329
61	0x3e6481cc	0.22315139
62	0xbb63e800	-0.0034775734
63	0x3e72e29c	0.23719257
64	0x3e6e1156	0.232488
65	0x3d348f98	0.044082254
66	0x3debab74	0.115073115
67	0xbe124c06	-0.14286813
68	0x3e696636	0.22792897
69	0xbe5bdeb4	-0.21471673
70	0x3e2d03b2	0.16895941
71	0xbdbe539c	-0.09293291
72	0x3e779ad6	0.24180159
73	0x39d20000	0.0004005432
74	0xbe0b8756	-0.13625845
75	0x3dd41958	0.103563964
76	0x3d0feec0	0.0351398
77	0x3e0c5f0e	0.13708135
78	0xbe1a08be	-0.15042397
79	0xbde44a10	-0.11146939
80	0xbc0191a0	-0.007908255
81	0xbd8e31c8	-0.06943089
82	0x3e31b082	0.17352489
83	0x3db80a2c	0.08986315
84	0xbd5bda38	-0.053674906
85	0x3e0f1922	0.13974431
86	0x3e792474	0.24330312
87	0xbdf55110	-0.11978352
88	0x3e27dc0c	0.16392535
89	0xbe218eae	-0.15777084
90	0xbe2c384c	-0.1681835
91	0xbe6dd67e	-0.23226354
92	0x3d0a6b10	0.03379351
93	0x3e46275a	0.19350949
94	0xbe75348c	-0.23945826
95	0xbe40e4a2	-0.18837216
96	0x3e1bb7ec	0.1520688
97	0xbdfd8ed0	-0.12380755
98	0x3e00aa86	0.1256505
99	0xbd2d8128	-0.0423595
100	0x3e36e12c	0.17859334
101	0x3d16f390	0.036853373
102	0x3e3e8122	0.18603948
103	0xbdd835b0	-0.10557115
104	0xbdb3d268	-0.08780366
105	0xbdccce10	-0.10000241
106	0x3e43751a	0.1908764
107	0x3cc094c0	0.02350843
108	0xbe347022	-0.176209
109	0x3e0a8662	0.13527825
110	0x3e204ea6	0.15655002
111	0xbe1f4268	-0.15552676
112	0x3c44a0e0	0.012001246
113	0xbe7590fa	-0.23981085
114	0x3d024228	0.031801373
115	0x3db4205c	0.087952346
116	0x3e651af6	0.22373566
117	0xbda5f43c	-0.08103225
118	0x3db8ac5c	0.0901725
119	0xbdab9140	-0.083773136
120	0xbdb40bb4	-0.08791295
121	0xbe62d6e8	-0.22152293
122	0x3d5823a8	0.05276838
123	0x3e2bc6c2	0.16775039
124	0xbe0e6972	-0.13907412
125	0x3dd152e4	0.10220888
126	0xbd1fbaf8	-0.038996667
127	0xbe35c1a4	-0.1774965
128	0x3cda6040	0.026657224
129	0xbe7978e2	-0.2436252
130	0x3e093b9e	0.13401648
131	0xbd624198	-0.055238336
132	0x3e6bc534	0.23024446
133	0x3c173520	0.009228975
134	0xbe78308a	-0.24237266
135	0x3e46a8d2	0.19400337
136	0xbd5ffb10	-0.05468279
137	0xbe2f5ae6	-0.17124519
138	0x3e6c5cbc	0.2308225
139	0x3cbf4760	0.023349464
140	0x3da5ff34	0.08105317
141	0xbe5d7652	-0.21627167
142	0xbdb4d278	-0.08829206
143	0x3e4d66e6	0.20058784
144	0xbe2e24e4	-0.1700626
145	0xbe4ece0a	-0.20195785
146	0x3e48e026	0.19616756
147	0xbd309478	-0.04311034
148	0xbc9bc470	-0.019014567
149	0x3e359336	0.17731938
150	0x3da07994	0.07835689
151	0xbe02e9cc	-0.12784499
152	0xbd7c0008	-0.061523467
153	0x3e252c00	0.16130066
154	0xbda4a1d4	-0.08038679
155	0x3e4ccc74	0.19999868
156	0x3e696cf4	0.22795469
157	0x3e1987cc	0.14993209
158	0xbcaca260	-0.02107352
159	0xbde33274	-0.110936075
160	0xbe0c6906	-0.13711938
161	0xbe4fc544	-0.20290095
162	0x3ac79700	0.0015227497
163	0x3e25c3be	0.16187951
164	0x3dcfe54c	0.10151157
165	0x3c67f2c0	0.014156997
166	0xbe704220	-0.23462725
167	0x3df48408	0.119392455
168	0xbd6cfb88	-0.057857066
169	0x3d1fc970	0.039010465
170	0xbe1aef7e	-0.15130422
171	0x3d14c120	0.03631699
172	0x3d7b46a0	0.06134665
173	0xbd82b9f8	-0.06383127
174	0xbdb37b10	-0.08763707
175	0x3d9b2df0	0.07577121
176	0x3d12d458	0.035847038
177	0x3e3172b6	0.17328915
178	0xbe3f6c50	-0.18693662
179	0x3e7b05f4	0.2451399
180	0xbe6e2288	-0.2325536
181	0xbe3c5a62	-0.18393853
182	0xbd348fa8	-0.044082314
183	0xbe5e5a58	-0.21714151
184	0x3e2cadd8	0.16863191
185	0xbd335438	-0.04378149
186	0x3c1ed2a0	0.009693772
187	0x3da5b648	0.08091408
188	0x3ce7a0b0	0.028274864
189	0x3e5a7d96	0.2133697
190	0x3e37b8de	0.17941615
191	0x3dae3cc4	0.08507684
192	0xbe7596d4	-0.23983318
193	0x3dc08bec	0.09401688
194	0xbd28f8b8	-0.04125282
195	0x3d2e0f10	0.042494833
196	0x3e444910	0.19168496
197	0xbdf16cb0	-0.117883086
198	0xbc829f00	-0.015944958
199	0xbe538ffe	-0.20660397
200	0x3db99c90	0.09063065
201	0xbd602a20	-0.054727674
202	0xbdbcead8	-0.092244804
203	0x3c61fa80	0.013792634
204	0x3c409880	0.011755109
205	0x3d3a8508	0.045537025
206	0x3e6d69e2	0.23184922
207	0x3e3f39f2	0.18674448
208	0x3e538bc8	0.20658791
209	0xbe12480c	-0.14285296
210	0xbe725f42	-0.2366915
211	0x3e3a9b12	0.18223217
212	0x3e5c7bcc	0.215316
213	0x3e1a3098	0.150576
214	0xbe41b0fe	-0.18915173
215	0xbdc463a8	-0.095893204
216	0x3e6c27ce	0.2306206
217	0xbe01d6fc	-0.12679666
218	0xbe2ff158	-0.17181909
219	0x3d31c648	0.043401986
220	0x3e4dd104	0.20099264
221	0xbdc53ec8	-0.09631115
222	0xbd9f0f08	-0.07766539
223	0xbdb042dc	-0.086065024
224	0xbe0561a4	-0.13025528
225	0x3b60e400	0.0034315586
226	0xbcebe4c0	-0.0287956
227	0x3dd5503c	0.10415694
228	0xbe3ea452	-0.1861737
229	0xbd930cb4	-0.07180157
230	0xbe6ba6c6	-0.23012838
231	0xbe7f05e8	-0.24904597
232	0x3d8daf00	0.06918144
233	0xbd0459e8	-0.032312304
234	0xbe66388a	-0.22482505
235	0xbbf6de80	-0.0075338483
236	0x3d9bd6dc	0.076093405
237	0x3e39e462	0.18153527
238	0x3e19ebc6	0.15031347
239	0xbe73a658	-0.23793924
240	0x3d899074	0.06717005
241	0xbe70dfb4	-0.23522836
242	0x3e3db4fa	0.18526068
243	0x3e26de7c	0.16295809
244	0xbe6c12cc	-0.23054045
245	0x3ae37000	0.0017352104
246	0x3d9f8564	0.07789114
247	0x3c282a40	0.010263979
248	0xbe671be6	-0.22569236
249	0x3e6fb36c	0.23408288
250	0xbdfc2234	-0.12311211
251	0x3d9f309c	0.077729434
252	0x3e2017d2	0.15634087
253	0xbe6a1d8e	-0.22862837
254	0xbd97b788	-0.07408053
255	0xbdeca5e8	-0.115550816

heads.0.ffwds.net.0.bias f4 [64]
0	0x3d2557e0	0.040367007
1	0xbe4fb354	-0.20283252
2	0xbdadbfbc	-0.08483836
3	0x3e305f90	0.17223954
4	0x3e7ac0a4	0.24487549
5	0x3b274c80	0.0025527775
6	0xbccd4600	-0.025057793
7	0x3e677078	0.22601497
8	0xbe63cb82	-0.22245601
9	0x3e6f1ad4	0.23350078
10	0xbdde1730	-0.108442664
11	0x3c77dd00	0.015128374
12	0xbc023780	-0.007947803
13	0xbdda9eec	-0.10674843
14	0x3dc19f0c	0.09454164
15	0xbd034740	-0.03205037
16	0x3c7b0980	0.015322089
17	0xbd42c728	-0.04755321
18	0x3de13318	0.109960735
19	0xbe1e0092	-0.15429905
20	0xbe47307a	-0.19452086
21	0xbdf8b9f0	-0.1214484
22	0x3e7b0a58	0.24515665
23	0x3cbe70b0	0.023247093
24	0x3da4b040	0.080414295
25	0x3e0c4ace	0.1370041
26	0xbd252e80	-0.04032755
27	0x3e26134a	0.16218296
28	0xbe54cd98	-0.20781553
29	0xbdeb3998	-0.114855945
30	0x3e592362	0.21204904
31	0xbdc316a4	-0.09525803
32	0xbe1daa38	-0.15396965
33	0xbe77256a	-0.24135366
34	0xbe75085c	-0.2392897
35	0x3cf498f0	0.029858083
36	0xbe35129c	-0.1768288
37	0xbe7b4fb6	-0.24542126
38	0x3e71b5ac	0.23604459
39	0x3db71b84	0.08940795
40	0x3e3dbeec	0.18529862
41	0x3d7b4f08	0.061354667
42	0xbd340bb0	-0.04395646
43	0xbe2797e6	-0.16366538
44	0xbe75b6d0	-0.23995519
45	0xbe625716	-0.22103533
46	0xbe797bfa	-0.243637
47	0xbcfc8dc0	-0.03082931
48	0x3cd74fa0	0.026283085
49	0x3e5e0052	0.2167981
50	0xbd448c38	-0.047985286
51	0xbe67bdde	-0.22631022
52	0xbe264fec	-0.16241425
53	0x3e633f3e	0.22192094
54	0x3e37f86c	0.17965859
55	0x3db31b24	0.08745411
56	0xbe2ffce0	-0.17186308
57	0x3d281868	0.0410389
58	0xbddcd8c0	-0.10783529
59	0x3dfc8514	0.1233007
60	0x3d87330c	0.06601533
61	0x3e2724f6	0.16322693
62	0xbd030650	-0.031988442
63	0x3e7e1ade	0.24814937

heads.0.ffwds.net.2.weight f4 [16, 64]
0	0x3d074d00	0.033032417
1	0x3dc77f54	0.09741083
2	0x3b825e60	0.0039785355
3	0x3d8e995a	0.06962843
4	0x3db773c6	0.08957629
5	0x3c990750	0.018680245
6	0x3dd783f6	0.105232164
7	0xbdda05c8	-0.10645634
8	0xbc5c04c0	-0.013428867
9	0xbca10280	-0.019654512
10	0xbba0c880	-0.004906714
11	0x3d28c190	0.04120022
12	0xbd044888	-0.032295734
13	0xbce88a08	-0.02838613
14	0x3da7bf74	0.08190814
15	0xbdba4baa	-0.09096463
16	0xbc061f80	-0.008186221
17	0x3dbd8d52	0.0925547
18	0x3de77dda	0.11303301
19	0xbdd4d2ce	-0.1039177
20	0x3d21173c	0.0393288
21	0x3d53199c	0.051538095
22	0x3cbe5cf0	0.023237675
23	0x3d264d68	0.040601164
24	0xbd469604	-0.04848291
25	0x3cba8f40	0.022773385
26	0x3cdcb9a0	0.026943982
27	0x3d2780d0	0.04089433
28	0x3ce0aca8	0.027426079
29	0xbd9a2184	-0.07525924
30	0x3c71a490	0.014748707
31	0xbd4ee0a8	-0.050507218
32	0x3d97d388	0.07413393
33	0x3dbc8860	0.09205699
34	0xbdf1ab38	-0.118002355
35	0xbdb960ee	-0.09051691
36	0xbd9a0468	-0.07520372
37	0xbd736120	-0.059418797
38	0x3d5692d4	0.05238612
39	0xbda22b40	-0.079184055
40	0x3defd9c8	0.1171146
41	0xbdeb3476	-0.114846155
42	0xbd7fd754	-0.062461212
43	0xbd739478	-0.059467763
44	0x3d93c9f0	0.07216251
45	0xbc4a0d00	-0.012332201
46	0x3d0aed84	0.03391792
47	0x3caa8498	0.020815179
48	0x3c929008	0.017890945
49	0x3ddc012e	0.107424125
50	0xbd2446bc	-0.04010652
51	0xbdf1e5ee	-0.11811434
52	0x3d2aba7c	0.04168175
53	0x3da97e96	0.082760975
54	0xbda41104	-0.08011058
55	0xbd64eafc	-0.05588816
56	0xbd9b49f8	-0.07582468
57	0x3dab1df0	0.083553195
58	0xbc880d08	-0.016607776
59	0xbdc5d94c	-0.09660587
60	0xbdb8ec66	-0.090294644
61	0xbd3c66d8	-0.045996517
62	0x3c87c2d8	0.0165724
63	0x3dd0d176	0.101962015
64	0xbdf51542	-0.11966945
65	0x3da127a4	0.07868889
66	0xbd32d9d0	-0.043664753
67	0xbdd2b060	-0.10287547
68	0xbdda5b48	-0.10661942
69	0xbda3358c	-0.07969198
70	0xbdafdea6	-0.08587389
71	0x3d3aeb48	0.045634538
72	0x3da53e30	0.08068502
73	0xbda59022	-0.08084132
74	0x3df4b56e	0.119486675
75	0xbded3b60	-0.115835905
76	0xbd9a2926	-0.0752738
77	0xbd3e3434	-0.046436504
78	0xbd09b8cc	-0.0336235
79	0xbde440da	-0.11145182
80	0x3d5b8490	0.05359322
81	0x3b929f40	0.0044745505
82	0xbdce0fc4	-0.10061601
83	0xbd4b6fec	-0.049667284
84	0xbdf04408	-0.11731726
85	0xbce181a8	-0.027527645
86	0x3d163164	0.036668196
87	0x3c360780	0.011110187
88	0x3d9d22b4	0.07672635
89	0xbc207f20	-0.009795934
90	0xbc34c360	-0.011032909
91	0x3db796b2	0.0896429
92	0xbdeaa574	-0.11457339
93	0xbced6ad8	-0.028981611
94	0x3d396f5c	0.045272216
95	0xbbd474c0	-0.0064836442
96	0x3d5a9758	0.05336699
97	0x3dbdc104	0.092653304
98	0x3d31d4b8	0.043415755
99	0x3d2639fc	0.040582642
100	0xbd25f7bc	-0.04051946
101	0x3c2c48b0	0.010515377
102	0x3d9c0f60	0.0762012
103	0xbd8edafa	-0.0697536
104	0x3dd50422	0.10401179
105	0x3d8cde28	0.068783104
106	0xbdb66154	-0.089052826
107	0xbdcd5a64	-0.10027006
108	0x3dc95cac	0.09832129
109	0xbd122ca0	-0.03568709
110	0x3cc67868	0.024227336
111	0xbdf27598	-0.118388355
112	0xbdd09f7c	-0.10186669
113	0xbdaf50d4	-0.085603386
114	0xbda35ce4	-0.07976702
115	0x3cbf67c0	0.023364902
116	0x3deec848	0.11659294
117	0xbdb62e76	-0.088955805
118	0x3da6a34c	0.08136615
119	0x3cb133a0	0.021631062
120	0x3dbfcd78	0.09365362
121	0xbd8a08f2	-0.067399874
122	0xbd8b246c	-0.06794056
123	0x3ce52eb0	0.027976364
124	0x3daf6d20	0.08565736
125	0xbd9711ca	-0.0737644
126	0x3d4cc7a8	0.049995095
127	0x3d83aa7c	0.06429002
128	0x3df36cac	0.11885962
129	0xbcaf5b80	-0.021405935
130	0xbdff8a78	-0.12477583
131	0x3dd93992	0.10606684
132	0xbd4211bc	-0.047380194
133	0xbd5ea518	-0.054356664
134	0x3d0738cc	0.03301315
135	0x3de03bac	0.109488815
136	0xbce0b528	-0.027430132
137	0xbda5f720	-0.08103776
138	0xbd7a085c	-0.06104313
139	0xbd8d60d8	-0.06903237
140	0xbde91b2a	-0.11382134
141	0xbd94e26a	-0.072697476
142	0x3d16cf04	0.03681852
143	0x3d9f0e68	0.0776642
144	0x3dc3954c	0.095499605
145	0xbdf0e310	-0.11762059
146	0xbdbf58d2	-0.09343113
147	0x3d0b4a20	0.034006238
148	0x3dd5e36a	0.104437664
149	0xbdda7bd0	-0.106681466
150	0x39c89000	0.0003825426
151	0x3c8aa8b8	0.016926154
152	0x3dcfb11c	0.10141203
153	0xba64ea00	-0.00087323785
154	0x3ca65c88	0.020307794
155	0xbc446a30	-0.011988208
156	0x3dbb1410	0.09134686
157	0xbde4f914	-0.111803204
158	0xbcfdcc38	-0.030981168
159	0xbce34010	-0.027740508
160	0xbd1f9e94	-0.03896959
161	0x3df0beb2	0.11755122
162	0x3b55e280	0.0032636225
163	0x3ce15570	0.02750656
164	0xbd59c898	-0.053169817
165	0x3d5e382c	0.05425279
166	0x3d597070	0.053085744
167	0xbd5c492c	-0.05378072
168	0x3dc273d4	0.09494749
169	0xbcdc12d0	-0.02686444
170	0x3d6cb024	0.05778517
171	0x3df825ca	0.12116583
172	0x3b62d8c0	0.0034614056
173	0xbd44c4b0	-0.04803914
174	0x3d89a3d4	0.06720701
175	0xbd1a47ec	-0.037666246
176	0xbdb23058	-0.08700627
177	0x3d2976c0	0.041373014
178	0xbddc6830	-0.1076206
179	0x3df172c0	0.11789465
180	0xbd68f7d8	-0.056876987
181	0x3dea0d48	0.114283144
182	0xbd9a4ad4	-0.075338036
183	0xbdd8d246	-0.105869815
184	0x3a932900	0.0011227429
185	0xbdd0fd78	-0.10204595
186	0x3c8b6b88	0.017019048
187	0xbde2c7e4	-0.11073282
188	0xbcfed010	-0.031105071
189	0x3d0bbf64	0.03411807
190	0xbd95113c	-0.07278678
191	0xbd539104	-0.05165197
192	0x3dbd47f8	0.092422426
193	0xbc3a8c70	-0.011386022
194	0x3c5feac0	0.013666809
195	0xbdcff812	-0.101547375
196	0xbdf6d23e	-0.12051819
197	0xbdc26418	-0.094917476
198	0xbd048818	-0.03235635
199	0x3dbf6b1e	0.09346603
200	0x3d4680d4	0.048462704
201	0xbd13f0c4	-0.036118284
202	0xbb25a480	-0.0025275052
203	0x3d9c3944	0.0762811
204	0x3db2001a	0.086914256
205	0xbdb45796	-0.08805768
206	0xbda2cb4a	-0.079489306
207	0xbda66c3e	-0.08126114
208	0x3d9621d0	0.07330668
209	0x3dc39956	0.09550731
210	0xbd5a38c0	-0.053276777
211	0x3d91d28e	0.07120238
212	0xbd75d29c	-0.060015306
213	0x3c4d9aa0	0.0125490725
214	0x3dee822c	0.11645922
215	0xbd03eee4	-0.032210246
216	0x3d401800	0.04689789
217	0xbda3c85c	-0.079972
218	0xbdc2eb7a	-0.0951757
219	0x3da9bc66	0.08287887
220	0xbd9c6fa4	-0.07638481
221	0xbd72fa98	-0.059321016
222	0x3dc99298	0.09842414
223	0x3db77622	0.08958079
224	0x3d77bf10	0.060484946
225	0xbd71b554	-0.05901082
226	0xbd8675a2	-0.065654054
227	0xbaff3780	-0.0019471496
228	0x3ddcc528	0.10779792
229	0x3d2e4500	0.042546272
230	0x3dab6a28	0.08369857
231	0x3da08034	0.07836953
232	0xbd749184	-0.059709087
233	0x3dc132f0	0.09433544
234	0xbd925c14	-0.07146469
235	0xbdf8050c	-0.121103376
236	0x3d5975e0	0.05309093
237	0xbdfbcada	-0.1229455
238	0x3d27c7e4	0.040962115
239	0x3c1bdad0	0.009512618
240	0xbd6fdd00	-0.05856037
241	0x3b968260	0.0045931786
242	0xbd1bc18c	-0.038026378
243	0x3df86386	0.121283576
244	0xbd96bcde	-0.07360242
245	0xbd62a2e8	-0.05533114
246	0xbdfa26e2	-0.122144476
247	0xbd4db0bc	-0.050217375
248	0xbdf1efc0	-0.11813307
249	0x3d9f91b6	0.07791464
250	0x3d8de2ee	0.06928049
251	0x3ddc3746	0.1075273
252	0xbde6d1de	-0.11270498
253	0x3cc1f4d0	0.023676306
254	0xbdaaa354	-0.083319336
255	0x3d97d9c2	0.07414581

heads.0.ffwds.net.2.bias f4 [16]
0	0x3d590758	0.05298552
1	0x3d84606c	0.064637035
2	0xbdf34e4a	-0.11880167
3	0x3c53e100	0.012932062
4	0xbd956e6a	-0.072964504
5	0x3d16f6e4	0.036856547
6	0x3d27bdfc	0.040952668
7	0xbd470404	-0.048587814
8	0xbd7dd6e0	-0.0619725
9	0x3ddfa110	0.10919392
10	0xbc69bb60	-0.014265865
11	0x3de0ba3a	0.1097302
12	0xbd58cfbc	-0.052932486
13	0x3d7f86bc	0.062384352
14	0xbd629cc0	-0.05532527
15	0xbc89d978	-0.01682733

heads.0.norm.weight f4 [16]
0	0x3dfde8c5	0.12397913
1	0x3eb11728	0.3458798
2	0xbd1a42cf	-0.03766137
3	0x3e81359a	0.25236207
4	0x3eb0d595	0.3453795
5	0x3dfbc6e7	0.12293797
6	0x3eaa8df3	0.33311424
7	0x3f1b7e07	0.6073918
8	0x3e7b6b93	0.24552755
9	0x3d45271d	0.048133004
10	0x3e20fea3	0.15722136
11	0x3e8bd3e2	0.2731009
12	0x3ee0a591	0.43876317
13	0x3e8475ba	0.25871068
14	0x3ecdecb5	0.40219656
15	0x3f2007a2	0.62511647

heads.0.norm.bias f4 [16]
0	0x3d588353	0.052859616
1	0x3ed8216a	0.42212993
2	0x3f1d7b99	0.6151672
3	0xbfaf3a7c	-1.3689723
4	0xbeaa4198	-0.3325317
5	0xbc9b8ff5	-0.018989542
6	0xbafcb985	-0.0019281363
7	0x3e6c0887	0.23050128
8	0xbe4b9208	-0.19879925
9	0xbe017783	-0.12643246
10	0x3d803dd2	0.06261791
11	0x3ee2fed6	0.4433505
12	0x3ec56a54	0.38557684
13	0x3ddd26b9	0.107984014
14	0x3e6ce3b6	0.2313374
15	0xbea6784f	-0.32513663
