gpt/models/model.pt (torch, 170741 bytes, 212 tensors)

token_embedding_table.weight f4 [65, 16]
0.21989006 0.25879246 -1.8174388 0.2055009 0.56934494 0.9943761 0.21626654 -0.24516
-0.2655215 -1.4520667 1.0841775 -1.3022658 -0.05784374 0.42298192 0.47923905 -0.7853782
0.42057058 -0.49117038 -0.741237 0.68355507 0.8804489 -0.30957407 -0.006055432 -0.04203942
-0.21929061 -0.17599806 -0.0965157 -0.30081427 -0.46949553 -0.22003986 -0.47212037 -1.3719935
-0.74646133 -0.35854352 -1.9893563 1.1845149 -0.50182086 -0.15439197 0.69552106 0.25547117
-0.2034473 1.1208502 0.82576203 -0.24321891 0.5820078 0.38812324 -0.86789846 0.78781086
0.84507376 1.5969833 0.13562253 2.0993204 -1.0935318 1.810435 -0.49865907 -3.2552004
2.929125 -0.38229057 -0.9867665 -0.61369705 1.813599 -0.30050427 1.2340958 0.3799097
0.34352523 -0.37999433 1.6034272 2.91871 2.1504648 1.387814 -0.22520639 -0.5821143
0.17633043 0.20565751 -3.0740943 -0.32689464 -1.2371118 -0.7986945 -1.0003847 -3.18992
0.51904964 -0.22949757 0.0269671 -0.35457313 0.12975334 0.31673914 -0.39781997 -1.2145774
-0.6784987 -0.07343738 -0.74961233 -0.94319165 -0.01548314 -0.7209595 0.83285654 -0.67102736
-0.331477 -0.49205065 -0.45778066 0.8229549 -0.7480385 -0.092005245 -0.24547055 -0.5263282
0.34491372 0.5642358 -1.1065354 0.123115756 0.33395132 -0.25900033 -0.902291 -0.016614284
0.030239712 0.38652503 -1.6138712 0.18625726 -1.2756443 1.003384 -0.38964817 -0.82173467
-0.5097548 -0.8533119 1.3044615 -0.4500369 -0.2696691 1.3540858 -0.7314085 -0.049789235
0.010431745 -0.83325326 -1.1301057 1.2223393 -0.1713376 -0.28123605 -0.89290047 -0.10652281
-0.073620744 1.0915409 -1.1517686 1.0279024 -0.37001467 -0.4309465 -0.9831861 0.78122216
-1.1162566 0.5060919 -0.03353234 0.67384475 0.84081715 -1.6396258 -0.98191726 -0.4443646
-1.2575752 -1.9467071 -1.7799517 -0.24471724 -1.5977932 0.37595057 1.0282046 -0.33319852
-0.17146488 -0.68894833 -0.3392176 1.2124138 -0.11413058 -0.7606381 -0.23156625 -0.10279569
-0.07252916 0.49749956 -2.4028807 0.3551317 -0.22655798 -0.46157208 -1.5376295 0.75910246
-0.5870515 -0.06719284 -0.08128545 1.5099611 0.035359215 0.06824301 0.5698658 1.1223384
-0.22948833 0.31986862 0.40745845 -0.6739771 0.30328605 0.2806714 -0.19244659 -1.8461897
-0.11658987 -0.06800026 0.08439676 1.1465975 0.0071586887 -0.569682 -1.3659723 -0.6036573
0.114721924 0.8623359 -1.3933293 0.5692976 0.09925194 0.36082774 -0.9242598 1.1053576
0.3296357 -0.31499827 0.45944867 -0.9576412 0.78363293 -0.50097185 -1.6148441 -1.1199325
-0.9366798 -0.7016192 -0.68082196 0.48647064 0.74519473 -0.7255018 0.761454 0.93822306
0.6512488 -0.022933552 -0.3773928 -0.9965181 0.57098854 0.21261525 -0.8674716 -1.7801622
-1.2567269 -0.004326107 -1.6030915 0.3574545 -0.26406223 -0.6716978 0.7968777 0.22278224
1.2350438 0.18021065 -0.913102 -0.009115843 -0.4155781 -0.2125855 -0.8099789 -1.6221126
-0.42252588 -0.86424375 -0.5246957 1.0750672 -0.56385547 1.1941394 -0.752353 0.68815625
00000000: dc2a 613e 7280 843e d6a1 e8bf d46e 523e
00000010: 97c0 113f 6f8f 7e3f fa74 5d3e 390b 7bbe
00000020: 6ff2 87be 52dd b9bf 54c6 8a3f a5b0 a6bf
00000030: 8fed 6cbd 1691 d83e d25e f53e 8c0e 49bf
00000040: 0755 d73e af7a fbbe b5c1 3dbf 77fd 2e3f
00000050: 1965 613f 7e80 9ebe a56c c6bb 8731 2cbd
00000060: b88d 60be d638 34be 06aa c5bd 5404 9abe
00000070: b861 f0be 2152 61be c3b9 f1be 7c9d afbf
00000080: 1718 3fbf 0493 b7be 3aa3 febf 2f9e 973f
00000090: 5577 00bf ee18 1ebe ab0d 323f 1ecd 823e
000000a0: 7d54 50be 0578 8f3f 2465 533f 610e 79be
000000b0: 77fe 143f 17b8 c63e 982e 5ebf f9ad 493f
000000c0: c156 583f f369 cc3f a2e0 0a3e 445b 0640
000000d0: daf8 8bbf 56bc e73f 3e50 ffbe 3455 50c0
000000e0: c976 3b40 97bb c3be bb9c 7cbf 401b 1dbf
000000f0: 0324 e83f b2db 99be daf6 9d3f 8683 c23e
00000100: 8ae2 af3e 9e8e c2be 1a3d cd3f 25cc 3a40
00000110: 37a1 0940 e4a3 b13f 819c 66be 7105 15bf
00000120: f78f 343e e297 523e f6bd 44c0 bc5e a7be
00000130: ae59 9ebf 3e77 4cbf 9b0c 80bf a627 4cc0
00000140: 70e0 043f 6901 6bbe 1cea dc3c 9c8a b5be
00000150: 0fde 043e a22b a23e 0faf cbbe 4677 9bbf
00000160: 17b2 2dbf 5666 96bd 98e6 3fbf 0275 71bf
00000170: ffac 7dbc cd90 38bf 1636 553f 73c8 2bbf
00000180: 5ab7 a9be 10ee fbbe 3a62 eabe 2cad 523f
00000190: 737f 3fbf 3f6d bcbd a25c 7bbe 72bd 06bf
000001a0: 8898 b03e c271 103f f4a2 8dbf 1d24 fc3d
000001b0: abfb aa3e b19b 84be 8bfc 66bf ae1a 88bc
000001c0: 46b9 f73c 9ce6 c53e 5593 cebf 39ba 3e3e
000001d0: 5048 a3bf e36e 803f f77f c7be 345d 52bf
000001e0: 4a7f 02bf a672 5abf 98f8 a63f 3d6b e6be
000001f0: 1112 8abe af52 ad3f 963d 3bbf ccef 4bbd
00000200: e9e9 2a3c 1650 55bf 4ea7 90bf 9d75 9c3f
00000210: 2073 2fbe 2cfe 8fbe 2095 64bf a228 dabd
00000220: 79c6 96bd 9db7 8b3f 276d 93bf 4e92 833f
00000230: 9072 bdbe 05a5 dcbe 16b2 7bbf 2dfe 473f
00000240: 7fe1 8ebf 3d8f 013f 3559 09bd 1781 2c3f
00000250: cb3f 573f 42df d1bf ee5e 7bbf c283 e3be
00000260: 39f8 a0bf b32d f9bf 75d5 e3bf 2897 7abe
00000270: 7d84 ccbf 987c c03e 359c 833f ff98 aabe
00000280: 7d94 2fbe eb5e 30bf eead adbe 6030 9b3f
00000290: 4bbd e9bd 2eb9 42bf b41f 6dbe 8c86 d2bd
000002a0: 2b8a 94bd 43b8 fe3e ccc8 19c0 d2d3 b53e
000002b0: d1fe 67be 2d53 ecbe 0bd1 c4bf 8a54 423f
000002c0: 0249 16bf 669c 89bd fc78 a6bd 6846 c13f
000002d0: d3d4 103d fec2 8b3d bae2 113f c9a8 8f3f
000002e0: fdfe 6abe d2c5 a33e 659e d03e c389 2cbf
000002f0: 4f48 9b3e 29b4 8f3e b810 45be f24f ecbf
00000300: abc6 eebd b843 8bbd 35d8 ac3d b5c3 923f
00000310: 6f93 ea3b aed6 11bf 2ed8 aebf 4989 1abf
00000320: 54f3 ea3d 0cc2 5c3f 9d58 b2bf 7dbd 113f
00000330: 9a44 cb3d 6abe b83e 4a9c 6cbf 5c7c 8d3f
00000340: 03c6 a83e 7447 a1be db3c eb3e f927 75bf
00000350: 2b9c 483f b13f 00bf 36b3 cebf f359 8fbf
00000360: 3fca 6fbf 519d 33bf 594a 2ebf ae12 f93e
00000370: 15c5 3e3f 7cba 39bf a6ee 423f 632f 703f
00000380: 3eb8 263f 25df bbbc a139 c1be cf1b 7fbf
00000390: 4e2c 123f d0b7 593e 9e12 5ebf 5bdc e3bf
000003a0: 6ddc a0bf 04c2 8dbb 1a32 cdbf 4704 b73e
000003b0: 2a33 87be 63f4 2bbf 2d00 4c3f 0721 643e
000003c0: ea15 9e3f 2489 383e 0dc1 69bf 9e5a 15bc
000003d0: a7c6 d4be 03b0 59be c75a 4fbf 63a1 cfbf
000003e0: 5055 d8be 143f 5dbf 7552 06bf cd9b 893f
000003f0: d558 10bf 8fd9 983f 359a 40bf 022b 303f

positional_embedding_table.weight f4 [8, 16]
-3.6880898 0.78855103 -0.93453336 -0.77029985 0.30686143 -0.7878581 0.81188774 -1.8531759
0.29408345 -0.55596954 -0.5151435 1.5740258 -0.041693524 0.04114279 0.09435039 -2.057502
-1.1498891 0.7236472 -0.0064419494 0.17555583 0.6662417 -0.6394971 -0.20567346 -0.88961977
-0.26766807 -0.63877004 -0.25517586 0.95677614 0.10167732 -0.32684925 -0.109924525 -1.0622916
-0.72178996 0.698574 -0.28822535 -0.13155809 0.54230016 -0.4736974 -0.03010712 -0.3993519
-0.07351273 -0.5406186 -0.24070054 0.381264 -0.0093785105 -0.54548436 -0.5287854 -0.2617845
-0.20778169 0.4550676 -0.131251 0.006036764 0.54658294 -0.10573775 -0.043732475 -0.21323268
-0.20959008 -0.22550386 0.1565961 0.22843651 0.21289492 -0.5460236 -0.44558045 -0.32901868
-0.108859174 0.20988373 -0.3487431 0.23916958 0.014162249 -0.18849082 -0.0247299 -0.25467086
-0.14763589 0.32394725 0.08704833 -0.40701067 0.12838061 -0.34822172 -0.32610276 -0.21662654
0.15513845 -0.039906215 -0.072835885 0.34847882 0.11736011 -0.20203665 -0.39421168 -0.22158311
-0.08734333 0.6466422 0.19057705 -0.8178728 -0.0019657065 -0.32126617 -0.55275834 0.080530815
0.34060702 -0.17101099 -0.16056295 0.47669953 0.09374225 -0.10125071 -0.23197603 0.124600604
-0.35842863 0.8711613 0.06985166 -0.69713265 0.09907712 -0.37934145 -0.6726847 0.008759634
0.33049256 -0.9488859 0.017979404 -0.053084563 -0.4816696 -0.04087035 -0.9776394 0.5587756
-0.47413084 0.8624293 0.1721667 -0.93959695 -0.14383061 0.008082987 -0.86902 0.37452766
00000000: aa09 6cc0 7bde 493f 943d 6fbf 5f32 45bf
00000010: f11c 9d3e 12b1 49bf e0d7 4f3f de34 edbf
00000020: 1b92 963e 0554 0ebf 72e0 03bf ad79 c93f
00000030: d4c6 2abd 5885 283d c73a c13d 1dae 03c0
00000040: 912f 93bf f140 393f fd16 d3bb e8c4 333e
00000050: d18e 2a3f 15b6 23bf 109c 52be 1fbe 63bf
00000060: ca0b 89be 6f86 23bf 69a6 82be 48ef 743f
00000070: 333c d03d c958 a7be 1c20 e1bd 2cf9 87bf
00000080: 3ac7 38bf bfd5 323f 4692 93be 2ab7 06be
00000090: 2fd4 0a3f 7788 f2be 35a3 f6bc da77 ccbe
000000a0: d88d 96bd fb65 0abf 347a 76be 0935 c33e
000000b0: 53a8 19bc dda4 0bbf 7b5e 07bf 9e08 86be
000000c0: b9c4 54be 9ffe e83e aa66 06be 0cd0 c53b
000000d0: dcec 0b3f 098d d8bd d320 33bd ab59 5abe
000000e0: c89e 56be 7cea 66be ba5a 203e 43eb 693e
000000f0: 2001 5a3e 34c8 0bbf 1f23 e4be 2375 a8be
00000100: 8ff1 debd c3eb 563e 758e b2be dfe8 743e
00000110: c708 683c bd03 41be 5c96 cabc 3864 82be
00000120: dd2d 17be 6adc a53e 6546 b23d b463 d0be
00000130: 3576 033e 1e4a b2be f1f6 a6be 59d3 5dbe
00000140: 9ddc 1e3e b374 23bd fb2a 95bd d16b b23e
00000150: 7f5a f03d b2e2 4ebe 1dd6 c9be afe6 62be
00000160: 0fe1 b2bd 588a 253f a126 433e 1d60 51bf
00000170: 15d3 00bb 007d a4be 9281 0dbf 57ed a43d
00000180: 0b64 ae3e 811d 2fbe 9d6a 24be f611 f43e
00000190: f0fb bf3d 885c cfbd 208b 6dbe 9a2e ff3d
000001a0: f583 b7be 6d04 5f3f 630e 8f3d 4977 32bf
000001b0: f2e8 ca3d 0b39 c2be 1135 2cbf 9184 0f3c
000001c0: 5236 a93e 30ea 72bf 8b49 933c 336f 59bd
000001d0: 669d f6be ab67 27bd 9346 7abf eb0b 0f3f
000001e0: 47c1 f2be 2bc8 5c3f 784c 303e 6d89 70bf
000001f0: 5548 13be 816e 043c 1878 5ebf 17c2 bf3e

heads.0.heads.0.tril f4 [8, 8]
1.0 0.0 0.0 0.0 0.0 0.0 0.0 0.0
1.0 1.0 0.0 0.0 0.0 0.0 0.0 0.0
1.0 1.0 1.0 0.0 0.0 0.0 0.0 0.0
1.0 1.0 1.0 1.0 0.0 0.0 0.0 0.0
1.0 1.0 1.0 1.0 1.0 0.0 0.0 0.0
1.0 1.0 1.0 1.0 1.0 1.0 0.0 0.0
1.0 1.0 1.0 1.0 1.0 1.0 1.0 0.0
1.0 1.0 1.0 1.0 1.0 1.0 1.0 1.0
00000000: 0000 803f 0000 0000 0000 0000 0000 0000
00000010: 0000 0000 0000 0000 0000 0000 0000 0000
00000020: 0000 803f 0000 803f 0000 0000 0000 0000
00000030: 0000 0000 0000 0000 0000 0000 0000 0000
00000040: 0000 803f 0000 803f 0000 803f 0000 0000
00000050: 0000 0000 0000 0000 0000 0000 0000 0000
00000060: 0000 803f 0000 803f 0000 803f 0000 803f
00000070: 0000 0000 0000 0000 0000 0000 0000 0000
00000080: 0000 803f 0000 803f 0000 803f 0000 803f
00000090: 0000 803f 0000 0000 0000 0000 0000 0000
000000a0: 0000 803f 0000 803f 0000 803f 0000 803f
000000b0: 0000 803f 0000 803f 0000 0000 0000 0000
000000c0: 0000 803f 0000 803f 0000 803f 0000 803f
000000d0: 0000 803f 0000 803f 0000 803f 0000 0000
000000e0: 0000 803f 0000 803f 0000 803f 0000 803f
000000f0: 0000 803f 0000 803f 0000 803f 0000 803f

heads.0.heads.0.key.weight f4 [4, 16]
0.61524594 -0.25011665 0.6805641 0.10639003 0.44318765 0.121366315 0.16896884 0.3716799
0.38894412 -0.3252195 0.4794608 -0.49965784 -0.65532357 0.5246072 0.28206536 0.39459226
-0.09066867 -0.5223404 0.53569573 -0.22785287 0.18273364 -0.26618305 0.42497656 -0.15428478
0.054706886 -0.36680493 0.5628038 0.3399491 -0.16671114 -0.387432 -0.10128835 -0.011323038
-0.12428525 -0.41087842 -0.2708164 -0.45064813 -0.39883044 -0.9863543 -0.084790714 0.34838158
-0.5516878 -0.33210614 -0.2295323 0.31538558 0.08609387 0.4204994 -0.4673298 -0.014572774
0.09615142 0.45976883 -0.2674022 0.43090585 0.24982868 0.2469684 -0.2847762 -0.0069387285
-0.13034062 -0.2173258 -0.22853568 -0.15210268 0.26098654 -0.19992301 0.18545778 0.3054309
00000000: c280 1d3f 4a0f 80be 7339 2e3f 04e3 d93d
00000010: 7ee9 e23e e78e f83d 2b06 2d3e d44c be3e
00000020: af23 c73e 2c83 a6be e37b f53e 27d3 ffbe
00000030: 49c3 27bf a84c 063f df6a 903e ff07 ca3e
00000040: 7fb0 b9bd 1ab8 05bf 5b23 093f 4352 69be
00000050: 871e 3b3e 2549 88be 8796 d93e d4fc 1dbe
00000060: 5414 603d dbcd bbbe e913 103f cf0d ae3e
00000070: 53b6 2abe 7d5d c6be 4470 cfbd 4384 39bc
00000080: 4489 febd a85e d2be 72a8 8abe 5abb e6be
00000090: 8133 ccbe b781 7cbf c1a6 adbd 125f b23e
000000a0: 693b 0dbf d109 aabe 840a 6bbe 387a a13e
000000b0: fc51 b03d b34b d73e da45 efbe a5c2 6ebc
000000c0: 09eb c43d d266 eb3e f1e8 88be b19f dc3e
000000d0: 17d3 7f3e 49e5 7c3e 30ce 91be 465e e3bb
000000e0: 0378 05be a88a 5ebe 4205 6abe cec0 1bbe
000000f0: 07a0 853e 9eb8 4cbe a5e8 3d3e 7061 9c3e

heads.0.heads.0.query.weight f4 [4, 16]
0.8359842 -0.39319795 -0.024086699 0.7540231 0.2162835 -0.2169898 -0.5007914 0.6800627
-0.051812723 0.622507 0.16603683 -1.0499139 -0.3064599 -0.12019536 0.046221826 0.54382235
0.11381569 -0.17947657 0.17547104 -0.04524801 0.031691853 -0.3649645 -0.19519666 -0.0060272864
-0.67819506 0.43824163 -0.33163255 0.29358286 -0.047624897 0.11623951 -0.20054504 -0.17813392
0.04588718 -0.29708 0.14950553 0.009527744 -0.0874375 -0.69939595 0.0614745 -0.1182081
-0.24850227 0.41626456 0.038306702 -0.385937 -0.6055923 -0.20831339 0.04634529 -0.03249415
0.048729435 -0.25481665 0.20011963 0.86324185 -0.09860935 -0.34967148 -0.5502011 0.6512628
-0.116362065 0.037264798 0.04836741 -0.07321281 0.17343414 -0.12699793 0.6352156 0.39012975
00000000: 0f03 563f 3e51 c9be 7851 c5bc a807 413f
00000010: 6c79 5d3e 9332 5ebe dd33 00bf 9718 2e3f
00000020: 9439 54bd 9e5c 1f3f 8f05 2a3e 9463 86bf
00000030: 50e8 9cbe fc28 f6bd 1953 3d3d f137 0b3f
00000040: 3318 e93d b5c8 37be aeae 333e fa55 39bd
00000050: 51cf 013d a0dc babe a2e1 47be 8b80 c5bb
00000060: 319e 2dbf 3561 e03e becb a9be 7e50 963e
00000070: 5312 43bd fb0e ee3d ae5b 4dbe bd68 36be
00000080: 32f4 3b3d df1a 98be fa17 193e 411a 1c3c
00000090: 6f12 b3bd 9d0b 33bf afcc 7b3d 1717 f2bd
000000a0: 6177 7ebe a120 d53e 7de7 1c3d 8999 c5be
000000b0: 1908 1bbf 1b50 55be 8fd4 3d3d 9618 05bd
000000c0: 8498 473d 5477 82be 29ec 4c3e 6bfd 5c3f
000000d0: b3f3 c9bd 2408 b3be fbd9 0cbf 29b9 263f
000000e0: 3c4f eebd f9a2 183d e81c 463d 99f0 95bd
000000f0: b898 313e bf0b 02be 7d9d 223f 16bf c73e

heads.0.heads.0.value.weight f4 [4, 16]
-1.2349583 -0.42957848 0.19927797 -0.9153704 -0.33663377 -0.49187353 -0.5099476 -1.2301104
1.1027389 1.3621476 -0.92883056 2.0406053 0.39602524 1.148795 -0.3659945 0.98412454
-0.24589613 1.1958503 1.0814319 1.6279223 -0.60537523 1.1872259 1.0535142 0.6846434
0.37107223 0.8547062 1.1962881 -0.5474231 1.2124053 -0.17955793 -1.0598292 1.3408314
-2.821622 2.033206 -0.23683506 -1.1506262 2.7152717 -1.5028191 0.48039675 -3.1542745
0.9044294 -1.0135942 -1.9882644 0.07326543 2.5248845 -2.3895419 0.4811965 -3.2097886
2.340296 -0.8602978 2.509078 -1.5381426 -0.09246645 0.941099 0.36216742 2.6974409
-1.6215179 0.7758748 -1.4921643 -0.6360152 -2.1918838 -1.5717288 2.803565 1.5275803
00000000: 1d13 9ebf b6f1 dbbe 860f 4c3e b755 6abf
00000010: 435b acbe d9d6 fbbe ed8b 02bf 4274 9dbf
00000020: 8c26 8d3f da5a ae3f d7c7 6dbf 4799 0240
00000030: d2c3 ca3e b70b 933f a263 bbbe 96ef 7b3f
00000040: 32cc 7bbe 9f11 993f 5c6c 8a3f c25f d03f
00000050: dff9 1abf 05f7 973f 8ed9 863f ca44 2f3f
00000060: 2efd bd3e 07ce 5a3f f81f 993f ec23 0cbf
00000070: 1930 9b3f 09de 37be 7ca8 87bf 5da0 ab3f
00000080: 7495 34c0 0c20 0240 e484 72be b847 93bf
00000090: 03c7 2d40 605c c0bf 90f6 f53e a2df 49c0
000000a0: af88 673f 74bd 81bf 737f febf 300c 963d
000000b0: b597 2140 41ee 18c0 635f f63e 2d6d 4dc0
000000c0: 69c7 1540 7a3c 5cbf bc94 2040 dbe1 c4bf
000000d0: 0d5f bdbd ddeb 703f 026e b93e dfa2 2c40
000000e0: e68d cfbf bb9f 463f 3dff bebf e4d1 22bf
000000f0: d347 0cc0 692e c9bf 9c6d 3340 c087 c33f

heads.0.heads.1.tril f4 [8, 8]
1.0 0.0 0.0 0.0 0.0 0.0 0.0 0.0
1.0 1.0 0.0 0.0 0.0 0.0 0.0 0.0
1.0 1.0 1.0 0.0 0.0 0.0 0.0 0.0
1.0 1.0 1.0 1.0 0.0 0.0 0.0 0.0
1.0 1.0 1.0 1.0 1.0 0.0 0.0 0.0
1.0 1.0 1.0 1.0 1.0 1.0 0.0 0.0
1.0 1.0 1.0 1.0 1.0 1.0 1.0 0.0
1.0 1.0 1.0 1.0 1.0 1.0 1.0 1.0
00000000: 0000 803f 0000 0000 0000 0000 0000 0000
00000010: 0000 0000 0000 0000 0000 0000 0000 0000
00000020: 0000 803f 0000 803f 0000 0000 0000 0000
00000030: 0000 0000 0000 0000 0000 0000 0000 0000
00000040: 0000 803f 0000 803f 0000 803f 0000 0000
00000050: 0000 0000 0000 0000 0000 0000 0000 0000
00000060: 0000 803f 0000 803f 0000 803f 0000 803f
00000070: 0000 0000 0000 0000 0000 0000 0000 0000
00000080: 0000 803f 0000 803f 0000 803f 0000 803f
00000090: 0000 803f 0000 0000 0000 0000 0000 0000
000000a0: 0000 803f 0000 803f 0000 803f 0000 803f
000000b0: 0000 803f 0000 803f 0000 0000 0000 0000
000000c0: 0000 803f 0000 803f 0000 803f 0000 803f
000000d0: 0000 803f 0000 803f 0000 803f 0000 0000
000000e0: 0000 803f 0000 803f 0000 803f 0000 803f
000000f0: 0000 803f 0000 803f 0000 803f 0000 803f

heads.0.heads.1.key.weight f4 [4, 16]
-0.028388659 0.0053831423 -0.7141917 -0.33575246 0.44973436 0.18827152 0.13471068 -0.107865974
0.33411378 0.56404275 0.35711572 0.6715789 -0.02140515 -0.5420254 0.373432 0.12061922
-0.34142438 0.3655269 -0.00019214858 -0.090596996 -0.024507644 -0.022798423 0.0026504428 -0.08715453
-0.06118853 -0.0023479501 0.13903259 -0.7715817 -0.07270107 -0.07168007 -0.10992232 -0.071730286
-0.18810919 -0.55329484 -0.102768146 -0.8912439 0.23635724 0.089677654 0.2352132 -0.081606194
-0.33923817 0.032306075 0.2878906 0.22651413 -0.41988045 -0.32396358 0.08229715 -0.29478478
-0.049644854 -0.13966772 0.06315883 -0.173229 -0.264511 0.01877651 -0.18000703 0.21728288
0.10818329 -0.12310744 -0.2512115 -0.07996926 0.06715392 0.21743427 -0.0885032 0.22911185
00000000: 558f e8bc 1265 b03b 44d5 36bf bfe7 abbe
00000010: 9543 e63e 40ca 403e 99f1 093e d6e8 dcbd
00000020: f610 ab3e 1b65 103f dfd7 b63e 98ec 2b3f
00000030: da59 afbc 2dc2 0abf 7b32 bf3e 3607 f73d
00000040: 2dcf aebe 5826 bb3e 7e7b 49b9 eb8a b9bd
00000050: 41c4 c8bc c2c3 babc 0db3 2d3b 137e b2bd
00000060: d3a0 7abd 11e0 19bb 8f5e 0e3e 6186 45bf
00000070: 4ce4 94bd 00cd 92bd f41e e1bd 54e7 92bd
00000080: b29f 40be bba4 0dbf 1b78 d2bd 8f28 64bf
00000090: a207 723e eba8 b73d bbdb 703e 2621 a7bd
000000a0: a0b0 adbe 6053 043d 6666 933e 52f3 673e
000000b0: 92fa d6be 8ede a5be 688b a83d 08ee 96be
000000c0: 6758 4bbd 0e05 0fbe 6b59 813d f162 31be
000000d0: fc6d 87be 32d1 993c c353 38be 677f 5e3e
000000e0: 338f dd3d c11f fcbd cb9e 80be ecc6 a3bd
000000f0: ff87 893d 17a7 5e3e 2a41 b5bd 4c9c 6a3e

heads.0.heads.1.query.weight f4 [4, 16]
-0.12575872 0.49192622 -0.4128682 0.30893397 0.19502504 0.47349358 -0.15133889 -0.102246135
-0.31302372 0.120037675 -0.19707926 -0.2703762 -0.18893328 0.16659445 -0.39721447 0.031184452
-0.28230473 -0.05064299 -0.013387554 0.57375187 -0.17257994 0.23494896 -0.22076103 -0.17803507
-0.5986893 -0.29161978 0.0020148237 -0.09118181 0.5257831 0.14540397 -0.1022154 0.052135386
0.47875634 0.014811729 0.011172527 -0.24304974 -0.07406478 -0.28880066 0.8769758 0.51949626
0.21146752 -0.01593912 -0.14339863 -0.24952666 0.27115318 0.5841355 0.4956863 0.61381805
-0.34182823 0.31688812 -0.35374656 -0.6125551 0.07192971 -0.23728302 0.02995617 0.55529016
0.16746373 0.43390673 -0.44406825 -0.3938377 -0.14224638 0.6018264 0.16432258 0.44654498
00000000: e5c6 00be c1dd fb3e 7663 d3be 982c 9e3e
00000010: a5b4 473e c06d f23e 95f8 1abe 6c66 d1bd
00000020: a544 a0be 50d6 f53d 25cf 49be c06e 8abe
00000030: ba77 41be bc97 2a3e b25f cbbe 8976 ff3c
00000040: 3f8a 90be 066f 4fbd 7957 5bbc 67e1 123f
00000050: ccb8 30be 7696 703e 2e0f 62be d34e 36be
00000060: b443 19bf 304f 95be 220b 043b 87bd babd
00000070: b999 063f c7e4 143e 4f56 d1bd ea8b 553d
00000080: 8d1f f53e e5ac 723c fa0c 373c 08e2 78be
00000090: 46af 97bd aedd 93be 7c81 603f b5fd 043f
000000a0: f18a 583e c292 82bc 17d7 12be eb83 7fbe
000000b0: 97d4 8a3e e789 153f 98ca fd3e 2e23 1d3f
000000c0: 1c04 afbe 293f a23e 451e b5be 69d0 1cbf
000000d0: e24f 933d 52fa 72be a466 f53c 7f27 0e3f
000000e0: 9d7b 2b3e 0629 de3e ea5c e3be 18a5 c9be
000000f0: 09a9 11be 4c11 1a3f 2e44 283e 8ba1 e43e

heads.0.heads.1.value.weight f4 [4, 16]
0.020211324 -0.21043816 0.9567039 1.30131 1.9882802 -0.93146956 1.0968344 1.9299343
0.73456913 1.7000446 -2.985421 1.651513 -1.4417281 -0.51620287 0.11538473 -1.3869011
0.5662731 -0.18344282 0.15554091 -1.3479079 0.9319466 0.7110264 0.032820083 -2.5065827
0.44725642 -0.9559954 2.136489 -0.7608932 0.5124742 -2.5325146 0.96589804 -0.45823437
-0.96398586 1.6182152 0.95143396 -0.53693193 -1.5503956 0.33957615 0.70747674 0.8377658
-0.17292844 0.3681825 1.2672685 0.81134444 0.5290254 -0.3405928 0.32316568 0.9149086
0.7270439 -1.8261629 -0.6741203 0.9765337 0.8194712 -0.40261215 -1.7379936 -0.64348507
-1.5369501 2.1366785 -1.8615282 -2.2678661 0.413658 -1.5634384 -2.0168402 -1.0864726
00000000: 3892 a53c 1a7d 57be 8cea 743f 5391 a63f
00000010: f77f fe3f ca74 6ebf 1265 8c3f 1608 f73f
00000020: b90c 3c3f 109b d93f 2311 3fc0 c764 d33f
00000030: 8c8a b8bf df25 04bf d44e ec3d fa85 b1bf
00000040: 46f7 103f 6fd8 3bbe 1e46 1f3e 3f88 acbf
00000050: 0d94 6e3f d305 363f 5a6e 063d da6b 20c0
00000060: cbfe e43e 1dbc 74bf 3cbc 0840 e6c9 42bf
00000070: 8231 033f b814 22c0 1845 773f b29d eabe
00000080: c7c7 76bf ad21 cf3f 2d91 733f 5f74 09bf
00000090: 5d73 c6bf eddc ad3e 321d 353f d277 563f
000000a0: 2714 31be 6b82 bc3e db35 a23f 45b4 4f3f
000000b0: 356e 073f 2e62 aebe f975 a53e 7337 6a3f
000000c0: 8d1f 3a3f b5bf e9bf 2693 2cbf 1dfe 793f
000000d0: ddc8 513f 2e23 cebe 9376 debf 70bb 24bf
000000e0: c8ba c4bf 57bf 0840 8e46 eebf b824 11c0
000000f0: fbca d33e c01e c8bf e913 01c0 8911 8bbf

heads.0.heads.2.tril f4 [8, 8]
1.0 0.0 0.0 0.0 0.0 0.0 0.0 0.0
1.0 1.0 0.0 0.0 0.0 0.0 0.0 0.0
1.0 1.0 1.0 0.0 0.0 0.0 0.0 0.0
1.0 1.0 1.0 1.0 0.0 0.0 0.0 0.0
1.0 1.0 1.0 1.0 1.0 0.0 0.0 0.0
1.0 1.0 1.0 1.0 1.0 1.0 0.0 0.0
1.0 1.0 1.0 1.0 1.0 1.0 1.0 0.0
1.0 1.0 1.0 1.0 1.0 1.0 1.0 1.0
00000000: 0000 803f 0000 0000 0000 0000 0000 0000
00000010: 0000 0000 0000 0000 0000 0000 0000 0000
00000020: 0000 803f 0000 803f 0000 0000 0000 0000
00000030: 0000 0000 0000 0000 0000 0000 0000 0000
00000040: 0000 803f 0000 803f 0000 803f 0000 0000
00000050: 0000 0000 0000 0000 0000 0000 0000 0000
00000060: 0000 803f 0000 803f 0000 803f 0000 803f
00000070: 0000 0000 0000 0000 0000 0000 0000 0000
00000080: 0000 803f 0000 803f 0000 803f 0000 803f
00000090: 0000 803f 0000 0000 0000 0000 0000 0000
000000a0: 0000 803f 0000 803f 0000 803f 0000 803f
000000b0: 0000 803f 0000 803f 0000 0000 0000 0000
000000c0: 0000 803f 0000 803f 0000 803f 0000 803f
000000d0: 0000 803f 0000 803f 0000 803f 0000 0000
000000e0: 0000 803f 0000 803f 0000 803f 0000 803f
000000f0: 0000 803f 0000 803f 0000 803f 0000 803f

heads.0.heads.2.key.weight f4 [4, 16]
-0.015195757 0.26714343 -0.027270779 0.10667323 0.84902054 0.48921618 0.8999922 -0.046405222
-0.33123457 -0.051538315 0.28661305 -0.034895 -0.28602389 -0.07041982 0.019873533 -0.10982847
0.5012373 0.34741235 0.49267367 0.53314066 0.08071003 0.03295553 0.81669945 -0.10070955
-0.77607626 0.19747496 0.298042 0.748885 0.15356497 -0.20774904 0.38519102 0.591294
-0.09164402 0.2485323 -0.442212 0.31225187 0.56759065 0.99911785 -0.2556597 -0.1992728
-0.27442074 0.055259865 0.13039453 0.42538926 -0.21504308 0.34281704 0.29178497 0.009771423
-0.3562745 0.9457316 0.26514232 0.4266187 0.62928283 0.09331371 -0.5527011 -1.1219193
-0.9753663 0.31361052 0.1033309 0.18883446 0.6387883 -0.048739363 0.00012368942 -0.270813
00000000: a0f7 78bc 06c7 883e f866 dfbc 7f77 da3d
00000010: 6959 593f 8b7a fa3e e465 663f 6713 3ebd
00000020: 9497 a9be d719 53bd f2be 923e 0fee 0ebd
00000030: b971 92be 4438 90bd d2cd a23c c0ed e0bd
00000040: 1651 003f 08e0 b13e b93f fc3e e87b 083f
00000050: 4d4b a53d 61fc 063d 3713 513f cf40 cebd
00000060: efac 46bf e036 4a3e f698 983e edb6 3f3f
00000070: 2340 1d3e 2abc 54be c237 c53e 0b5f 173f
00000080: dcaf bbbd 407f 7e3e 9c69 e2be 7adf 9f3e
00000090: 9f4d 113f 30c6 7f3f d4e5 82be 2b0e 4cbe
000000a0: e080 8cbe 2b58 623d 2586 053e 9fcc d93e
000000b0: 4134 5cbe b785 af3e d764 953e 5218 203c
000000c0: 9c69 b6be 771b 723f bcc0 873e c46d da3e
000000d0: ae18 213f 421b bf3d d27d 0dbf 0d9b 8fbf
000000e0: 9bb1 79bf 8f91 a03e 279f d33d d25d 413e
000000f0: a187 233f eda2 47bd a0b2 0139 00a8 8abe

heads.0.heads.2.query.weight f4 [4, 16]
-0.36949986 -0.19533128 -0.025508935 0.032501217 0.6046424 1.3363088 -0.16538997 -0.16147204
0.27942252 -0.3702137 0.3699324 0.32062748 -0.29903895 -0.6010231 -0.44835427 -0.586529
0.8581059 -0.16166924 0.3812087 0.17658694 0.07006038 0.5503369 0.06418405 -0.026657155
-0.1189106 0.35200903 0.3147407 0.44476098 0.3069657 -0.14713952 -0.12076672 0.45634672
0.22367625 0.27034688 0.31264132 -0.17415175 -0.11738351 0.82504 0.14791065 -0.19989912
0.26936945 0.33938316 -0.20507507 -0.11787014 0.13439746 0.6706806 -0.20494229 0.08624268
-1.0266627 1.0972726 -0.7997977 0.22532693 0.23060831 -0.43241102 0.062027868 -0.70049137
0.3846628 -0.7219382 -0.063718036 0.6405424 0.5323454 0.09830479 0.51654273 -0.47881767
00000000: 162f bdbe ec04 48be 1df8 d0bc ff1f 053d
00000010: d8c9 1a3f 2b0c ab3f fd5b 29be ed58 25be
00000020: 7810 8f3e a68c bdbe c867 bd3e 4929 a43e
00000030: a21b 99be a6dc 19bf b18e e5be c426 16bf
00000040: d4ac 5b3f 9f8c 25be c92d c33e 35d3 343e
00000050: d17b 8f3d e1e2 0c3f ed72 833d 1b60 dabc
00000060: 6787 f3bd 873a b43e b125 a13e b6b7 e33e
00000070: 9c2a 9d3e beab 16be 8b54 f7bd 47a6 e93e
00000080: 630b 653e e86a 8a3e 8612 a03e d654 32be
00000090: c466 f0bd d235 533f e475 173e 5bb2 4cbe
000000a0: cbea 893e a1c3 ad3e 33ff 51be e665 f1bd
000000b0: 7d9f 093e b9b1 2b3f 64dc 51be 01a0 b03d
000000c0: af69 83bf 6e73 8c3f 8bbf 4cbf 1abc 663e
000000d0: 9624 6c3e fa64 ddbe ef10 7e3d 6753 33bf
000000e0: 86f2 c43e f1d0 38bf 9a7e 82bd 96fa 233f
000000f0: ca47 083f 0654 c93d 253c 043f 9727 f5be

heads.0.heads.2.value.weight f4 [4, 16]
-2.4062579 1.813544 0.106112115 -0.67039067 0.15919937 -0.015999181 1.6393307 0.57403076
1.2038525 -1.0239283 1.4102074 1.751996 -0.2645277 1.742461 1.1941183 -1.4252259
1.7187103 0.6995374 2.170049 -0.3905835 -1.5392736 1.4156605 0.43167144 1.9214394
0.52919465 -0.08562104 0.49304837 -1.7557548 -1.0763688 0.053638957 1.491987 1.1312941
-1.1347896 0.5891409 -0.015052692 -0.9014688 -1.5132495 -0.68072057 0.6917005 -0.32291174
0.8250649 0.034610555 -0.65063345 1.6731977 -0.3935146 0.68834454 -0.24850872 1.4778461
2.0503087 -0.34262255 -0.94983107 0.18236414 -0.85826117 0.8398124 -0.36910895 1.4753416
-0.8177869 -0.7967297 0.8274848 -1.1512237 -0.6449708 1.2393206 -0.11262657 1.5154529
00000000: 2100 1ac0 3622 e83f 4f51 d93d b99e 2bbf
00000010: 2905 233e b710 83bc 97d5 d13f aef3 123f
00000020: d717 9a3f 1510 83bf ad81 b43f 6841 e03f
00000030: 2d70 87be f608 df3f ded8 983f cd6d b6bf
00000040: b3fe db3f e214 333f 15e2 0a40 8ffa c7be
00000050: eb06 c5bf 5d34 b53f 0a04 dd3e baf1 f53f
00000060: 4d79 073f 155a afbd d670 fc3e 93bc e0bf
00000070: 74c6 89bf 86b4 5b3d 6ef9 be3f 3fce 903f
00000080: c940 91bf f0d1 163f 919f 76bc a9c6 66bf
00000090: 29b2 c1bf b443 2ebf 4913 313f b054 a5be
000000a0: 7437 533f ccc3 0d3d ea8f 26bf 582b d63f
000000b0: bf7a c9be 5937 303f 1279 7ebe 102a bd3f
000000c0: 4238 0340 396c afbe 2128 73bf aabd 3a3e
000000d0: 01b7 5bbf f2fd 563f d9fb bcbe fed7 bc3f
000000e0: 7b5a 51bf 7af6 4bbf 0bd6 533f 4c5b 93bf
000000f0: ce1c 25bf 0fa2 9e3f c2a8 e6bd 5cfa c13f

heads.0.heads.3.tril f4 [8, 8]
1.0 0.0 0.0 0.0 0.0 0.0 0.0 0.0
1.0 1.0 0.0 0.0 0.0 0.0 0.0 0.0
1.0 1.0 1.0 0.0 0.0 0.0 0.0 0.0
1.0 1.0 1.0 1.0 0.0 0.0 0.0 0.0
1.0 1.0 1.0 1.0 1.0 0.0 0.0 0.0
1.0 1.0 1.0 1.0 1.0 1.0 0.0 0.0
1.0 1.0 1.0 1.0 1.0 1.0 1.0 0.0
1.0 1.0 1.0 1.0 1.0 1.0 1.0 1.0
00000000: 0000 803f 0000 0000 0000 0000 0000 0000
00000010: 0000 0000 0000 0000 0000 0000 0000 0000
00000020: 0000 803f 0000 803f 0000 0000 0000 0000
00000030: 0000 0000 0000 0000 0000 0000 0000 0000
00000040: 0000 803f 0000 803f 0000 803f 0000 0000
00000050: 0000 0000 0000 0000 0000 0000 0000 0000
00000060: 0000 803f 0000 803f 0000 803f 0000 803f
00000070: 0000 0000 0000 0000 0000 0000 0000 0000
00000080: 0000 803f 0000 803f 0000 803f 0000 803f
00000090: 0000 803f 0000 0000 0000 0000 0000 0000
000000a0: 0000 803f 0000 803f 0000 803f 0000 803f
000000b0: 0000 803f 0000 803f 0000 0000 0000 0000
000000c0: 0000 803f 0000 803f 0000 803f 0000 803f
000000d0: 0000 803f 0000 803f 0000 803f 0000 0000
000000e0: 0000 803f 0000 803f 0000 803f 0000 803f
000000f0: 0000 803f 0000 803f 0000 803f 0000 803f

heads.0.heads.3.key.weight f4 [4, 16]
0.060452662 -0.05907646 -0.15248796 0.064249665 0.12241807 -0.12979302 0.36103794 0.083983585
0.13886286 0.056690857 0.011831298 -0.08764293 0.3277938 -0.07916527 -0.077199176 0.058450345
0.13984722 0.12568122 -0.04154878 0.26324633 0.13777655 0.14696348 -0.27239546 0.15222093
0.038994823 -0.11015184 0.17302805 0.21630149 0.12263068 0.084020615 0.031174382 -0.022549588
-0.21305883 -0.087504 0.108840816 -0.27023387 0.16384147 0.26276335 -0.25572547 -0.021033557
-0.02058822 0.16833434 -0.06860435 -0.12046178 -0.1410197 0.10032762 0.053288817 0.034477953
-0.16883302 -0.2682508 0.0062922467 -0.17668179 -0.28267616 0.263725 -0.14309739 -0.013078816
-0.04186828 -0.010458759 -0.32391995 -0.10415833 0.17327686 0.0687626 0.10678444 -0.13997045
00000000: 369d 773d 28fa 71bd ce25 1cbe 5495 833d
00000010: 53b6 fa3d 76e8 04be f7d9 b83e 96ff ab3d
00000020: 1132 0e3e ac34 683d 0fd8 413c 237e b3bd
00000030: 97d4 a73e 6721 a2bd 9a1a 9ebd a169 6f3d
00000040: 1c34 0f3e 94b2 003e 0e2f 2abd 39c8 863e
00000050: 4c15 0d3e 987d 163e 6b77 8bbe cedf 1b3e
00000060: 09b9 1f3d 4a97 e1bd 442e 313e 237e 5d3e
00000070: cb25 fb3d 0013 ac3d 6b61 ff3c eab9 b8bc
00000080: 182c 5abe 4c35 b3bd efe7 de3d 185c 8abe
00000090: 0fc6 273e eb88 863e 73ee 82be 914e acbc
000000a0: a0a8 a8bc d65f 2c3e 7080 8cbd aab4 f6bd
000000b0: 7867 10be 9178 cd3d 6045 5a3d c138 0d3d
000000c0: 90e2 2cbe 2b58 89be 312f ce3b 12ec 34be
000000d0: eeba 90be f706 873e 1f88 12be 8848 56bc
000000e0: 137e 2bbd 375b 2bbc d6d8 a5be f650 d5bd
000000f0: 7d6f 313e 68d3 8c3d cdb1 da3d 6a54 0fbe

heads.0.heads.3.query.weight f4 [4, 16]
0.13409767 0.23357408 0.06980909 -0.28151545 -0.016325971 0.045654036 0.16339298 -0.23124972
-0.23701948 0.06439411 0.041439537 -0.17143403 -0.30682144 -0.022575002 -0.083957694 0.26422024
-0.11568399 0.11522691 -0.22604279 0.20663285 0.2142442 -0.0018217419 -0.06022035 0.14341472
-0.12863672 -0.17721243 0.1222087 -0.0306638 -0.21760894 -0.24952582 0.032497138 0.0011485728
-0.17604165 0.32678378 0.066983 -0.4876981 -0.15471976 0.2557766 -0.43066695 -0.3109729
-0.14296974 0.5182443 0.33365148 -0.51361275 -0.15000768 -0.21133283 -0.4292481 0.13466117
-0.11778792 -0.20280191 -0.25257698 0.0063054357 -0.2511321 0.05428196 -0.14091256 0.16733219
-0.034888566 -0.4249407 -0.41823557 0.072372116 0.21491814 0.25442806 -0.19358395 0.042830463
00000000: e650 093e 0b2e 6f3e 11f8 8e3d cb22 90be
00000010: 0bbe 85bc baff 3a3d 7d50 273e bacc 6cbe
00000020: 3cb5 72be 0fe1 833d 81bc 293d 678c 2fbe
00000030: b317 9dbe 36ef b8bc 03f2 abbd e047 873e
00000040: baeb ecbd 16fc eb3d c377 67be 9097 533e
00000050: d562 5b3e 84c7 eeba 9da9 76bd 4fdb 123e
00000060: 58b9 03be 2d77 35be 8e48 fa3d a632 fbbc
00000070: e1d4 5ebe b283 7fbe b81b 053d b58b 963a
00000080: 4344 34be 3450 a73e 622e 893d 91b3 f9be
00000090: db6e 1ebe 27f5 823e 6180 dcbe d737 9fbe
000000a0: a966 12be a9ab 043f 5ed4 aa3e 207c 03bf
000000b0: 9d9b 19be a267 58be 68c6 dbbe 9ee4 093e
000000c0: cb3a f1bd 4eab 4fbe c551 81be d49d ce3b
000000d0: 6394 80be c356 5e3d 624b 10be 2159 2b3e
000000e0: 50e7 0ebd d491 d9be f922 d6be d537 943d
000000f0: 8013 5c3e 6544 823e df3a 46be ff6e 2f3d

heads.0.heads.3.value.weight f4 [4, 16]
1.8017385 0.360085 -0.863937 -1.452239 2.076977 -0.5663716 0.23459384 0.7495725
-2.7469938 -2.9281275 1.5464141 -1.7807322 -2.2141159 1.2645478 1.9078852 -2.3237634
-3.4636624 2.0684106 -3.5921228 1.8968394 2.8520062 -2.421092 -0.06109396 -3.2296867
-2.1794372 -2.5842922 -2.7596505 2.627533 2.2287095 -1.7643672 -2.6037078 -3.3481553
1.9157873 -0.7359256 -1.7804902 -0.96885395 -0.7387782 -1.8841654 -2.1945503 -1.5843436
-1.7045624 -0.34598818 0.44573864 1.698365 -1.8454556 1.1728128 -0.83806026 2.1394444
-0.42671737 -0.30300316 -2.89451 2.346996 -0.5509573 -0.4777569 1.3792086 0.8614399
-0.5524033 -0.41563243 1.779112 -0.35869643 -0.64804447 1.787335 -2.2647865 -1.1868004
00000000: 5e9f e63f 105d b83e fa2a 5dbf f8e2 b9bf
00000010: 31ed 0440 bbfd 10bf 5e39 703e fce3 3f3f
00000020: bfce 2fc0 7166 3bc0 e6f0 c53f 08ef e3bf
00000030: 13b4 0dc0 b4dc a13f 9535 f43f 8ab8 14c0
00000040: a5ac 5dc0 d760 0440 57e5 65c0 a2cb f23f
00000050: 4587 3640 2cf3 1ac0 a93d 7abd 30b3 4ec0
00000060: e67b 0bc0 0b65 25c0 1d9e 30c0 8029 2840
00000070: 2da3 0e40 c9d6 e1bf 26a3 26c0 2d48 56c0
00000080: 8538 f53f 9f65 3cbf 1ae7 e3bf d006 78bf
00000090: 9120 3dbf 552c f1bf 8373 0cc0 c5cb cabf
000000a0: 1a2f dabf 5d25 b1be db37 e43e 0664 d93f
000000b0: e437 ecbf bb1e 963f 1e8b 56bf a8ec 0840
000000c0: b37a dabe 3b23 9bbe a73f 39c0 2f35 1640
000000d0: 8a0b 0dbf 8d9c f4be e889 b03f 5387 5c3f
000000e0: 4d6a 0dbf c6cd d4be f1b9 e33f 0fa7 b7be
000000f0: 3ee6 25bf 65c7 e43f 43f2 10c0 13e9 97bf

heads.0.ffwds.net.0.weight f4 [64, 16]
-0.22169417 0.096725136 0.045370728 -0.120155275 0.085068345 0.15681869 0.028443187 0.009671092
0.103197575 -0.22099468 -0.17004544 0.059863567 -0.13839343 0.23234686 -0.08061516 -0.20271102
-0.12680131 -0.026873857 -0.12046492 0.101383895 0.030933768 -0.17564037 0.045861036 0.18012077
0.008155882 -0.24108475 0.10176605 -0.24517879 -0.08313224 0.092025906 -0.2298874 0.07360935
0.13429976 0.21437502 0.090707034 -0.022075146 0.092080444 -0.15330178 -0.046073824 -0.15923014
-0.08957723 -0.22493821 -0.13936663 -0.023039103 0.05979389 -0.14560175 0.22352338 0.16398123
0.19825459 -0.024576217 -0.057425648 -0.16815671 -0.08714524 -0.041437715 0.09287533 -0.088169694
0.18716988 0.14695475 0.18469527 0.099823266 -0.2164329 0.22315139 -0.0034775734 0.23719257
0.232488 0.044082254 0.115073115 -0.14286813 0.22792897 -0.21471673 0.16895941 -0.09293291
0.24180159 0.0004005432 -0.13625845 0.103563964 0.0351398 0.13708135 -0.15042397 -0.11146939
-0.007908255 -0.06943089 0.17352489 0.08986315 -0.053674906 0.13974431 0.24330312 -0.11978352
0.16392535 -0.15777084 -0.1681835 -0.23226354 0.03379351 0.19350949 -0.23945826 -0.18837216
0.1520688 -0.12380755 0.1256505 -0.0423595 0.17859334 0.036853373 0.18603948 -0.10557115
-0.08780366 -0.10000241 0.1908764 0.02350843 -0.176209 0.13527825 0.15655002 -0.15552676
0.012001246 -0.23981085 0.031801373 0.087952346 0.22373566 -0.08103225 0.0901725 -0.083773136
-0.08791295 -0.22152293 0.05276838 0.16775039 -0.13907412 0.10220888 -0.038996667 -0.1774965
0.026657224 -0.2436252 0.13401648 -0.055238336 0.23024446 0.009228975 -0.24237266 0.19400337
-0.05468279 -0.17124519 0.2308225 0.023349464 0.08105317 -0.21627167 -0.08829206 0.20058784
-0.1700626 -0.20195785 0.19616756 -0.04311034 -0.019014567 0.17731938 0.07835689 -0.12784499
-0.061523467 0.16130066 -0.08038679 0.19999868 0.22795469 0.14993209 -0.02107352 -0.110936075
-0.13711938 -0.20290095 0.0015227497 0.16187951 0.10151157 0.014156997 -0.23462725 0.119392455
-0.057857066 0.039010465 -0.15130422 0.03631699 0.06134665 -0.06383127 -0.08763707 0.07577121
0.035847038 0.17328915 -0.18693662 0.2451399 -0.2325536 -0.18393853 -0.044082314 -0.21714151
0.16863191 -0.04378149 0.009693772 0.08091408 0.028274864 0.2133697 0.17941615 0.08507684
-0.23983318 0.09401688 -0.04125282 0.042494833 0.19168496 -0.117883086 -0.015944958 -0.20660397
0.09063065 -0.054727674 -0.092244804 0.013792634 0.011755109 0.045537025 0.23184922 0.18674448
0.20658791 -0.14285296 -0.2366915 0.18223217 0.215316 0.150576 -0.18915173 -0.095893204
0.2306206 -0.12679666 -0.17181909 0.043401986 0.20099264 -0.09631115 -0.07766539 -0.086065024
-0.13025528 0.0034315586 -0.0287956 0.10415694 -0.1861737 -0.07180157 -0.23012838 -0.24904597
0.06918144 -0.032312304 -0.22482505 -0.0075338483 0.076093405 0.18153527 0.15031347 -0.23793924
0.06717005 -0.23522836 0.18526068 0.16295809 -0.23054045 0.0017352104 0.07789114 0.010263979
-0.22569236 0.23408288 -0.12311211 0.077729434 0.15634087 -0.22862837 -0.07408053 -0.115550816
00000000: cc03 63be d417 c63d a8d6 393d f813 f6bd
00000010: 5038 ae3d 1495 203e b001 e93c 8073 1e3c
00000020: 4059 d33d 6e4c 62be 6420 2ebe 8033 753d
00000030: 02b7 0dbe 56ec 6d3e 9019 a5bd 7a93 4fbe
00000040: 34d8 01be 9026 dcbc 50b6 f6bd 5ca2 cf3d
00000050: d068 fd3c 12db 33be c8d8 3b3d 9471 383e
00000060: 40a0 053c ecde 76be b86a d03d 2610 7bbe
00000070: 3c41 aabd 1478 bc3d 9a67 6bbe 80c0 963d
00000080: e085 093e 2085 5b3e 9cc4 b93d f0d6 b4bc
00000090: ac94 bc3d 24fb 1cbe e8b7 3cbd 3a0d 23be
000000a0: 4474 b7bd 3456 66be 20b6 0ebe 80bc bcbc
000000b0: 70ea 743d a018 15be 50e3 643e b2ea 273e
000000c0: 4003 4b3e 1054 c9bc 2837 6bbd 4631 2cbe
000000d0: 3479 b2bd 98ba 29bd 6c35 be3d 5092 b4bd
000000e0: 76a9 3f3e 4e7b 163e c220 3d3e 2470 cc3d
000000f0: 96a0 5dbe cc81 643e 00e8 63bb 9ce2 723e
00000100: 5611 6e3e 988f 343d 74ab eb3d 064c 12be
00000110: 3666 693e b4de 5bbe b203 2d3e 9c53 bebd
00000120: d69a 773e 0000 d239 5687 0bbe 5819 d43d
00000130: c0ee 0f3d 0e5f 0c3e be08 1abe 104a e4bd
00000140: a091 01bc c831 8ebd 82b0 313e 2c0a b83d
00000150: 38da 5bbd 2219 0f3e 7424 793e 1051 f5bd
00000160: 0cdc 273e ae8e 21be 4c38 2cbe 7ed6 6dbe
00000170: 106b 0a3d 5a27 463e 8c34 75be a2e4 40be
00000180: ecb7 1b3e d08e fdbd 86aa 003e 2881 2dbd
00000190: 2ce1 363e 90f3 163d 2281 3e3e b035 d8bd
000001a0: 68d2 b3bd 10ce ccbd 1a75 433e c094 c03c
000001b0: 2270 34be 6286 0a3e a64e 203e 6842 1fbe
000001c0: e0a0 443c fa90 75be 2842 023d 5c20 b43d
000001d0: f61a 653e 3cf4 a5bd 5cac b83d 4091 abbd
000001e0: b40b b4bd e8d6 62be a823 583d c2c6 2b3e
000001f0: 7269 0ebe e452 d13d f8ba 1fbd a4c1 35be
00000200: 4060 da3c e278 79be 9e3b 093e 9841 62bd
00000210: 34c5 6b3e 2035 173c 8a30 78be d2a8 463e
00000220: 10fb 5fbd e65a 2fbe bc5c 6c3e 6047 bf3c
00000230: 34ff a53d 5276 5dbe 78d2 b4bd e666 4d3e
00000240: e424 2ebe 0ace 4ebe 26e0 483e 7894 30bd
00000250: 70c4 9bbc 3693 353e 9479 a03d cce9 02be
00000260: 0800 7cbd 002c 253e d4a1 a4bd 74cc 4c3e
00000270: f46c 693e cc87 193e 60a2 acbc 7432 e3bd
00000280: 0669 0cbe 44c5 4fbe 0097 c73a bec3 253e
00000290: 4ce5 cf3d c0f2 673c 2042 70be 0884 f43d
000002a0: 88fb 6cbd 70c9 1f3d 7eef 1abe 20c1 143d
000002b0: a046 7b3d f8b9 82bd 107b b3bd f02d 9b3d
000002c0: 58d4 123d b672 313e 506c 3fbe f405 7b3e
000002d0: 8822 6ebe 625a 3cbe a88f 34bd 585a 5ebe
000002e0: d8ad 2c3e 3854 33bd a0d2 1e3c 48b6 a53d
000002f0: b0a0 e73c 967d 5a3e deb8 373e c43c ae3d
00000300: d496 75be ec8b c03d b8f8 28bd 100f 2e3d
00000310: 1049 443e b06c f1bd 009f 82bc fe8f 53be
00000320: 909c b93d 202a 60bd d8ea bcbd 80fa 613c
00000330: 8098 403c 0885 3a3d e269 6d3e f239 3f3e
00000340: c88b 533e 0c48 12be 425f 72be 129b 3a3e
00000350: cc7b 5c3e 9830 1a3e feb0 41be a863 c4bd
00000360: ce27 6c3e fcd6 01be 58f1 2fbe 48c6 313d
00000370: 04d1 4d3e c83e c5bd 080f 9fbd dc42 b0bd
00000380: a461 05be 00e4 603b c0e4 ebbc 3c50 d53d
00000390: 52a4 3ebe b40c 93bd c6a6 6bbe e805 7fbe
000003a0: 00af 8d3d e859 04bd 8a38 66be 80de f6bb
000003b0: dcd6 9b3d 62e4 393e c6eb 193e 58a6 73be
000003c0: 7490 893d b4df 70be fab4 3d3e 7cde 263e
000003d0: cc12 6cbe 0070 e33a 6485 9f3d 402a 283c
000003e0: e61b 67be 6cb3 6f3e 3422 fcbd 9c30 9f3d
000003f0: d217 203e 8e1d 6abe 88b7 97bd e8a5 ecbd

heads.0.ffwds.net.0.bias f4 [64]
0.040367007 -0.20283252 -0.08483836 0.17223954 0.24487549 0.0025527775 -0.025057793 0.22601497
-0.22245601 0.23350078 -0.108442664 0.015128374 -0.007947803 -0.10674843 0.09454164 -0.03205037
0.015322089 -0.04755321 0.109960735 -0.15429905 -0.19452086 -0.1214484 0.24515665 0.023247093
0.080414295 0.1370041 -0.04032755 0.16218296 -0.20781553 -0.114855945 0.21204904 -0.09525803
-0.15396965 -0.24135366 -0.2392897 0.029858083 -0.1768288 -0.24542126 0.23604459 0.08940795
0.18529862 0.061354667 -0.04395646 -0.16366538 -0.23995519 -0.22103533 -0.243637 -0.03082931
0.026283085 0.2167981 -0.047985286 -0.22631022 -0.16241425 0.22192094 0.17965859 0.08745411
-0.17186308 0.0410389 -0.10783529 0.1233007 0.06601533 0.16322693 -0.031988442 0.24814937
00000000: e057 253d 54b3 4fbe bcbf adbd 905f 303e
00000010: a4c0 7a3e 804c 273b 0046 cdbc 7870 673e
00000020: 82cb 63be d41a 6f3e 3017 debd 00dd 773c
00000030: 8037 02bc ec9e dabd 0c9f c13d 4047 03bd
00000040: 8009 7b3c 28c7 42bd 1833 e13d 9200 1ebe
00000050: 7a30 47be f0b9 f8bd 580a 7b3e b070 be3c
00000060: 40b0 a43d ce4a 0c3e 802e 25bd 4a13 263e
00000070: 98cd 54be 9839 ebbd 6223 593e a416 c3bd
00000080: 38aa 1dbe 6a25 77be 5c08 75be f098 f43c
00000090: 9c12 35be b64f 7bbe acb5 713e 841b b73d
000000a0: ecbe 3d3e 084f 7b3d b00b 34bd e697 27be
000000b0: d0b6 75be 1657 62be fa7b 79be c08d fcbc
000000c0: a04f d73c 5200 5e3e 388c 44bd debd 67be
000000d0: ec4f 26be 3e3f 633e 6cf8 373e 241b b33d
000000e0: e0fc 2fbe 6818 283d c0d8 dcbd 1485 fc3d
000000f0: 0c33 873d f624 273e 5006 03bd de1a 7e3e

heads.0.ffwds.net.2.weight f4 [16, 64]
0.033032417 0.09741083 0.0039785355 0.06962843 0.08957629 0.018680245 0.105232164 -0.10645634
-0.013428867 -0.019654512 -0.004906714 0.04120022 -0.032295734 -0.02838613 0.08190814 -0.09096463
-0.008186221 0.0925547 0.11303301 -0.1039177 0.0393288 0.051538095 0.023237675 0.040601164
-0.04848291 0.022773385 0.026943982 0.04089433 0.027426079 -0.07525924 0.014748707 -0.050507218
0.07413393 0.09205699 -0.118002355 -0.09051691 -0.07520372 -0.059418797 0.05238612 -0.079184055
0.1171146 -0.114846155 -0.062461212 -0.059467763 0.07216251 -0.012332201 0.03391792 0.020815179
0.017890945 0.107424125 -0.04010652 -0.11811434 0.04168175 0.082760975 -0.08011058 -0.05588816
-0.07582468 0.083553195 -0.016607776 -0.09660587 -0.090294644 -0.045996517 0.0165724 0.101962015
-0.11966945 0.07868889 -0.043664753 -0.10287547 -0.10661942 -0.07969198 -0.08587389 0.045634538
0.08068502 -0.08084132 0.119486675 -0.115835905 -0.0752738 -0.046436504 -0.0336235 -0.11145182
0.05359322 0.0044745505 -0.10061601 -0.049667284 -0.11731726 -0.027527645 0.036668196 0.011110187
0.07672635 -0.009795934 -0.011032909 0.0896429 -0.11457339 -0.028981611 0.045272216 -0.0064836442
0.05336699 0.092653304 0.043415755 0.040582642 -0.04051946 0.010515377 0.0762012 -0.0697536
0.10401179 0.068783104 -0.089052826 -0.10027006 0.09832129 -0.03568709 0.024227336 -0.118388355
-0.10186669 -0.085603386 -0.07976702 0.023364902 0.11659294 -0.088955805 0.08136615 0.021631062
0.09365362 -0.067399874 -0.06794056 0.027976364 0.08565736 -0.0737644 0.049995095 0.06429002
0.11885962 -0.021405935 -0.12477583 0.10606684 -0.047380194 -0.054356664 0.03301315 0.109488815
-0.027430132 -0.08103776 -0.06104313 -0.06903237 -0.11382134 -0.072697476 0.03681852 0.0776642
0.095499605 -0.11762059 -0.09343113 0.034006238 0.104437664 -0.106681466 0.0003825426 0.016926154
0.10141203 -0.00087323785 0.020307794 -0.011988208 0.09134686 -0.111803204 -0.030981168 -0.027740508
-0.03896959 0.11755122 0.0032636225 0.02750656 -0.053169817 0.05425279 0.053085744 -0.05378072
0.09494749 -0.02686444 0.05778517 0.12116583 0.0034614056 -0.04803914 0.06720701 -0.037666246
-0.08700627 0.041373014 -0.1076206 0.11789465 -0.056876987 0.114283144 -0.075338036 -0.105869815
0.0011227429 -0.10204595 0.017019048 -0.11073282 -0.031105071 0.03411807 -0.07278678 -0.05165197
0.092422426 -0.011386022 0.013666809 -0.101547375 -0.12051819 -0.094917476 -0.03235635 0.09346603
0.048462704 -0.036118284 -0.0025275052 0.0762811 0.086914256 -0.08805768 -0.079489306 -0.08126114
0.07330668 0.09550731 -0.053276777 0.07120238 -0.060015306 0.0125490725 0.11645922 -0.032210246
0.04689789 -0.079972 -0.0951757 0.08287887 -0.07638481 -0.059321016 0.09842414 0.08958079
0.060484946 -0.05901082 -0.065654054 -0.0019471496 0.10779792 0.042546272 0.08369857 0.07836953
-0.059709087 0.09433544 -0.07146469 -0.121103376 0.05309093 -0.1229455 0.040962115 0.009512618
-0.05856037 0.0045931786 -0.038026378 0.121283576 -0.07360242 -0.05533114 -0.122144476 -0.050217375
-0.11813307 0.07791464 0.06928049 0.1075273 -0.11270498 0.023676306 -0.083319336 0.07414581
00000000: 004d 073d 547f c73d 605e 823b 5a99 8e3d
00000010: c673 b73d 5007 993c f683 d73d c805 dabd
00000020: c004 5cbc 8002 a1bc 80c8 a0bb 90c1 283d
00000030: 8848 04bd 088a e8bc 74bf a73d aa4b babd
00000040: 801f 06bc 528d bd3d da7d e73d ced2 d4bd
00000050: 3c17 213d 9c19 533d f05c be3c 684d 263d
00000060: 0496 46bd 408f ba3c a0b9 dc3c d080 273d
00000070: a8ac e03c 8421 9abd 90a4 713c a8e0 4ebd
00000080: 88d3 973d 6088 bc3d 38ab f1bd ee60 b9bd
00000090: 6804 9abd 2061 73bd d492 563d 402b a2bd
000000a0: c8d9 ef3d 7634 ebbd 54d7 7fbd 7894 73bd
000000b0: f0c9 933d 000d 4abc 84ed 0a3d 9884 aa3c
000000c0: 0890 923c 2e01 dc3d bc46 24bd eee5 f1bd
000000d0: 7cba 2a3d 967e a93d 0411 a4bd fcea 64bd
000000e0: f849 9bbd f01d ab3d 080d 88bc 4cd9 c5bd
000000f0: 66ec b8bd d866 3cbd d8c2 873c 76d1 d03d
00000100: 4215 f5bd a427 a13d d0d9 32bd 60b0 d2bd
00000110: 485b dabd 8c35 a3bd a6de afbd 48eb 3a3d
00000120: 303e a53d 2290 a5bd 6eb5 f43d 603b edbd
00000130: 2629 9abd 3434 3ebd ccb8 09bd da40 e4bd
00000140: 9084 5b3d 409f 923b c40f cebd ec6f 4bbd
00000150: 0844 f0bd a881 e1bc 6431 163d 8007 363c
00000160: b422 9d3d 207f 20bc 60c3 34bc b296 b73d
00000170: 74a5 eabd d86a edbc 5c6f 393d c074 d4bb
00000180: 5897 5a3d 04c1 bd3d b8d4 313d fc39 263d
00000190: bcf7 25bd b048 2c3c 600f 9c3d fada 8ebd
000001a0: 2204 d53d 28de 8c3d 5461 b6bd 645a cdbd
000001b0: ac5c c93d a02c 12bd 6878 c63c 9875 f2bd
000001c0: 7c9f d0bd d450 afbd e45c a3bd c067 bf3c
000001d0: 48c8 ee3d 762e b6bd 4ca3 a63d a033 b13c
000001e0: 78cd bf3d f208 8abd 6c24 8bbd b02e e53c
000001f0: 206d af3d ca11 97bd a8c7 4c3d 7caa 833d
00000200: ac6c f33d 805b afbc 788a ffbd 9239 d93d
00000210: bc11 42bd 18a5 5ebd cc38 073d ac3b e03d
00000220: 28b5 e0bc 20f7 a5bd 5c08 7abd d860 8dbd
00000230: 2a1b e9bd 6ae2 94bd 04cf 163d 680e 9f3d
00000240: 4c95 c33d 10e3 f0bd d258 bfbd 204a 0b3d
00000250: 6ae3 d53d d07b dabd 0090 c839 b8a8 8a3c
00000260: 1cb1 cf3d 00ea 64ba 885c a63c 306a 44bc
00000270: 1014 bb3d 14f9 e4bd 38cc fdbc 1040 e3bc
00000280: 949e 1fbd b2be f03d 80e2 553b 7055 e13c
00000290: 98c8 59bd 2c38 5e3d 7070 593d 2c49 5cbd
000002a0: d473 c23d d012 dcbc 24b0 6c3d ca25 f83d
000002b0: c0d8 623b b0c4 44bd d4a3 893d ec47 1abd
000002c0: 5830 b2bd c076 293d 3068 dcbd c072 f13d
000002d0: d8f7 68bd 480d ea3d d44a 9abd 46d2 d8bd
000002e0: 0029 933a 78fd d0bd 886b 8b3c e4c7 e2bd
000002f0: 10d0 febc 64bf 0b3d 3c11 95bd 0491 53bd
00000300: f847 bd3d 708c 3abc c0ea 5f3c 12f8 cfbd
00000310: 3ed2 f6bd 1864 c2bd 1888 04bd 1e6b bf3d
00000320: d480 463d c4f0 13bd 80a4 25bb 4439 9c3d
00000330: 1a00 b23d 9657 b4bd 4acb a2bd 3e6c a6bd
00000340: d021 963d 5699 c33d c038 5abd 8ed2 913d
00000350: 9cd2 75bd a09a 4d3c 2c82 ee3d e4ee 03bd
00000360: 0018 403d 5cc8 a3bd 7aeb c2bd 66bc a93d
00000370: a46f 9cbd 98fa 72bd 9892 c93d 2276 b73d
00000380: 10bf 773d 54b5 71bd a275 86bd 8037 ffba
00000390: 28c5 dc3d 0045 2e3d 286a ab3d 3480 a03d
000003a0: 8491 74bd f032 c13d 145c 92bd 0c05 f8bd
000003b0: e075 593d daca fbbd e4c7 273d d0da 1b3c
000003c0: 00dd 6fbd 6082 963b 8cc1 1bbd 8663 f83d
000003d0: debc 96bd e8a2 62bd e226 fabd bcb0 4dbd
000003e0: c0ef f1bd b691 9f3d eee2 8d3d 4637 dc3d
000003f0: ded1 e6bd d0f4 c13c 54a3 aabd c2d9 973d

heads.0.ffwds.net.2.bias f4 [16]
0.05298552 0.064637035 -0.11880167 0.012932062 -0.072964504 0.036856547 0.040952668 -0.048587814
-0.0619725 0.10919392 -0.014265865 0.1097302 -0.052932486 0.062384352 -0.05532527 -0.01682733
00000000: 5807 593d 6c60 843d 4a4e f3bd 00e1 533c
00000010: 6a6e 95bd e4f6 163d fcbd 273d 0404 47bd
00000020: e0d6 7dbd 10a1 df3d 60bb 69bc 3aba e03d
00000030: bccf 58bd bc86 7f3d c09c 62bd 78d9 89bc

heads.0.norm.weight f4 [16]
0.12522946 0.37979776 -0.041677184 0.087282024 0.47337762 0.2173773 0.35441476 0.60430145
0.3643101 0.023350785 0.22006702 0.27075377 0.7120912 0.31899783 0.63476014 0.6896665
00000000: 273c 003e da74 c23e b2b5 2abd ebc0 b23d
00000010: 8d5e f23e 2898 5e3e da75 b53e 80b3 1a3f
00000020: da86 ba3e 254a bf3c 4059 613e 3da0 8a3e
00000030: 9c4b 363f af53 a33e a47f 223f fc8d 303f

heads.0.norm.bias f4 [16]
0.1027103 0.32985172 0.2013075 -1.3224392 -0.22086118 -0.044789374 0.20782845 0.0945609
-0.108559474 -0.3044254 0.13121517 0.3309095 0.08095425 0.040173072 0.18485583 -0.05198831
00000000: c759 d23d 53e2 a83e 8e23 4e3e b045 a9bf
00000010: 6f29 62be 1075 37bd fbd0 543e 25a9 c13d
00000020: 6e54 debd a5dd 9bbe 455d 063e f86c a93e
00000030: 58cb a53d 858c 243d d94a 3d3e b2f1 54bd

heads.1.heads.0.tril f4 [8, 8]
1.0 0.0 0.0 0.0 0.0 0.0 0.0 0.0
1.0 1.0 0.0 0.0 0.0 0.0 0.0 0.0
1.0 1.0 1.0 0.0 0.0 0.0 0.0 0.0
1.0 1.0 1.0 1.0 0.0 0.0 0.0 0.0
1.0 1.0 1.0 1.0 1.0 0.0 0.0 0.0
1.0 1.0 1.0 1.0 1.0 1.0 0.0 0.0
1.0 1.0 1.0 1.0 1.0 1.0 1.0 0.0
1.0 1.0 1.0 1.0 1.0 1.0 1.0 1.0
00000000: 0000 803f 0000 0000 0000 0000 0000 0000
00000010: 0000 0000 0000 0000 0000 0000 0000 0000
00000020: 0000 803f 0000 803f 0000 0000 0000 0000
00000030: 0000 0000 0000 0000 0000 0000 0000 0000
00000040: 0000 803f 0000 803f 0000 803f 0000 0000
00000050: 0000 0000 0000 0000 0000 0000 0000 0000
00000060: 0000 803f 0000 803f 0000 803f 0000 803f
00000070: 0000 0000 0000 0000 0000 0000 0000 0000
00000080: 0000 803f 0000 803f 0000 803f 0000 803f
00000090: 0000 803f 0000 0000 0000 0000 0000 0000
000000a0: 0000 803f 0000 803f 0000 803f 0000 803f
000000b0: 0000 803f 0000 803f 0000 0000 0000 0000
000000c0: 0000 803f 0000 803f 0000 803f 0000 803f
000000d0: 0000 803f 0000 803f 0000 803f 0000 0000
000000e0: 0000 803f 0000 803f 0000 803f 0000 803f
000000f0: 0000 803f 0000 803f 0000 803f 0000 803f

heads.1.heads.0.key.weight f4 [4, 16]
0.38709766 -0.21490307 0.7664282 -1.6989229 0.62684226 -1.1214699 -0.17653652 -0.39334023
1.1667899 -0.86792755 0.19462617 -0.42250544 0.68492395 1.1289995 -1.1976657 0.37044019
0.33329242 1.0663855 -0.44162494 0.04839781 -0.6448359 -1.4930787 -0.6318626 -1.1576439
0.45090264 -0.7941746 0.17381147 1.3080761 0.5956523 -0.48644271 -0.6039993 0.018633027
-1.9982111 -0.63512313 0.2935012 0.616794 0.9478404 1.0869117 -0.3764535 0.89114076
-0.117147595 1.3474748 -1.8716232 -0.15695609 1.3826432 -1.0912992 -1.5358799 0.2662534
-1.2162298 0.5069498 0.12618475 0.024027536 0.7010913 -0.6061635 -1.0532309 0.27955472
-0.25144085 -0.34197173 -0.063767575 -1.0134126 -2.0619378 0.08859859 -0.5240387 0.94056654
00000000: aa31 c63e 8d0f 5cbe a334 443f 4e76 d9bf
00000010: bc78 203f 538c 8fbf fdc5 34be e463 c9be
00000020: 5f59 953f 8030 5ebf 154c 473e a252 d8be
00000030: 2d57 2f3f 0e83 903f 1c4d 99bf 56aa bd3e
00000040: 4ea5 aa3e 527f 883f aa1c e2be c83c 463d
00000050: f713 25bf 341d bfbf bfc1 21bf ad2d 94bf
00000060: b6dc e63e 074f 4bbf a2fb 313e 0a6f a73f
00000070: ab7c 183f 050f f9be b39f 1abf 4aa4 983c
00000080: 62c5 ffbf 6e97 22bf ca45 963e 36e6 1d3f
00000090: aba5 723f ec1f 8b3f 83be c0be cd21 643f
000000a0: 14eb efbd 0e7a ac3f 5991 efbf 19b9 20be
000000b0: 74fa b03f b1af 8bbf b697 c4bf 5e52 883e
000000c0: 6bad 9bbf 76c7 013f 9336 013e 65d5 c43c
000000d0: b87a 333f 882d 1bbf 45d0 86bf cc21 8f3e
000000e0: dbbc 80be eb16 afbe 9398 82bd 81b7 81bf
000000f0: caf6 03c0 2d73 b53d 6627 06bf f8c8 703f
