gpt/models/model_random.pt (torch, 102253 bytes, 88 tensors)

token_embedding_table.weight f4 [65, 16]
0	0xbbaa0a21	-0.0051891957
1	0xbd25569e	-0.040365808
2	0xbd427cc1	-0.047482256
3	0x3cc0f200	0.023552895
4	0x3ce93e93	0.02847222
5	0x3c842004	0.016128547
6	0x3cb5a235	0.022172073
7	0xbdbe580a	-0.09294136
8	0xbb5f8f19	-0.0034112392
9	0x3e64c702	0.2234154
10	0xbc0047a8	-0.007829584
11	0xbbb0ac26	-0.0053916154
12	0xbd1c1092	-0.03810174
13	0xbc870526	-0.016481947
14	0x3b1908bf	0.002335116
15	0xbd653979	-0.055963013
16	0xbd50566b	-0.050863665
17	0xbc11fc93	-0.008910316
18	0x3d69189f	0.056908246
19	0xbcdddc2c	-0.027082525
20	0x3ddbf676	0.10740368
21	0xbc801637	-0.015635593
22	0xbdf75099	-0.1207592
23	0x3d4b5751	0.04964382
24	0x3df214f4	0.11820403
25	0x3d4f3d7f	0.050595757
26	0x3dc1e9e9	0.09468443
27	0x3d9e624d	0.07733593
28	0xbdc9f224	-0.09860638
29	0x3c42baa5	0.01188532
30	0x3c3dc65e	0.011582939
31	0x3d815b70	0.063162684
32	0x3dbc83fc	0.092048615
33	0xbb8f1f48	-0.0043677427
34	0xbd097a7a	-0.03356407
35	0x3e392e02	0.18083957
36	0xbde6ccf2	-0.11269559
37	0x3d6af0b0	0.057358444
38	0xbd085773	-0.033286523
39	0x3d5fc22d	0.05462854
40	0xbc581ba7	-0.013190187
41	0x3d24d343	0.040240537
42	0xbcc89d02	-0.02448893
43	0xba7161f5	-0.0009208017
44	0x3db4b39f	0.088233225
45	0xbdbe66e9	-0.09296972
46	0xbbc4c054	-0.0060043726
47	0xbb3647bf	-0.002781376
48	0x3bd2c5e7	0.006432283
49	0xbb46605f	-0.0030269844
50	0xb920fbc6	-0.00015352582
51	0xbc90f750	-0.017696053
52	0xbd02998e	-0.031884722
53	0xb9a743f7	-0.0003190336
54	0x3c5fef65	0.013667916
55	0xbd1d03ce	-0.038333707
56	0xbc4b1034	-0.012394
57	0x3d074d98	0.033032984
58	0x3b5c6fd1	0.0033635984
59	0x3cb0d81f	0.02158743
60	0x3b4749da	0.003040901
61	0xbba0030c	-0.0048831757
62	0x3bc478c4	0.0059958417
63	0xbb0a7b31	-0.0021130557
64	0x3d0b2a91	0.03397614
65	0x3cb24a0c	0.021763824
66	0xbd46b2ac	-0.04851024
67	0xbc8de978	-0.01732324
68	0x3d4dee09	0.050275836
69	0x3bffa292	0.0078013623
70	0xbc2d02e1	-0.010559768
71	0x392a4f27	0.0001624195
72	0x3bc8043c	0.0061040204
73	0x3cc225b5	0.02369962
74	0x3c65131e	0.013981609
75	0xbb35680d	-0.0027680427
76	0x3a6b63e8	0.0008979426
77	0xbc9dbc60	-0.019254863
78	0xbca9f26e	-0.020745482
79	0x3a5d6550	0.00084455777
80	0xbd7e2d30	-0.062054813
81	0xbd846d51	-0.06466163
82	0xbbe2e0e5	-0.006923782
83	0xbc1d4031	-0.009597824
84	0x3d0afa0f	0.03392988
85	0xbd42f446	-0.04759624
86	0x3cf138a0	0.029445946
87	0xbd2f59b2	-0.04281015
88	0x3d86b299	0.065770335
89	0x3d6d116a	0.057877935
90	0xbca18f01	-0.01972151
91	0x3d9f6abe	0.07784031
92	0x3d7a307e	0.061081402
93	0xbdcf29db	-0.10115405
94	0xbde5b869	-0.11216814
95	0x3d8dc8da	0.06923075
96	0x3dd0da47	0.10197883
97	0x3b4ac541	0.0030940326
98	0x3c9cf2ad	0.019158686
99	0x3e58021d	0.21094556
100	0xbdcdd146	-0.10049681
101	0x3c0642fc	0.008194681
102	0xbd683763	-0.056693446
103	0x3cec769c	0.028865151
104	0xbd318fad	-0.04334991
105	0x3d39229d	0.045199025
106	0x39b0bae2	0.00033708574
107	0xbc820e89	-0.015876072
108	0x3d79167b	0.060812455
109	0xbdb714a6	-0.08939485
110	0x3ca020ba	0.019546855
111	0x3cc469e4	0.023976274
112	0xbe0c0777	-0.13674723
113	0x3d66630b	0.0562468
114	0xbcfa3bb3	-0.030546045
115	0x3d3c55ec	0.04598038
116	0x3d6abc66	0.057308577
117	0x3cd7bee2	0.026336137
118	0xbb8dc534	-0.004326487
119	0x3d4c6b86	0.04990723
120	0x3d54ed78	0.05198428
121	0x3debcc2f	0.11513554
122	0x3db464b6	0.088082716
123	0x3c3e0288	0.011597283
124	0xbe0f51a6	-0.1399599
125	0xbe0b8bfe	-0.13627622
126	0x3d51ec14	0.051250532
127	0xbd8557df	-0.06510901
128	0x3a86ac2e	0.0010274702
129	0x3b8444e0	0.004036531
130	0xbd6a9597	-0.057271566
131	0x3e10c248	0.14136612
132	0xbe148b55	-0.14506276
133	0x3dafd202	0.08584978
134	0xbc483e69	-0.012221911
135	0x3cea863d	0.028628463
136	0xbc949dc4	-0.018141635
137	0xbccf4744	-0.025302537
138	0xbcda657e	-0.026659723
139	0xbd046a7b	-0.03232811
140	0x3dd9805f	0.10620188
141	0xbdc96da5	-0.09835366
142	0x3bd27ced	0.0064235837
143	0xbd9f67a8	-0.07783443
144	0x3dae57fa	0.08512874
145	0xba5f2be0	-0.0008513313
146	0xbd8032b4	-0.06259671
147	0x3d6a59bd	0.057214487
148	0xbcb85519	-0.022501515
149	0x3c515131	0.012775705
150	0xbd8dc56a	-0.06922419
151	0x3d1e377a	0.038627125
152	0xbd1c60df	-0.03817832
153	0x3cf82003	0.030288702
154	0xbda39912	-0.0798818
155	0xbdb96bf9	-0.09053797
156	0x3dca10e2	0.098665014
157	0x3cb6de35	0.022322753
158	0xbd873584	-0.06602004
159	0xbd90307b	-0.07040497
160	0x3d8a3734	0.067488104
161	0x3c432d7b	0.011912699
162	0xbc04bce3	-0.008101675
163	0x3e3baaa6	0.18326816
164	0xbde4b8fe	-0.11168097
165	0x3d847c69	0.06469042
166	0xbd907108	-0.07052809
167	0x3d838660	0.06422114
168	0xbd56df12	-0.05245883
169	0x3d0627e0	0.03275287
170	0xbc140b47	-0.009035892
171	0x3d0a4a94	0.03376253
172	0x3d7a49e6	0.06110563
173	0xbde8a4f1	-0.11359585
174	0x3d208dab	0.039197605
175	0x3c04be84	0.008102063
176	0x3da3e595	0.08002774
177	0xbc3c6de9	-0.011500814
178	0x3c3dc322	0.011582168
179	0x3e4400b4	0.19140893
180	0xbdde953e	-0.108683094
181	0xbafb5ebe	-0.0019178016
182	0xbd6fc084	-0.058533207
183	0x3d184ca6	0.037182473
184	0xbd2f4b14	-0.04279621
185	0x3d57c67d	0.052679528
186	0xbcfda463	-0.030962175
187	0xbb9e214a	-0.0048257457
188	0x3d80c269	0.06287081
189	0xbdb45d15	-0.088068165
190	0x3c285923	0.010275158
191	0x3c050fc0	0.008121431
192	0x3b6fb57c	0.003657668
193	0xbcebc99c	-0.028782658
194	0xbde3a480	-0.1111536
195	0x3ddd6b22	0.108114496
196	0xbdb5da9c	-0.08879587
197	0x3dcb0083	0.09912207
198	0x3b6042fb	0.003421961
199	0x3d153136	0.036423884
200	0x3c0711c2	0.00824398
201	0x3d575b7a	0.052577473
202	0xbd01db1c	-0.0317031
203	0xbc6e020b	-0.014526854
204	0x3ddd1647	0.10795265
205	0xbd837d40	-0.06420374
206	0xbd586877	-0.052834
207	0xbd96bde8	-0.073604405
208	0x3d7e1b89	0.06203798
209	0x3ca40b93	0.02002505
210	0xbe6fd991	-0.23422839
211	0xbd1a92ab	-0.03773753
212	0xbd31961c	-0.043356046
213	0xbcf88a0d	-0.030339265
214	0x3c890e36	0.01673041
215	0xbd71afad	-0.059005428
216	0x3db18616	0.08668153
217	0xbdd329ae	-0.10310684
218	0xbd9634ff	-0.07334327
219	0x3df7b2d5	0.120946564
220	0x3c9def40	0.019279122
221	0x3dd84bf4	0.10561362
222	0x3c8db8b3	0.017299986
223	0x3d8d6b05	0.06905178
224	0x3d80ca7c	0.06288621
225	0x3cb4f526	0.022089552
226	0x3c8e3945	0.017361293
227	0xbe2b7c08	-0.16746533
228	0x3dc306fb	0.09522816
229	0x3dda8bcd	0.10671196
230	0xbdacbd3d	-0.08434532
231	0xbcf6cd0e	-0.030127075
232	0x3c3faa06	0.011698252
233	0xbc92ae47	-0.017905368
234	0xbd74c5d1	-0.059758965
235	0xbd07b8ab	-0.033135097
236	0xbd19db04	-0.037562385
237	0x3dc51dbf	0.09624814
238	0xbd238c08	-0.039928466
239	0xbd9c2e48	-0.07626015
240	0x3dfbccd9	0.12294931
241	0xbc926914	-0.01787237
242	0x3cee85c4	0.029116519
243	0xbcc59126	-0.024117064
244	0x3df431c8	0.119235575
245	0x3cc8dd1b	0.024519494
246	0xbd96ce45	-0.073635615
247	0xbe2fa600	-0.17153168
248	0xbcaf5c12	-0.021406207
249	0xbc537087	-0.012905247
250	0x3af8828a	0.0018959802
251	0xbc1c5377	-0.009541384
252	0xbcb499b7	-0.022045953
253	0x3d975a40	0.07390261
254	0x3cb3076d	0.021854127
255	0xbd202e92	-0.039106913

positional_embedding_table.weight f4 [8, 16]
0	0x3cfc5d0d	0.030806089
1	0x3e2cf214	0.1688922
2	0x3c989c57	0.018629236
3	0xbd489ca2	-0.0489775
4	0xbd403dc2	-0.046933897
5	0xbd50a9d0	-0.050943196
6	0xbda44d8a	-0.08022602
7	0xbd753497	-0.059864607
8	0xbcf79b9e	-0.030225571
9	0x3dd29e36	0.102840826
10	0x3cec3123	0.028832024
11	0x3d333607	0.043752696
12	0x3d42a0bb	0.047516566
13	0xbcdddb70	-0.027082175
14	0xbdf6c560	-0.12049365
15	0xbcd9412f	-0.02652034
16	0x3cb87181	0.02251506
17	0x3de03b6d	0.109488346
18	0x3d09d00e	0.033645682
19	0xbcce3521	-0.025171818
20	0xbd11684b	-0.035499852
21	0xbcfcd18c	-0.030861638
22	0xbd8244a3	-0.06360748
23	0xbd32157e	-0.043477528
24	0xbaa5e3db	-0.0012656407
25	0x3d919f40	0.07110453
26	0x3cdf42b0	0.027253479
27	0x3d034d24	0.03205599
28	0x3d252faa	0.04032866
29	0xbbfa62b0	-0.007641159
30	0xbdda4d9b	-0.10659333
31	0xbcf69cc5	-0.03010405
32	0x3c503a65	0.012709235
33	0x3d3ccabb	0.046091776
34	0x3caedc06	0.02134515
35	0xbce4f332	-0.027947996
36	0xbcf63c6f	-0.030058114
37	0xbcfd981b	-0.030956319
38	0xbd53f579	-0.051747773
39	0xbd050701	-0.032477383
40	0xbc555e25	-0.013022934
41	0x3d4c70d4	0.04991229
42	0x3d017def	0.03161424
43	0x3c5467d5	0.012964209
44	0x3cb29935	0.02180157
45	0xbbc66e36	-0.0060556186
46	0xbdcf8705	-0.10133175
47	0xbd1c3573	-0.03813691
48	0x3c95f0c4	0.018303283
49	0x3ab8b79d	0.0014092807
50	0x3ce40897	0.027836127
51	0xbc86d693	-0.016459739
52	0xbc64ae69	-0.013957598
53	0xbc8d7f90	-0.01727274
54	0xbd01b595	-0.03166731
55	0xbc024ce6	-0.007952904
56	0xbc3ebc35	-0.011641552
57	0x3d28e91f	0.041237947
58	0x3d068a8c	0.032846972
59	0x3c8e8c82	0.017400984
60	0x3cc68e86	0.024237882
61	0xbc101e32	-0.008796262
62	0xbdbd34e0	-0.09238601
63	0xbd0096cb	-0.031393807
64	0x3d0ff037	0.035141196
65	0xbd0e043c	-0.034672007
66	0x3d0e5bda	0.034755565
67	0xbbf06393	-0.007336089
68	0x3c3ca450	0.0115137845
69	0xb9e00bea	-0.00042733486
70	0xbbe8fe8c	-0.0071104225
71	0x3c1c98e9	0.009557941
72	0x39fdac7c	0.0004838443
73	0x3ca80ecf	0.020514874
74	0x3d36156f	0.044454034
75	0x3c9f6b5a	0.019460369
76	0x3ca405df	0.02002233
77	0xbc332e7f	-0.0109363785
78	0xbd9bc6ea	-0.07606299
79	0xbd0ca93a	-0.034341075
80	0x3d0eaa42	0.03483034
81	0xbda56e05	-0.08077625
82	0x3d0d828e	0.034548335
83	0xbad68a0f	-0.0016368049
84	0x3cdae88d	0.026722217
85	0x3cb6b444	0.022302754
86	0x3c918310	0.01776269
87	0x3cdbfc0c	0.026853584
88	0xbbebbfc9	-0.0071944934
89	0x3c196b7a	0.009364003
90	0x3d3a484d	0.045479108
91	0x3c998c05	0.018743524
92	0x3bdafe50	0.0066831484
93	0xbcb59740	-0.022166848
94	0xbd838e5b	-0.064236365
95	0xbcd5a933	-0.026081657
96	0x3d711017	0.058853235
97	0xbdfc68f2	-0.12324704
98	0x3ce20974	0.027592398
99	0x3bc7d1d3	0.006098011
100	0x3d67d99f	0.056604024
101	0x3d881c9a	0.0664608
102	0x3d5d9ef7	0.05410668
103	0x3d4b16dc	0.049582347
104	0xbbf56c44	-0.007489713
105	0xbbda2ec1	-0.0066584055
106	0x3d9987c4	0.07496598
107	0x3d535d54	0.051602677
108	0xbc8db92b	-0.017300209
109	0xbd0c75a6	-0.034291886
110	0xbd150d58	-0.03638968
111	0xbcd0cd75	-0.025488595
112	0xbbd7fbba	-0.0065912874
113	0xbe84d4c9	-0.25943592
114	0x3d3cc0d7	0.046082344
115	0x3d577e32	0.052610584
116	0x3d781d76	0.06057497
117	0x3bf3f002	0.0074443826
118	0x3d6f3388	0.058398753
119	0x3dd84d27	0.10561591
120	0x3d2af226	0.041734837
121	0xbc01a658	-0.007913195
122	0xbca6abb7	-0.020345552
123	0xbd9577e1	-0.07298256
124	0xbb40f371	-0.0029441977
125	0x3d68ffa0	0.056884408
126	0x3d854041	0.06506396
127	0xbd88137d	-0.06644342

heads.0.heads.0.tril f4 [8, 8]
0	0x3f800000	1.0
1	0x00000000	0.0
2	0x00000000	0.0
3	0x00000000	0.0
4	0x00000000	0.0
5	0x00000000	0.0
6	0x00000000	0.0
7	0x00000000	0.0
8	0x3f800000	1.0
9	0x3f800000	1.0
10	0x00000000	0.0
11	0x00000000	0.0
12	0x00000000	0.0
13	0x00000000	0.0
14	0x00000000	0.0
15	0x00000000	0.0
16	0x3f800000	1.0
17	0x3f800000	1.0
18	0x3f800000	1.0
19	0x00000000	0.0
20	0x00000000	0.0
21	0x00000000	0.0
22	0x00000000	0.0
23	0x00000000	0.0
24	0x3f800000	1.0
25	0x3f800000	1.0
26	0x3f800000	1.0
27	0x3f800000	1.0
28	0x00000000	0.0
29	0x00000000	0.0
30	0x00000000	0.0
31	0x00000000	0.0
32	0x3f800000	1.0
33	0x3f800000	1.0
34	0x3f800000	1.0
35	0x3f800000	1.0
36	0x3f800000	1.0
37	0x00000000	0.0
38	0x00000000	0.0
39	0x00000000	0.0
40	0x3f800000	1.0
41	0x3f800000	1.0
42	0x3f800000	1.0
43	0x3f800000	1.0
44	0x3f800000	1.0
45	0x3f800000	1.0
46	0x00000000	0.0
47	0x00000000	0.0
48	0x3f800000	1.0
49	0x3f800000	1.0
50	0x3f800000	1.0
51	0x3f800000	1.0
52	0x3f800000	1.0
53	0x3f800000	1.0
54	0x3f800000	1.0
55	0x00000000	0.0
56	0x3f800000	1.0
57	0x3f800000	1.0
58	0x3f800000	1.0
59	0x3f800000	1.0
60	0x3f800000	1.0
61	0x3f800000	1.0
62	0x3f800000	1.0
63	0x3f800000	1.0

heads.0.heads.0.key.weight f4 [4, 16]
0	0x3f166a68	0.58756113
1	0xbe51637e	-0.2044811
2	0x3ed7b9f1	0.4213405
3	0xbe8a9d21	-0.27073005
4	0xbda71f73	-0.08160295
5	0xbf077c14	-0.52923703
6	0xbdd6e0b2	-0.10492076
7	0x3ebb32d5	0.3656222
8	0xbf633374	-0.88750386
9	0x3ea99064	0.33117974
10	0x3f26f837	0.65222496
11	0x3f2f18a0	0.6839695
12	0x3e631723	0.22176795
13	0xbf23122b	-0.636996
14	0xbf3a2324	-0.7270987
15	0xbe9f4012	-0.3110357
16	0xbe933064	-0.28747857
17	0x3d2ad25d	0.041704524
18	0x3f474ae1	0.7784863
19	0xbf72add7	-0.9479651
20	0x3df75f13	0.12078681
21	0xbf4e1151	-0.8049517
22	0x3e08655d	0.13319917
23	0x3f58a8cb	0.8463256
24	0x3d6e119c	0.058122262
25	0xbe9e6307	-0.30934927
26	0x3f2168e4	0.63050675
27	0x3eda2586	0.42606753
28	0x3d348060	0.04406774
29	0xbe677542	-0.22603324
30	0xbe98848c	-0.29788625
31	0x3ec25d69	0.3796189
32	0xbde18012	-0.110107556
33	0x3e009e80	0.12560463
34	0x3f470cc4	0.77753854
35	0xbf792054	-0.97314954
36	0xbeb147bc	-0.3462504
37	0xbf80b1d9	-1.0054275
38	0x3e9fa725	0.3118221
39	0x3f455c28	0.77093744
40	0xbe9068af	-0.28204867
41	0xbe363db5	-0.17796977
42	0x3f1fce5c	0.62424254
43	0x3ea32c88	0.31869912
44	0x3ee72332	0.4514404
45	0xbea2d8a2	-0.31805903
46	0xbec6868d	-0.3877453
47	0x3e8a5925	0.27021137
48	0x3ded0d8c	0.115748495
49	0xbdec4e50	-0.115383744
50	0x3f0f10c3	0.5588495
51	0xbf3067d2	-0.6890842
52	0x3e900399	0.28127745
53	0xbeff197f	-0.4982414
54	0xbe7d12e3	-0.24714236
55	0x3f0907ac	0.5352733
56	0xbec81cdf	-0.39084527
57	0x3db2cf68	0.08730966
58	0x3f3ea238	0.74466276
59	0x3f46cb4c	0.77653956
60	0xbd949f75	-0.072569765
61	0xbededaa8	-0.43526196
62	0xbf1ddf27	-0.6166863
63	0x3bf85c0a	0.0075793313

heads.0.heads.0.query.weight f4 [4, 16]
0	0x3e4bd814	0.19906646
1	0x3e534c0a	0.20634475
2	0xbe905821	-0.28192237
3	0x3d3b805a	0.045776702
4	0x3e454c64	0.19267422
5	0x3e27e762	0.1639686
6	0xbee361d3	-0.4441057
7	0xbe6f2382	-0.23353389
8	0x3dd25c53	0.10271516
9	0xbd4f480c	-0.05060582
10	0xbe34b32e	-0.17646477
11	0x3d63384c	0.05547361
12	0x3d25b803	0.04045869
13	0x3e866029	0.2624524
14	0xbce987e9	-0.02850719
15	0xbdaf6716	-0.08564584
16	0x3ae0df54	0.0017156401
17	0x3f23cce0	0.6398449
18	0xba6e0823	-0.0009080192
19	0xbdcef25c	-0.1010482
20	0xbe337bc1	-0.17527677
21	0xbdc0cc5d	-0.09413979
22	0xbe9963c1	-0.2995892
23	0xbe57cfa5	-0.21075304
24	0xbd5c06c4	-0.05371739
25	0x3e14e569	0.14540638
26	0xbe63fcd1	-0.2226441
27	0x3d8aba02	0.067737594
28	0x3e975c1d	0.29562464
29	0x3e585a01	0.21128084
30	0xbcc0c6e9	-0.023532348
31	0x3c91eec0	0.01781404
32	0xbd093423	-0.033496987
33	0x3f12fbd4	0.5741551
34	0xbd968516	-0.07349603
35	0xbdad18c3	-0.084519885
36	0xbd69b8e9	-0.05706111
37	0xbdbff84d	-0.093735315
38	0xbecf7e82	-0.40526205
39	0xbe9d16a5	-0.3068134
40	0x3bb18382	0.0054172883
41	0x3e2e0429	0.16993774
42	0xbe09dbc1	-0.13462736
43	0x3e3bf6f9	0.18355931
44	0x3e1b4983	0.15164761
45	0x3e358e1b	0.1772999
46	0xbddfb01a	-0.109222606
47	0x3c34c6b1	0.0110337
48	0x3e4545e7	0.19264947
49	0x3ea588fb	0.3233107
50	0xbe7d3a14	-0.24729186
51	0x3d9d518a	0.07681568
52	0x3d78fcec	0.06078808
53	0x3deac64d	0.11463604
54	0xbec4cb83	-0.38436517
55	0xbe660e02	-0.22466281
56	0x3c55d3e9	0.013051012
57	0x3c3d1f69	0.011543133
58	0xbe67b440	-0.22627354
59	0xbd19b02e	-0.037521534
60	0x3e440310	0.19141793
61	0x3e749366	0.23884353
62	0xbd1ed6e2	-0.038779147
63	0xbd7b1c09	-0.061306033

heads.0.heads.0.value.weight f4 [4, 16]
0	0x3b3a85e8	0.0028461162
1	0x3c10cc9a	0.008837843
2	0xbc82beaf	-0.015960066
3	0x3bc9806e	0.006149343
4	0xbbab8779	-0.0052346555
5	0xbd3459da	-0.044031
6	0xbce866f3	-0.028369403
7	0xbc5fcec2	-0.013660135
8	0xbbc23a04	-0.005927326
9	0x3d5fc163	0.054627787
10	0x3d0bb61a	0.034109212
11	0x3d0dca8e	0.034617
12	0xbd9c3783	-0.076277755
13	0xbdbcf2b5	-0.0922598
14	0xbd803fed	-0.06262193
15	0x3c718927	0.014742172
16	0xbce49f42	-0.027907971
17	0x3a35c3ac	0.00069337594
18	0xbca79e28	-0.020461157
19	0x3d5e1259	0.054216716
20	0x3d276c7c	0.040874943
21	0x3ce5b2bf	0.028039334
22	0xbdc5010d	-0.09619341
23	0x3cc33184	0.023827322
24	0x3dad4a21	0.084614046
25	0xbc6ccffa	-0.014453882
26	0xbce9c909	-0.028538244
27	0xbc6ad8e0	-0.014333934
28	0x3c932b95	0.017965117
29	0x3cbcc639	0.023043739
30	0x3d5d6d61	0.05405939
31	0xbac02627	-0.0014659808
32	0xb9c8359d	-0.00038186918
33	0x3bdc2b71	0.006719046
34	0x3ab581a4	0.001384784
35	0x3cd1dad6	0.025617044
36	0x3c29e7dc	0.010370221
37	0x3c9194a9	0.017771082
38	0xbd2a7427	-0.041614678
39	0x3d7dbda3	0.06194843
40	0xbdfd5663	-0.123699926
41	0xbc684be7	-0.014178253
42	0xbb22e500	-0.0024855733
43	0x3d54e49f	0.051975843
44	0xbcf0e80f	-0.02940753
45	0xbd8ec069	-0.06970293
46	0xbcaaf307	-0.020867838
47	0x3cdae5e4	0.026720949
48	0x3cacc97a	0.021092165
49	0x3c9ed215	0.019387284
50	0xbd4d04e5	-0.050053496
51	0x3d9eca30	0.07753408
52	0x3c746c01	0.014918328
53	0x3d58d257	0.05293497
54	0x3ca45eae	0.020064678
55	0xbd596b5a	-0.053080894
56	0xbc254388	-0.0100869015
57	0xbc8cc434	-0.0171834
58	0x3d25bd4e	0.04046374
59	0xbc74ba19	-0.014936947
60	0x3d26944f	0.04066878
61	0x3ddafc08	0.106926024
62	0xbc9b47e4	-0.018955179
63	0xbd5a37bb	-0.053275805

heads.0.heads.1.tril f4 [8, 8]
0	0x3f800000	1.0
1	0x00000000	0.0
2	0x00000000	0.0
3	0x00000000	0.0
4	0x00000000	0.0
5	0x00000000	0.0
6	0x00000000	0.0
7	0x00000000	0.0
8	0x3f800000	1.0
9	0x3f800000	1.0
10	0x00000000	0.0
11	0x00000000	0.0
12	0x00000000	0.0
13	0x00000000	0.0
14	0x00000000	0.0
15	0x00000000	0.0
16	0x3f800000	1.0
17	0x3f800000	1.0
18	0x3f800000	1.0
19	0x00000000	0.0
20	0x00000000	0.0
21	0x00000000	0.0
22	0x00000000	0.0
23	0x00000000	0.0
24	0x3f800000	1.0
25	0x3f800000	1.0
26	0x3f800000	1.0
27	0x3f800000	1.0
28	0x00000000	0.0
29	0x00000000	0.0
30	0x00000000	0.0
31	0x00000000	0.0
32	0x3f800000	1.0
33	0x3f800000	1.0
34	0x3f800000	1.0
35	0x3f800000	1.0
36	0x3f800000	1.0
37	0x00000000	0.0
38	0x00000000	0.0
39	0x00000000	0.0
40	0x3f800000	1.0
41	0x3f800000	1.0
42	0x3f800000	1.0
43	0x3f800000	1.0
44	0x3f800000	1.0
45	0x3f800000	1.0
46	0x00000000	0.0
47	0x00000000	0.0
48	0x3f800000	1.0
49	0x3f800000	1.0
50	0x3f800000	1.0
51	0x3f800000	1.0
52	0x3f800000	1.0
53	0x3f800000	1.0
54	0x3f800000	1.0
55	0x00000000	0.0
56	0x3f800000	1.0
57	0x3f800000	1.0
58	0x3f800000	1.0
59	0x3f800000	1.0
60	0x3f800000	1.0
61	0x3f800000	1.0
62	0x3f800000	1.0
63	0x3f800000	1.0

heads.0.heads.1.key.weight f4 [4, 16]
0	0x3e12c3a1	0.14332439
1	0x3e40afeb	0.18817107
2	0x3f397b82	0.7245408
3	0xbdc19fa8	-0.0945428
4	0xbdb6bc97	-0.089226894
5	0xbf2d17a4	-0.676142
6	0xbeeb9b8a	-0.46017104
7	0xbece9303	-0.40346536
8	0xbea3cb9c	-0.3199128
9	0x3f616ae4	0.8805373
10	0x3f106571	0.5640479
11	0x3f6bb81c	0.92077804
12	0x3e6f7c7c	0.23387331
13	0xbe7bef56	-0.24603018
14	0xbf78ce88	-0.9719014
15	0xbf1cf985	-0.61318237
16	0x3edb36f6	0.4281537
17	0xbee34c2a	-0.44394046
18	0x3f5a1833	0.85193175
19	0xbdf537ed	-0.119735576
20	0x3cd03adc	0.025418691
21	0xbeae6128	-0.340585
22	0xbe12ac03	-0.1432343
23	0x3e4023da	0.18763676
24	0xbf2e0d57	-0.67989105
25	0x3f15ad32	0.584674
26	0x3f1f4a56	0.622228
27	0x3f49d82e	0.7884549
28	0x3eeb665d	0.45976534
29	0xbef49c69	-0.4777558
30	0xbf634764	-0.8878081
31	0xbf2ea03c	-0.6821325
32	0xbd14895f	-0.03626382
33	0xbe26af49	-0.16277803
34	0x3e8400be	0.25781816
35	0xbf0880c7	-0.533215
36	0x3f5f8b91	0.87322336
37	0x3d87f90f	0.06639301
38	0xbf3272de	-0.69706523
39	0x3dc0ab95	0.09407727
40	0x3d814cbc	0.06313464
41	0xbdf24d15	-0.118311085
42	0x3f12c2cf	0.57328504
43	0x3f01e9c6	0.50747335
44	0xbf43d1ca	-0.7649199
45	0x3e3e2631	0.18569256
46	0xbe686d6a	-0.22697988
47	0xbe1e4445	-0.1545573
48	0x3e397807	0.18112193
49	0x3d072314	0.032992437
50	0x3f093039	0.53589207
51	0xbe3833e7	-0.17988549
52	0x3e9c4542	0.3052159
53	0xbec0ace5	-0.37631908
54	0xbf0457e7	-0.5169663
55	0xbe372e0b	-0.17888658
56	0xbe3bf862	-0.1835647
57	0x3f0efdba	0.55855906
58	0x3f446e46	0.76730764
59	0x3f6e8285	0.93167907
60	0xbef64f72	-0.48107487
61	0xbe3a60b4	-0.18200952
62	0xbf3622a9	-0.7114664
63	0xbf01b06c	-0.50659823

heads.0.heads.1.query.weight f4 [4, 16]
0	0x3d281d23	0.041043412
1	0x3f08fb7c	0.53508735
2	0xbd22cb2a	-0.039744534
3	0xbdf998e6	-0.12187366
4	0xbd9314d0	-0.07181704
5	0xbded0e3a	-0.11574979
6	0xbe71b40c	-0.23603839
7	0xbd533048	-0.051559716
8	0x3d669587	0.056294944
9	0x3e06a67b	0.13149445
10	0x3c217328	0.009854116
11	0xbc1eed99	-0.009700202
12	0x3d5608b1	0.052254383
13	0x3d1ae620	0.03781712
14	0xbd17de8a	-0.037077464
15	0x3d662add	0.05619322
16	0x3ca5a221	0.02021891
17	0x3ee8c7ce	0.4546494
18	0x3ce866fd	0.028369421
19	0xbe720453	-0.23634462
20	0xbce490bd	-0.027901048
21	0xbe7c9ee8	-0.24669993
22	0xbe8034f2	-0.25040394
23	0xbd101628	-0.03517738
24	0x3e040863	0.12893824
25	0x3dea176f	0.11430251
26	0x3df25817	0.11833208
27	0xbcf4d599	-0.029887008
28	0x3c73b7f7	0.014875404
29	0x3cd6a022	0.026199404
30	0xbcad2743	-0.021136886
31	0x3e2bb8eb	0.1676976
32	0x3e25f4f6	0.16206726
33	0x3eb5527a	0.35414487
34	0xbeb25911	-0.34833577
35	0xbeac41bf	-0.3364391
36	0xbe8b08ff	-0.271553
37	0xbe858393	-0.26076946
38	0x3df0fbb7	0.11766761
39	0xbddc93da	-0.10770388
40	0x3e0c8e6d	0.13726206
41	0x3e02fb9f	0.12791298
42	0xbd8358fd	-0.064134575
43	0xbe61b95c	-0.22043365
44	0x3e293dec	0.16527528
45	0xbd4d7e4f	-0.050169285
46	0x3e91a9e0	0.28449917
47	0x3e30ef69	0.17278828
48	0x3d749496	0.059712015
49	0x3f00bf16	0.50291574
50	0xbdf23d0a	-0.118280485
51	0xbe2b2a93	-0.1671546
52	0xbdbe388f	-0.092881314
53	0xbe16a52e	-0.14711449
54	0xbe312658	-0.17299783
55	0xbd6cab51	-0.057780568
56	0x3df68a59	0.120381065
57	0x3dd68929	0.1047538
58	0xbd6db5ad	-0.058034588
59	0xbda6d59c	-0.081462115
60	0x3da42aaa	0.0801595
61	0x3ddf9c4d	0.10918484
62	0x3d97c71e	0.074110255
63	0x3dce7492	0.10080828

heads.0.heads.1.value.weight f4 [4, 16]
0	0xbbca5457	-0.006174605
1	0x3c90c107	0.017670168
2	0x3c5b016f	0.013367041
3	0xbc937c7f	-0.0180037
4	0xbccb23d5	-0.02479736
5	0x3d16ebce	0.036845975
6	0x3919b056	0.00014656907
7	0x3ccbde0e	0.024886157
8	0x3d395fe6	0.04525747
9	0xbd624627	-0.055242684
10	0xbc3824ab	-0.011239211
11	0xbac49d3f	-0.0015000476
12	0x3dc01a3c	0.09380004
13	0xbb51b1e1	-0.0031996893
14	0x3b4c3101	0.0031157138
15	0xbd774393	-0.06036718
16	0x3b15c92e	0.0022855508
17	0x3c8b4102	0.016998772
18	0xbb0ea3a4	-0.0021765018
19	0x3ca47a31	0.020077797
20	0x3c08e7ab	0.008356015
21	0xbd562bf9	-0.05228803
22	0x3c120547	0.008912391
23	0xbc78aaa3	-0.015177402
24	0x3e400b37	0.18754278
25	0xbc9085b3	-0.017641878
26	0xbd9d3ed5	-0.07678
27	0xbdc2a226	-0.095035836
28	0xbdd2c7db	-0.10292026
29	0x3cb655e7	0.022257758
30	0x3d33e274	0.043917134
31	0x3d643c11	0.055721346
32	0xbc70fec7	-0.014709181
33	0xbc9029f8	-0.017598137
34	0x3d0f8332	0.035037227
35	0xbc7f9e40	-0.015601695
36	0xbde1dae8	-0.11028081
37	0xbc5ef8f3	-0.013609159
38	0x3d917d19	0.071039386
39	0xbc127173	-0.008938181
40	0x3c8e58c2	0.017376307
41	0x3ce168a3	0.027515715
42	0xbdb14ce4	-0.08657244
43	0xbda832b3	-0.08212795
44	0x3d777609	0.0604153
45	0xbdba22c3	-0.090886615
46	0x3d8900aa	0.0668958
47	0xbc0cd964	-0.008596752
48	0x3a83140c	0.0010000481
49	0x3cce3e8e	0.025176313
50	0x3d044d41	0.032300238
51	0x3deca122	0.11554171
52	0xbce77d6f	-0.028258054
53	0x3cad10b2	0.021126125
54	0xbc8f3644	-0.01748193
55	0x3d16a297	0.03677615
56	0xbd24d0b5	-0.0402381
57	0xbca743c0	-0.020418048
58	0x3d0fb0a1	0.035080556
59	0xbccaf5a6	-0.024775337
60	0xbc8412c0	-0.016122222
61	0x3c604ed8	0.013690673
62	0xbd2b2980	-0.041787624
63	0xbc65a90e	-0.014017357

heads.0.heads.2.tril f4 [8, 8]
0	0x3f800000	1.0
1	0x00000000	0.0
2	0x00000000	0.0
3	0x00000000	0.0
4	0x00000000	0.0
5	0x00000000	0.0
6	0x00000000	0.0
7	0x00000000	0.0
8	0x3f800000	1.0
9	0x3f800000	1.0
10	0x00000000	0.0
11	0x00000000	0.0
12	0x00000000	0.0
13	0x00000000	0.0
14	0x00000000	0.0
15	0x00000000	0.0
16	0x3f800000	1.0
17	0x3f800000	1.0
18	0x3f800000	1.0
19	0x00000000	0.0
20	0x00000000	0.0
21	0x00000000	0.0
22	0x00000000	0.0
23	0x00000000	0.0
24	0x3f800000	1.0
25	0x3f800000	1.0
26	0x3f800000	1.0
27	0x3f800000	1.0
28	0x00000000	0.0
29	0x00000000	0.0
30	0x00000000	0.0
31	0x00000000	0.0
32	0x3f800000	1.0
33	0x3f800000	1.0
34	0x3f800000	1.0
35	0x3f800000	1.0
36	0x3f800000	1.0
37	0x00000000	0.0
38	0x00000000	0.0
39	0x00000000	0.0
40	0x3f800000	1.0
41	0x3f800000	1.0
42	0x3f800000	1.0
43	0x3f800000	1.0
44	0x3f800000	1.0
45	0x3f800000	1.0
46	0x00000000	0.0
47	0x00000000	0.0
48	0x3f800000	1.0
49	0x3f800000	1.0
50	0x3f800000	1.0
51	0x3f800000	1.0
52	0x3f800000	1.0
53	0x3f800000	1.0
54	0x3f800000	1.0
55	0x00000000	0.0
56	0x3f800000	1.0
57	0x3f800000	1.0
58	0x3f800000	1.0
59	0x3f800000	1.0
60	0x3f800000	1.0
61	0x3f800000	1.0
62	0x3f800000	1.0
63	0x3f800000	1.0

heads.0.heads.2.key.weight f4 [4, 16]
0	0x3f6cc5ad	0.9248913
1	0x3e1d9c63	0.15391688
2	0x3f02592e	0.5091733
3	0xbdb61383	-0.0889044
4	0x3e1b0f45	0.15142544
5	0xbe1b5d41	-0.15172292
6	0xbd7723de	-0.06033694
7	0x3e1864c2	0.14882186
8	0xbf1513d3	-0.58233374
9	0x3e16f504	0.14741904
10	0x3e5549b3	0.20828895
11	0x3dd1cb3c	0.10243842
12	0x3e3f1308	0.18659604
13	0xbef987d5	-0.48736444
14	0xbee3852f	-0.4443755
15	0xbf5f451f	-0.87214845
16	0x3eb5432e	0.35402817
17	0xbe89c371	-0.26906922
18	0xbcdf9239	-0.027291404
19	0xbf11aef1	-0.56907564
20	0x3eca7eec	0.3954996
21	0xbd2213e7	-0.03956976
22	0xbde2045f	-0.1103599
23	0x3ed96153	0.42457065
24	0x3dcc6810	0.09980786
25	0x3dfc0550	0.12305701
26	0x3ea777ed	0.32708684
27	0x3f0558d8	0.5208869
28	0xbe21a445	-0.1578532
29	0xbe72538d	-0.23664685
30	0xbe8a33ff	-0.26992795
31	0xbeff48ea	-0.49860317
32	0x3ea43438	0.3207109
33	0x3df9324a	0.12167795
34	0x3ce1d7f6	0.027568799
35	0xbed0b438	-0.40762496
36	0x3eb3db70	0.35128355
37	0xbefe80f6	-0.49707764
38	0xbeba6fb2	-0.36413342
39	0xbf120833	-0.5704376
40	0x3f01d4fa	0.507156
41	0x3f476f65	0.7790435
42	0x3eeff239	0.4686449
43	0x3e835c3c	0.25656307
44	0xbc02aa0c	-0.007975113
45	0xbf2873a1	-0.65801436
46	0xbeb8666e	-0.36015648
47	0xbda1c4be	-0.07898854
48	0x3f0ee002	0.5581056
49	0x3d99aed2	0.075040475
50	0x3e647441	0.22309972
51	0xbd0648ba	-0.0327842
52	0x3e60aef5	0.21941741
53	0x3e420a06	0.18949136
54	0xbf1a4892	-0.60266984
55	0x3c645dc7	0.013938374
56	0xbeb5c84e	-0.35504383
57	0x3e38dbcf	0.180526
58	0x3c7a7744	0.015287224
59	0xbd644cbc	-0.055737242
60	0x3f0f31f4	0.559356
61	0xbeb5a688	-0.35478616
62	0xbe46b329	-0.19404282
63	0xbeef1a57	-0.46699783

heads.0.heads.2.query.weight f4 [4, 16]
0	0xbdbb2164	-0.09137228
1	0x3e93e7b2	0.28887707
2	0xbd93cfe3	-0.072173856
3	0xbe280620	-0.16408587
4	0xbe88a9e9	-0.2669213
5	0xbe39aa07	-0.18131267
6	0xbe88e4e9	-0.26737145
7	0xbc2c151a	-0.010503078
8	0xbd797869	-0.060905848
9	0x3da02b11	0.07820714
10	0xbda61b42	-0.08110668
11	0x3e830f36	0.25597543
12	0x3d73b8a8	0.059502274
13	0x3e885ec7	0.2663481
14	0x3dfc4196	0.12317197
15	0x3e0a82c4	0.13526446
16	0xbe6f1319	-0.23347129
17	0x3e870207	0.26368734
18	0x3de85003	0.11343386
19	0xbd9ff742	-0.078108326
20	0xbe86bb10	-0.26314592
21	0xbe716c82	-0.23576549
22	0x3e168fd4	0.14703304
23	0x3dcbb3ae	0.099463806
24	0xbe1439b7	-0.14475141
25	0xbd18a2f3	-0.037264775
26	0xbc459721	-0.012059958
27	0x3df942a3	0.12170913
28	0xbd09970f	-0.033591326
29	0x3ecbbca2	0.39792353
30	0xbd9b27e6	-0.075759694
31	0x3d8c7ad4	0.06859365
32	0xbd983456	-0.07431857
33	0x3f34c6fe	0.7061614
34	0x3e03dbcb	0.12876813
35	0xbe26ef08	-0.1630212
36	0xbd8dbad1	-0.06920398
37	0xbc4166df	-0.011804312
38	0xbcab12d9	-0.02088301
39	0xbd71d2a6	-0.05903878
40	0xbdfc79f2	-0.12327947
41	0x3d553e1c	0.052061185
42	0xbc947fc4	-0.01812733
43	0xbd1a3c2f	-0.03765505
44	0x3db7d1b1	0.08975542
45	0x3e812dce	0.2523026
46	0xbea816ef	-0.32829997
47	0xbdf6360c	-0.120220274
48	0xbd0c648d	-0.03427558
49	0x3e9c120b	0.30482516
50	0xbdadc32d	-0.084844925
51	0xbd885627	-0.06657057
52	0xbe95b8dd	-0.29242602
53	0xbef51477	-0.47867176
54	0xbea5f1bc	-0.3241099
55	0xbe276a89	-0.16349234
56	0x3e22c83f	0.158967
57	0x3eac35a7	0.33634683
58	0x3e8a74d9	0.27042273
59	0x3ea8971f	0.32927796
60	0xbc7f377f	-0.015577196
61	0xbd4856f4	-0.04891105
62	0xbd8db492	-0.06919207
63	0x3d54b208	0.051927596

heads.0.heads.2.value.weight f4 [4, 16]
0	0xbdce0d19	-0.10061092
1	0xbb4437d1	-0.0029940496
2	0x3d817461	0.06321026
3	0x3cd20476	0.025636893
4	0x3ddbedb6	0.10738699
5	0xbc8cc7b3	-0.017185068
6	0xbda7b441	-0.081886776
7	0xbd251d45	-0.040311117
8	0xbcb26e36	-0.021781068
9	0xbc5bcc36	-0.013415387
10	0xbcdd47b4	-0.02701173
11	0xbd77cbd5	-0.060497124
12	0xbd88d9b2	-0.06682147
13	0x3de62038	0.11236614
14	0x3c515aab	0.012777965
15	0x3d4f1623	0.05055822
16	0x3d91cffb	0.07119747
17	0x3cb2a467	0.021806909
18	0x3ca590ea	0.020210702
19	0xbdb1afb5	-0.086760916
20	0x3df7c53a	0.12098165
21	0x3c485ae2	0.012228699
22	0xbd80b629	-0.06284744
23	0x3cd75cb0	0.026289314
24	0xbdc0c620	-0.09412789
25	0xbccba229	-0.024857597
26	0x3d877661	0.06614376
27	0x3dc4c024	0.096069604
28	0xbd8b2042	-0.06793262
29	0xbd24abe9	-0.04020301
30	0xbd4b91a9	-0.04969946
31	0xbd49534d	-0.049151707
32	0xbc05d6ac	-0.008168858
33	0xbc3c21a7	-0.011482633
34	0xbd5c25bc	-0.053746924
35	0xbd361d50	-0.04446155
36	0xbd12ca2a	-0.03583733
37	0xbdd22a10	-0.10261929
38	0x3d5c3e87	0.05377057
39	0xbd4105f5	-0.04712482
40	0x3e09085b	0.13382094
41	0x3bfc00c0	0.007690519
42	0x3d44d348	0.048053056
43	0x3da83653	0.082134865
44	0xbdeb9244	-0.11502507
45	0x3d53827c	0.05163811
46	0x3cf3757c	0.029719107
47	0x3d21a21d	0.039461244
48	0x3a3272e8	0.00068072835
49	0x3c98c89e	0.01865035
50	0x3ceca7a9	0.02888854
51	0xbd4232e8	-0.04741183
52	0xbd72037b	-0.05908535
53	0xbb96ba8a	-0.004599874
54	0x3deb75af	0.11497056
55	0xbbb29b40	-0.005450636
56	0xbde425b5	-0.111400045
57	0xbc4b505f	-0.012409299
58	0xbcaf472f	-0.021396248
59	0x3d5c6325	0.05380549
60	0x3cdd24db	0.026995113
61	0x3c9a364f	0.018824724
62	0x3cb16a4f	0.021657137
63	0xbd3b5c34	-0.04574223

heads.0.heads.3.tril f4 [8, 8]
0	0x3f800000	1.0
1	0x00000000	0.0
2	0x00000000	0.0
3	0x00000000	0.0
4	0x00000000	0.0
5	0x00000000	0.0
6	0x00000000	0.0
7	0x00000000	0.0
8	0x3f800000	1.0
9	0x3f800000	1.0
10	0x00000000	0.0
11	0x00000000	0.0
12	0x00000000	0.0
13	0x00000000	0.0
14	0x00000000	0.0
15	0x00000000	0.0
16	0x3f800000	1.0
17	0x3f800000	1.0
18	0x3f800000	1.0
19	0x00000000	0.0
20	0x00000000	0.0
21	0x00000000	0.0
22	0x00000000	0.0
23	0x00000000	0.0
24	0x3f800000	1.0
25	0x3f800000	1.0
26	0x3f800000	1.0
27	0x3f800000	1.0
28	0x00000000	0.0
29	0x00000000	0.0
30	0x00000000	0.0
31	0x00000000	0.0
32	0x3f800000	1.0
33	0x3f800000	1.0
34	0x3f800000	1.0
35	0x3f800000	1.0
36	0x3f800000	1.0
37	0x00000000	0.0
38	0x00000000	0.0
39	0x00000000	0.0
40	0x3f800000	1.0
41	0x3f800000	1.0
42	0x3f800000	1.0
43	0x3f800000	1.0
44	0x3f800000	1.0
45	0x3f800000	1.0
46	0x00000000	0.0
47	0x00000000	0.0
48	0x3f800000	1.0
49	0x3f800000	1.0
50	0x3f800000	1.0
51	0x3f800000	1.0
52	0x3f800000	1.0
53	0x3f800000	1.0
54	0x3f800000	1.0
55	0x00000000	0.0
56	0x3f800000	1.0
57	0x3f800000	1.0
58	0x3f800000	1.0
59	0x3f800000	1.0
60	0x3f800000	1.0
61	0x3f800000	1.0
62	0x3f800000	1.0
63	0x3f800000	1.0

heads.0.heads.3.key.weight f4 [4, 16]
0	0x3e9402c7	0.2890837
1	0x3de5b11b	0.11215421
2	0x3d413c3f	0.047176596
3	0xbf0e9d42	-0.55708706
4	0x3c9c709b	0.019096663
5	0xbf37d3cb	-0.71807545
6	0x3e8d3f08	0.27587152
7	0xbcf17b75	-0.029477814
8	0xbead3683	-0.33830652
9	0x3e8048e3	0.25055608
10	0x3ef981ee	0.4873194
11	0x3e4c143c	0.19929594
12	0x3e832813	0.25616512
13	0xbe3912ce	-0.1807358
14	0xbedee86c	-0.435367
15	0x3d127749	0.03575829
16	0x3f066153	0.52492255
17	0xbdb1f96b	-0.08690151
18	0x3e8a4fa0	0.27013874
19	0xbeb02fa9	-0.34411362
20	0x3eda99ba	0.4269541
21	0xbeec9a53	-0.4621149
22	0x3d77d4c3	0.06050564
23	0x3e53b8d3	0.20675974
24	0xbef85756	-0.48504132
25	0xbd3808e1	-0.044930343
26	0x3f0b7834	0.5448029
27	0x3ed814f1	0.42203477
28	0xbeb0273a	-0.34404927
29	0xbe23cd55	-0.15996297
30	0xbeae0d5d	-0.3399457
31	0xbe9d0fae	-0.30676025
32	0x3ef6b438	0.4818437
33	0xbe6050aa	-0.21905771
34	0x3e78bfbb	0.2429189
35	0xbea1aeb3	-0.31578597
36	0x3edd31c4	0.4320203
37	0xbee0b929	-0.43891266
38	0x3dd73714	0.10508552
39	0x3e6c4c76	0.23076043
40	0xbecfcade	-0.40584463
41	0x3e27c2ce	0.16382906
42	0x3f0c5f62	0.5483304
43	0x3eb819e5	0.35957256
44	0xbe3a1652	-0.18172577
45	0xbea3cd3e	-0.31992525
46	0xbefbec5b	-0.49203762
47	0xbedabb0a	-0.42720824
48	0x3d1e42db	0.038637977
49	0x3e67f538	0.22652137
50	0x3d89d8b8	0.06730789
51	0xbf236fae	-0.63842285
52	0x3c2180f2	0.009857403
53	0xbf475257	-0.77860016
54	0xbd268d5e	-0.040662162
55	0xbeebb891	-0.4603925
56	0x3e6bcb66	0.23026809
57	0x3f4df44f	0.8045091
58	0x3ee040ff	0.43799588
59	0x3e9c5010	0.30529833
60	0x3db4544e	0.08805142
61	0xbeef9fff	-0.46801755
62	0xbeba9ef5	-0.364494
63	0x3e731005	0.2373658

heads.0.heads.3.query.weight f4 [4, 16]
0	0x3d6b935e	0.057513587
1	0x3ec38a03	0.38191232
2	0x3cb013eb	0.021493873
3	0x3db3cf31	0.08779753
4	0xbe9d2a19	-0.3069618
5	0xbcd95e08	-0.026534095
6	0xbe66a245	-0.22522838
7	0xbd77a3d2	-0.060458966
8	0xbd146cea	-0.03623668
9	0x3db5694f	0.08857977
10	0xbda67937	-0.08128589
11	0x3cd522f2	0.02601764
12	0x3e037f63	0.12841563
13	0x3d061820	0.03273785
14	0xbce7a851	-0.028278502
15	0x3c1b6e62	0.0094867665
16	0x3d761656	0.060079895
17	0x3e8f0a63	0.27937612
18	0x3cee7748	0.029109612
19	0x3e5969ef	0.21231817
20	0xbe8972b4	-0.26845324
21	0xbd090ef4	-0.033461526
22	0xbe81c7a4	-0.25347626
23	0xbd24ceaa	-0.040236153
24	0xbd60210c	-0.054719016
25	0xbe0c9694	-0.13729316
26	0xbe1652ba	-0.14679995
27	0x3d503f79	0.050841782
28	0x3e53d934	0.20688325
29	0x3ccd85c1	0.025088193
30	0x3d6a2a5a	0.057169296
31	0x3b6b4d1a	0.003590411
32	0x3ddcb015	0.107757725
33	0x3e9dc26d	0.30812398
34	0x3d9f68e6	0.0778368
35	0x3e5058a4	0.20346314
36	0xbe88846c	-0.2666353
37	0x3ca6b123	0.020348137
38	0xbe81bab8	-0.25337768
39	0xbde230fd	-0.110445
40	0xbde50ff0	-0.111846805
41	0xbda799aa	-0.08183606
42	0xbd4ea802	-0.050453193
43	0x3d5c85b8	0.05383846
44	0x3e179780	0.14803886
45	0x3c1eddf6	0.009696474
46	0x3d08f85d	0.033439983
47	0x3cad7565	0.021174142
48	0x3db2350c	0.08701524
49	0x3f222aba	0.63346446
50	0x3c90ce9c	0.017676644
51	0x3b45ba97	0.003017103
52	0xbde870e0	-0.11349654
53	0xbd4c8257	-0.04992899
54	0xbe7ee8b3	-0.24893455
55	0xbe23c914	-0.15994674
56	0xb9d24208	-0.00040103518
57	0x3d57209a	0.052521326
58	0xbd98d140	-0.07461786
59	0x3cbb6286	0.022874128
60	0x3dd87ea4	0.1057103
61	0x3d6e9ff4	0.058258012
62	0xbe203b5d	-0.15647645
63	0xbc59a536	-0.013284018

heads.0.heads.3.value.weight f4 [4, 16]
0	0x3c9b3e7e	0.018950697
1	0x3b993bf0	0.0046763346
2	0xbd232c69	-0.039837275
3	0x3cc7515a	0.024330784
4	0x3b2dafbc	0.002650245
5	0x3dd783e3	0.10523202
6	0x3cbb7b07	0.022885812
7	0x3c863110	0.016380817
8	0x3c91a48a	0.017778654
9	0xbbf8b695	-0.007590125
10	0xbc904c18	-0.01761441
11	0x3d191b1f	0.03737938
12	0xbc3dce2c	-0.0115848
13	0xbd702c22	-0.05863584
14	0xbd018dc0	-0.031629324
15	0x3aeb11e8	0.0017934414
16	0x3cbff4cd	0.02343216
17	0xbc0f143b	-0.008732851
18	0xbca13cae	-0.019682255
19	0x3dd076d0	0.10178912
20	0xbdc6a3b3	-0.09699192
21	0xbd0a02e2	-0.033694156
22	0x3d82d627	0.063885026
23	0x3c551dd7	0.013007603
24	0xbd834641	-0.06409884
25	0xbc0b8fd7	-0.008518181
26	0xbd94900e	-0.07254039
27	0xbd85200e	-0.065002546
28	0x3e1fe1d8	0.15613496
29	0xbd2b7d34	-0.04186745
30	0x3d88e60b	0.06684502
31	0x3bd01d86	0.0063511757
32	0x3d8a1dd3	0.0674397
33	0x3c735d76	0.014853826
34	0xbda1b06c	-0.07894978
35	0xbd3f4037	-0.0466921
36	0x3cca48b7	0.024692876
37	0xbd42fce5	-0.04760446
38	0x3d9cba80	0.076527596
39	0x3cbb02f1	0.022828551
40	0xbcaa8b37	-0.020818336
41	0x3d011502	0.031514175
42	0x3dfec0a7	0.12439089
43	0x3d3184ea	0.043339647
44	0xbd0edd11	-0.034878794
45	0xbcefb904	-0.029263027
46	0xbde0e077	-0.10980313
47	0xbc14697a	-0.009058351
48	0xbd0562f7	-0.032565083
49	0x3c0d9a7f	0.008642792
50	0xbc8c2f7b	-0.017112484
51	0xbd40b3cb	-0.047046464
52	0xbdbcf22a	-0.09225877
53	0x3c978c58	0.018499538
54	0x3d9ed284	0.077549964
55	0x3cea3a33	0.028592205
56	0xbc21c8e4	-0.009874556
57	0xbc89442c	-0.01675614
58	0xbc438cc9	-0.011935421
59	0x3d84e1bc	0.06488368
60	0xbcc51593	-0.024058139
61	0x3c80f8d7	0.015743656
62	0xbbb0d7ee	-0.0053968346
63	0xbc102c58	-0.008799635

heads.0.ffwds.net.0.weight f4 [64, 16]
0	0x3d907090	0.070527196
1	0x3dbd25ad	0.09235702
2	0x3dedc3fa	0.11609645
3	0xbd10ea08	-0.03537944
4	0x3bf4369a	0.007452798
5	0xbc842da9	-0.016135054
6	0xbd2a4fd7	-0.041580047
7	0x3a9104d7	0.0011064064
8	0x3bfd11ae	0.007723055
9	0xbca0566a	-0.019572455
10	0xbe47dccd	-0.19517823
11	0x3bf5688e	0.0074892705
12	0x3cbedb95	0.023298064
13	0xbe0bd885	-0.13656814
14	0xbbe9a8c2	-0.007130713
15	0x3e1f9c24	0.15586907
16	0x3d9b950c	0.07596788
17	0x3c1477b7	0.009061745
18	0x3d127f81	0.03576613
19	0xbe107788	-0.14108098
20	0x3d6cc91e	0.057808988
21	0xbd6140d1	-0.054993454
22	0x3d285a84	0.041101947
23	0x3d996e31	0.074917205
24	0x39d45a49	0.0004050306
25	0xbd47906e	-0.048721723
26	0x3d3bbffb	0.045837384
27	0x3e090c98	0.1338371
28	0x3a27e027	0.0006403946
29	0xbd69caa4	-0.05707802
30	0xbcd4a183	-0.025955921
31	0xbe09d737	-0.13461004
32	0xbdb5f1b6	-0.08883993
33	0xbd2230ab	-0.039597195
34	0xbdf11ef8	-0.11773485
35	0x3cb5ca79	0.022191273
36	0xbd42896e	-0.047494344
37	0x3c7f1ee8	0.0155713335
38	0xbdafdbbb	-0.08586832
39	0xbd8dd8b5	-0.06926099
40	0x3d617caf	0.05505055
41	0x3d879780	0.06620693
42	0x3d389e76	0.045072995
43	0xbdd44db1	-0.10366381
44	0xbd2b908b	-0.041885894
45	0xbdb5a802	-0.088699356
46	0x3cf35235	0.029702285
47	0x3e68bd3c	0.22728437
48	0x3d237914	0.03991039
49	0x3d20f128	0.039292485
50	0x3d04327f	0.03227472
51	0xbcda190a	-0.026623268
52	0xbe13d72d	-0.14437552
53	0xbbe58769	-0.0070046675
54	0x3e103d76	0.14085945
55	0xbd891a4c	-0.06694469
56	0x3e1a847d	0.15089603
57	0x3cd464fb	0.025927057
58	0xbe5d97b1	-0.21639897
59	0xbd9c8b8b	-0.07643803
60	0xbcb1ecb8	-0.021719322
61	0xbe07b1bf	-0.13251399
62	0x3d31eda0	0.043439507
63	0x3ccf943f	0.025339244
64	0xbd2deaea	-0.04246036
65	0x3b517e6b	0.003196622
66	0x3d4fc3b5	0.05072375
67	0xbcf3404b	-0.029693743
68	0x3c9972f5	0.018731574
69	0xbd40f995	-0.04711302
70	0x393885c8	0.00017597445
71	0xbce1b6a5	-0.027552912
72	0x3b96f93f	0.004607349
73	0xbd500caa	-0.050793327
74	0x3dd6a67c	0.10480973
75	0x3db998e9	0.090623684
76	0x3d665594	0.056233957
77	0xbc84abec	-0.01619526
78	0xbdd8b9e2	-0.10582329
79	0x3d01926a	0.031633772
80	0xbc67acc3	-0.014140311
81	0x3d52540c	0.051349685
82	0xbe2fa3f5	-0.17152388
83	0x3dd22e7c	0.102627724
84	0xbcc2a1a7	-0.023758722
85	0xbd9c2b71	-0.07625473
86	0x3e04c225	0.12964685
87	0xbdca6641	-0.09882785
88	0x3c2f5e28	0.010703601
89	0xbd230311	-0.039797846
90	0x3d727746	0.05919578
91	0xbd924027	-0.07141142
92	0x3dd09ff9	0.10186762
93	0xbdd4cad3	-0.10390248
94	0x3becbca9	0.0072246385
95	0x3dcaefe4	0.09909037
96	0xbe08a39c	-0.13343662
97	0x3d0d0173	0.03442521
98	0xbde0a29a	-0.10968514
99	0x3ca61ab5	0.020276407
100	0xbdb2c5d6	-0.087291405
101	0xbb5ce241	-0.0033704194
102	0x3d80b837	0.06285136
103	0x3caf3022	0.021385256
104	0x3d28132d	0.041033912
105	0xbe20f028	-0.15716612
106	0x3d8413ad	0.06449065
107	0x3dc3538c	0.0953742
108	0x3dab6883	0.083695434
109	0x3da009b4	0.07814351
110	0x3d55c36a	0.052188314
111	0xbd001bed	-0.031276632
112	0x3d3e032d	0.046389747
113	0xbca07866	-0.01958866
114	0xbe319f50	-0.17345929
115	0xbae7cec0	-0.0017685518
116	0xbd8d0ce0	-0.06887221
117	0x3ce15bd9	0.027509617
118	0xbdcb2c4f	-0.099205606
119	0xbd763ae9	-0.060114775
120	0xbdcb663b	-0.09931608
121	0x3d87f840	0.06639147
122	0xbe17f85c	-0.14840835
123	0x3bc6f658	0.006071847
124	0x3e15b745	0.14620693
125	0xbd73e120	-0.059540868
126	0x3e0da30f	0.13831733
127	0x3d0f63c3	0.03500725
128	0x3d37dd01	0.0448885
129	0xbd03293c	-0.032021746
130	0xbd427842	-0.047477968
131	0x3e04c41b	0.12965433
132	0x3d31d051	0.043411557
133	0x3e00c908	0.12576687
134	0xbdee23f0	-0.11627948
135	0xbe0aeb03	-0.13566212
136	0x3dc66397	0.09686964
137	0xbcf85c86	-0.030317556
138	0x3bed0f8d	0.00723452
139	0xbda62fbb	-0.081145726
140	0x3c37cf8d	0.011218918
141	0x3dabffaf	0.08398377
142	0x3b59f81f	0.0033259464
143	0xbc171cc0	-0.009223163
144	0xbd305c36	-0.04305669
145	0x3d0ce74f	0.03440028
146	0x3ca4d658	0.020121738
147	0xbbd2f2f5	-0.006437654
148	0xbcd794ee	-0.026316132
149	0xbd212fb9	-0.039352152
150	0xbc5a7bc4	-0.013335172
151	0xbd3065c7	-0.043065812
152	0x3e343014	0.17596465
153	0xbd458adc	-0.04822813
154	0x3d5e0655	0.054205257
155	0xbd4955e1	-0.049154166
156	0xbe24d935	-0.16098483
157	0x3d906418	0.07050341
158	0xbcc15b6d	-0.023603166
159	0x3db4dd6e	0.08831297
160	0xbdf01e4c	-0.11724529
161	0x3d45da99	0.048304174
162	0x3deeb629	0.11655838
163	0xbdebe49e	-0.11518215
164	0x3db398f8	0.08769411
165	0xbe021302	-0.12702563
166	0x3dc3fa19	0.09569187
167	0x3d0bb8ae	0.03411167
168	0xbd636fca	-0.055526532
169	0x3cb68694	0.022280969
170	0x3d0f0d32	0.034924693
171	0x3b200fdb	0.0024423513
172	0xbd5c70d4	-0.05381854
173	0xbd824832	-0.063614264
174	0x3d92292d	0.0713676
175	0x3d1e6c00	0.038677216
176	0xbdb6922a	-0.08914597
177	0x3d9677e2	0.073470846
178	0xbd528a31	-0.05140132
179	0x3d78242d	0.060581375
180	0x3dcb9e88	0.09942347
181	0x3c6ccefd	0.014453647
182	0x3da5ca10	0.08095181
183	0xbdffd265	-0.124913014
184	0x3dcee89c	0.101029605
185	0xbdcf8289	-0.101323195
186	0x3d0f407a	0.0349736
187	0xbdecacee	-0.11556421
188	0xbd995862	-0.07487561
189	0x3e25e739	0.16201486
190	0xbdbfa126	-0.093569085
191	0xbd4175eb	-0.047231596
192	0x3c11a096	0.008888384
193	0x3d241593	0.040059637
194	0xbca02032	-0.019546602
195	0x3cbfc437	0.023408992
196	0x3e4ceef8	0.20013034
197	0xbbe13159	-0.006872338
198	0xbcbd4448	-0.023103848
199	0xbe166ba4	-0.14689499
200	0x3db97331	0.09055174
201	0x3be7f119	0.0070783016
202	0x3d6a9f77	0.057280984
203	0xbd4ace37	-0.049513068
204	0x3b8df91d	0.004332675
205	0xbe6ecdd0	-0.23320699
206	0x3d994b72	0.07485093
207	0x3dd7d6ef	0.10539042
208	0xbb83c66b	-0.004021456
209	0x3d483fa8	0.048888832
210	0x3d2bd6f2	0.041953035
211	0xbd49b3c4	-0.049243703
212	0x3dbe89b1	0.09303606
213	0x3d7e443e	0.0620768
214	0xbe268204	-0.16260535
215	0x3a8cc00c	0.0010738387
216	0xbd38933a	-0.04506228
217	0xbbba0941	-0.0056773727
218	0xbcac10c5	-0.02100409
219	0xbdf0f8cd	-0.11766205
220	0x3d2bb9a0	0.041925073
221	0xbd72e2c8	-0.059298307
222	0xbd26a4ca	-0.0406845
223	0x3e673706	0.22579584
224	0x3c8e54a2	0.01737434
225	0xbda585ed	-0.08082185
226	0xbc834d07	-0.01602794
227	0x3dd98093	0.10620227
228	0x3c869d5a	0.016432453
229	0x3a89d9d6	0.0010517191
230	0xbd556dd6	-0.0521067
231	0x3dd513c4	0.104041606
232	0x3dc87071	0.097870715
233	0xbe4de340	-0.2010622
234	0xbd2c3bea	-0.042049326
235	0xbe04faf3	-0.12986355
236	0x3d4ddaf6	0.050257646
237	0x3d483c68	0.048885733
238	0x3dba2f81	0.09091092
239	0x3d345a58	0.04403147
240	0xbc2030ec	-0.009777289
241	0xbd2a72ae	-0.041613273
242	0xbda7edff	-0.08199691
243	0xbbbb2ec3	-0.0057123615
244	0x3d14a7ae	0.036292724
245	0x3dc48bc1	0.095969684
246	0x3d1583a0	0.03650248
247	0x3c62e349	0.013848134
248	0x3d9845e7	0.07435208
249	0xbd6409f8	-0.05567357
250	0xbcf1a295	-0.02949647
251	0xbda363f1	-0.07978047
252	0xbdf34253	-0.11877885
253	0x3d3b68ca	0.04575423
254	0xbcf4362d	-0.02981099
255	0xbc6a217f	-0.014290213

heads.0.ffwds.net.0.bias f4 [64]
0	0xbd065aff	-0.032801624
1	0xbe0861d1	-0.13318564
2	0x3c3a3628	0.011365451
3	0xbd160028	-0.036621243
4	0xbcff0c7d	-0.031133885
5	0xbe0a6cfb	-0.13518135
6	0xbb33289f	-0.0027337444
7	0xbda912ab	-0.08255514
8	0xbd995d82	-0.07488538
9	0xbdb1ea5b	-0.08687278
10	0xbd63b78a	-0.05559496
11	0xbccf1eba	-0.025283206
12	0xbe0252da	-0.12726918
13	0xbd2bfccd	-0.041989136
14	0xbd264dc0	-0.040601492
15	0xbda7d351	-0.08194602
16	0xbdaa764d	-0.08323345
17	0xbd2e31e1	-0.042528037
18	0xbdf36ab5	-0.11885587
19	0xbc62a19e	-0.013832478
20	0xbdbccbac	-0.09218535
21	0x3ce9c6dc	0.028537206
22	0xbc4015ec	-0.011723977
23	0x3c56b23e	0.01310402
24	0xbd5f46ba	-0.05451081
25	0xbcc1aa9f	-0.023640929
26	0xbd8de2ae	-0.06928001
27	0xbd9ed106	-0.07754712
28	0xbdfa3661	-0.12217403
29	0xbcfe3381	-0.031030418
30	0xbda172ef	-0.0788325
31	0xbcc4afc5	-0.024009595
32	0x3d2cd19f	0.042192098
33	0xbe021b27	-0.1270567
34	0xbd9a29ba	-0.0752749
35	0xbde535d1	-0.11191905
36	0xbd5b023c	-0.053468928
37	0x3c841040	0.01612103
38	0xbdf8b227	-0.12143355
39	0xbcc4569e	-0.023967084
40	0xbafa23b3	-0.0019084126
41	0xbd7d302e	-0.061813526
42	0xbdb2f9af	-0.087390296
43	0x3be7de76	0.00707608
44	0xbdd419ef	-0.10356509
45	0xbd746d4c	-0.059674546
46	0xbdd395b9	-0.10331292
47	0xbdd3e5f2	-0.10346593
48	0xbd3b270c	-0.045691535
49	0x3d26b4d9	0.040699814
50	0xbdd58627	-0.10425978
51	0xbd6789fb	-0.056528073
52	0xbd6956a9	-0.05696741
53	0xbd734ac5	-0.059397478
54	0xbd4c762e	-0.049917392
55	0xbcdc4d2c	-0.026892267
56	0xbd469423	-0.048481118
57	0xbd8d671d	-0.06904433
58	0xbbc3cbbb	-0.0059752143
59	0xbcc9383b	-0.024562946
60	0xbd96f145	-0.07370237
61	0xbe0f6488	-0.14003193
62	0xbdc5bc3e	-0.09655045
63	0xbd1e454c	-0.038640305

heads.0.ffwds.net.2.weight f4 [16, 64]
0	0x3b4052e0	0.0029346272
1	0xbdba8b66	-0.091086194
2	0xbdd0722d	-0.10178027
3	0x3dda59a6	0.1066163
4	0x3b9f4caf	0.0048614363
5	0xbdb8af8e	-0.090178594
6	0xbd889e95	-0.06670872
7	0xbda1b84e	-0.078964815
8	0xbde00958	-0.10939282
9	0xbca41b3f	-0.020032523
10	0xba8433e4	-0.0010086265
11	0x3dd4e8b7	0.10395949
12	0xbc6ed41c	-0.014576938
13	0x3cae8314	0.021302737
14	0x3d1285ee	0.035772257
15	0x3d5c28fb	0.05375002
16	0xbdaaf72e	-0.08347927
17	0x3d81b52e	0.063333854
18	0xbe14fac9	-0.14548792
19	0xbd76f9ed	-0.06029694
20	0xbcd9e4a7	-0.026598288
21	0x3d74e463	0.05978812
22	0x3be6805f	0.007034346
23	0x3d9d8a97	0.076924495
24	0xbd2ec5a4	-0.042668954
25	0x3e1bedec	0.15227479
26	0x3ddc6219	0.10760898
27	0xbe07b3db	-0.13252203
28	0xbdd1abfe	-0.10237883
29	0x3ccf811c	0.025330119
30	0xbdb5e541	-0.08881617
31	0xbdd0db71	-0.10198105
32	0xbd861b09	-0.06548125
33	0xbe13439a	-0.14381257
34	0x3d3eccf8	0.046582192
35	0x3d8cba27	0.06871443
36	0xbd78aa72	-0.060709424
37	0x3b8c7e24	0.004287498
38	0xbe83bf03	-0.25731668
39	0xbb0178ca	-0.0019755834
40	0xbce3d814	-0.027812995
41	0x3e56be0d	0.20970936
42	0x3c8d8a7f	0.017277954
43	0x3d7b0853	0.061287235
44	0x3d2b18af	0.041771587
45	0xbd2eb494	-0.04265268
46	0x3dd3a3b3	0.103339575
47	0x3da00587	0.07813554
48	0xbdbc4635	-0.091930784
49	0xbd8f0ea2	-0.06985213
50	0x3d8e85e2	0.0695913
51	0x3e0cf74d	0.13766213
52	0xbd903ef8	-0.0704326
53	0x3c524a55	0.012835105
54	0x3e01c435	0.12672503
55	0x3db17252	0.08664383
56	0x3d56af8f	0.05241352
57	0xbd35f201	-0.044420246
58	0x3c3edd45	0.011649434
59	0x3cd92367	0.026506139
60	0xbd95f138	-0.073213995
61	0xbe4362ba	-0.1908063
62	0xbd9c54dc	-0.07633373
63	0xbdde99da	-0.108691886
64	0xbe4c28c7	-0.1993743
65	0x3df33d44	0.1187692
66	0x3e56e4d1	0.20985724
67	0xbd3f1638	-0.04665205
68	0xbd8ad5d9	-0.067790695
69	0x3ccaa110	0.024735004
70	0x3c3583ad	0.011078757
71	0x3c4ac675	0.012376417
72	0x3e135f14	0.14391738
73	0xbd83f12f	-0.064424865
74	0x3dd0c01a	0.101928905
75	0xbd8001cb	-0.06250342
76	0x3e4510cc	0.19244689
77	0xbc8f2c35	-0.017477134
78	0xbe051e41	-0.12999822
79	0x3dd14a03	0.10219195
80	0xbc7059e3	-0.014669868
81	0xbe0a8e17	-0.13530765
82	0x3cbe03ea	0.023195226
83	0xbe174cea	-0.14775434
84	0x3b44a258	0.003000399
85	0xbe1083be	-0.14112756
86	0x3ccc8ea5	0.024970362
87	0xbe05c0fa	-0.13061896
88	0xbe0876e5	-0.13326605
89	0x3d9b8078	0.07592863
90	0xbd27cf98	-0.04096946
91	0x3d6b152b	0.057393234
92	0x3d0f839e	0.03503763
93	0xbba317b6	-0.004977192
94	0x3d7011a9	0.058610592
95	0x3ba67dc5	0.005080911
96	0xbd4e35a8	-0.05034414
97	0x3e17cdea	0.14824644
98	0xbe27f336	-0.16401371
99	0x3a7a7646	0.0009554367
100	0xbd0a665e	-0.03378903
101	0xbe0c4431	-0.13697888
102	0x3e6cf473	0.23140125
103	0x3dadf1bd	0.084933735
104	0xbe240de5	-0.16020925
105	0xbe08b57e	-0.13350484
106	0xbd222564	-0.03958644
107	0xbe5eb4dc	-0.2174868
108	0xbcf123e4	-0.02943606
109	0x3cac46c8	0.021029845
110	0x3d09066d	0.033453394
111	0xbe55af02	-0.20867541
112	0x3e000d69	0.12505116
113	0x3e53c301	0.20679857
114	0x3daa2864	0.08308485
115	0x3d19248c	0.03738837
116	0x3da160f6	0.07879822
117	0x3d0649de	0.03278529
118	0x3df8b5b2	0.12144031
119	0xbe0bc2b2	-0.13648489
120	0xbdeb5b3e	-0.114920124
121	0x3dc8f7ab	0.09812864
122	0x3de941a8	0.11389476
123	0xbe15b3f6	-0.14619431
124	0xbd5ffc7d	-0.05468415
125	0x3e67ccd8	0.22636735
126	0x3e3a8463	0.18214564
127	0x3d77beb8	0.060484618
128	0xbd4815e6	-0.04884901
129	0xbba5a4f7	-0.0050550657
130	0x3de56263	0.112004064
131	0xbcae0ac8	-0.021245375
132	0xbd2459b3	-0.040124606
133	0xbe09b85a	-0.13449231
134	0xbac40328	-0.0014954554
135	0x3dac01ac	0.083987564
136	0xbdc4e17a	-0.09613319
137	0x3ccc17e6	0.02491374
138	0x3d3be279	0.045870278
139	0x3d0423f5	0.032260854
140	0xbd5cfa53	-0.053949665
141	0xbce55a1c	-0.027997069
142	0x3e1d7f69	0.15380634
143	0x3c0e8ebc	0.008701023
144	0xbb8a122e	-0.004213593
145	0xbc3dc512	-0.01158263
146	0xbdbbd9a9	-0.09172375
147	0xbc9db624	-0.01925189
148	0x3c57beca	0.013168046
149	0xbe0377d9	-0.12838687
150	0x3e875d54	0.2643839
151	0xbcf0ea84	-0.0294087
152	0x3d7a0143	0.06103636
153	0x3dcb921b	0.09939977
154	0xbe3ccb6d	-0.18436976
155	0x3d474fd8	0.04866013
156	0xbe048e41	-0.1294489
157	0x3d41b7ba	0.047294356
158	0xbe0fad83	-0.14031033
159	0xbd4857a4	-0.048911706
160	0xbdd2fe23	-0.10302379
161	0x3d7df9f0	0.062005937
162	0xbdd0b995	-0.10191647
163	0x3d71e1a5	0.059053082
164	0xbcc0d752	-0.023540173
165	0xbcc8dd4f	-0.02451959
166	0x3e4d571e	0.20052764
167	0xbca496dc	-0.020091467
168	0x3d84aabe	0.06477879
169	0x3de42b15	0.1114103
170	0xbdb3da8b	-0.08781918
171	0xbca2e233	-0.01988325
172	0x3cefc8a6	0.029270481
173	0xbe74854f	-0.23878978
174	0xbd40b791	-0.047050063
175	0xbe0dac96	-0.13835368
176	0x3d4645ca	0.0484064
177	0x3ceba1e2	0.028763715
178	0xbdbf0796	-0.09327619
179	0x3dc00534	0.093759924
180	0xbdfba3d8	-0.1228711
181	0xbaf1cf83	-0.0018448684
182	0x3c3b9fa8	0.011451639
183	0x3bfa9ca3	0.007648067
184	0x3d5cc01a	0.05389414
185	0xbd9490cf	-0.072541825
186	0x3d43fc16	0.04784783
187	0x3c468e71	0.012118922
188	0x3d448ed4	0.047987774
189	0x3e2c69cc	0.16837233
190	0x3c7d4342	0.01545793
191	0xbcc9c9c7	-0.024632348
192	0x3bd211ad	0.0064107985
193	0xbc0ca663	-0.008584592
194	0xbcad9a5a	-0.021191765
195	0x3d369c8b	0.044582885
196	0x3d0fedc1	0.03513885
197	0x3dc53b00	0.09630394
198	0x3c2d701e	0.010585813
199	0x3d317aca	0.04332999
200	0x3c998f6f	0.018745152
201	0x3b9b90e9	0.0047474992
202	0xbe287453	-0.16450624
203	0xbd2de644	-0.042455927
204	0x3e073956	0.13205466
205	0x3d1a3784	0.0376506
206	0xbc9bedbd	-0.01903426
207	0xbbe99a93	-0.0071290224
208	0x3de8b72e	0.11363064
209	0x3d26ffc2	0.040771253
210	0xbd5386c3	-0.05164219
211	0xbc773732	-0.015088843
212	0x3ce00b21	0.027349057
213	0x3d88c32c	0.06677851
214	0xbe5d6a72	-0.21622637
215	0x3db78ae1	0.08962036
216	0x3ce4b0f9	0.027916418
217	0xbc03c9b4	-0.008043695
218	0x3c814467	0.015779687
219	0x3d3b6eff	0.04576015
220	0xbe01e6d8	-0.12685716
221	0xbce6a368	-0.02815409
222	0x3d8d6511	0.069040425
223	0x3c7dba07	0.015486247
224	0xbddb2bf3	-0.10701742
225	0xbe1a8a51	-0.15091826
226	0x3d67b16e	0.056565695
227	0x3da82878	0.08210844
228	0x3cc7a60a	0.024371166
229	0x3d510182	0.05102683
230	0xbd9936e2	-0.07481171
231	0x3c2d41a4	0.010574732
232	0xbdd13120	-0.10214448
233	0x3d9e2021	0.07720972
234	0x3d9d9e83	0.07696249
235	0xbbca2893	-0.0061693876
236	0xbd82d0f7	-0.06387513
237	0x3c5c0a8e	0.013430251
238	0x3d6b02b1	0.057375614
239	0x3e8d4c85	0.27597442
240	0xbd82fa33	-0.06395378
241	0xbdc4f41d	-0.096168734
242	0x3c184bcd	0.009295416
243	0x3da1cef6	0.07900803
244	0xbd3785f1	-0.04480547
245	0x3d88436a	0.06653483
246	0x3c64f537	0.013974479
247	0x3d0177c3	0.031608354
248	0xbdeb737e	-0.11496638
249	0x3de21a7b	0.11040207
250	0x3d4c2224	0.049837247
251	0xbd351f42	-0.044219263
252	0xbc41e782	-0.011834981
253	0xbd727a1e	-0.05919849
254	0xbd895d95	-0.067073025
255	0xbd31153b	-0.043233138
