gpt/models/model.pt (torch, 95909 bytes, 88 tensors)

token_embedding_table.weight f4 [65, 16]
00000000: d41d 293c de15 9e3d aa89 2bbd 35be 84bc
00000010: 001f 8f3d d952 1f3e 5c91 133e e5a0 68bd
00000020: 58e8 09be 267e 013e 6524 babc 4b37 b13a
00000030: 796c c43c 0932 62bd 22f0 833d 072d 8abe
00000040: 80db ffbc 486c 7bbd 55c1 9fbd 27c9 a2bc
00000050: 2cb7 043d ee57 c83d 1dc7 3f3e 225c b23d
00000060: aaab 183e 69ea 4e3c d336 183d 4baa 49bd
00000070: 279e 15be d9ad 133d 7a05 713d b35c c5bd
00000080: 3432 403d 0017 86bd c148 40bc 2b89 093e
00000090: 0dde e5bd 08bf 093d 61ae 84bd 9cbc d73d
000000a0: 66e8 3abe cdf3 883d 62de 37bd cd0f aebc
000000b0: ed91 b53d c6d7 99bd cfef 49bd e921 693c
000000c0: 07b5 d93b 8d8a 14bb c34e 3fba fec8 83bc
000000d0: f9f0 fabc 2442 8a3c fb62 493c 7828 9bbc
000000e0: 6ae9 48bc 8383 643c bb4d 293b 9148 4f3b
000000f0: b626 623b 4094 83bb 12ec a53b 9dd8 28bb
00000100: f941 0d3d a649 853b 8d73 01bd 3bae 62bc
00000110: 1aa7 823d b1b2 2f3c f1a6 4bbc 62df 073d
00000120: 4d88 153c 5b3e cb3c 3c1d 2f3c 39e9 b8bc
00000130: c2d7 58bc 1290 51bd c78e 97bc fada 853c
00000140: f094 bbbd f3ff 2dbd f2b9 b7bd 48b6 4d3d
00000150: 560c a83a 01ad 97bd 12fe fb3d e473 283d
00000160: 83c4 393d e773 473d c2d4 303c e8e5 ef3c
00000170: 774c 0b3e 4519 c7bd d897 1cbe 677e 21bd
00000180: 5c2e d03d c1f1 15be ce6c 21bc d220 eb3d
00000190: 248f e6bd 610b 933d 8b8b 9cbd 8f7c 243e
000001a0: 8c27 c0bd 74cc e33c 5b19 913c d767 9b3c
000001b0: a18c 5f3d 2fbb 48bd 057b 44bc 2e9a e23c
000001c0: 5833 ab3d 1064 03be 6358 adbd b28e 033d
000001d0: 409a 673d c18a 2bbc 53eb 413e 524d 923d
000001e0: 6765 9dbd a2c5 a1bd 6228 fe3d b1d9 76bd
000001f0: 0abb 94bd 3e01 573c 2e66 263e e58f 023d
00000200: 26d3 d73c b8f9 7fbd 3e34 4dbc cac7 253e
00000210: 45d3 15be 9119 f63c 0cd8 04bd a05b 893d
00000220: de9c 55be e739 b03d 8a3a 8abc 59e0 0ebd
00000230: 9d6a 893d 8ad6 c4bd adc8 133b 9663 643d
00000240: 3c81 923d 3921 49bc f412 3dbd 5b13 bd3c
00000250: 2009 e3bc b1f8 87bb 4cf1 95bd cbae 653c
00000260: ffc5 40bc 9be9 9a3d 42e0 a0bc 43f3 69bd
00000270: edb0 293d 9b4a 9939 5c01 8f3c 1f24 4fbc
00000280: 0d17 8c3d d3dd 34be b81f 35bd 2cbb 213e
00000290: 4aed eebd ace3 623c 2767 8bbb fcb1 d93d
000002a0: 1f84 28be d67f 203c 4570 df3c 6894 e93b
000002b0: 4243 983d 5452 243d 0bee b23c 88f9 63bc
000002c0: 8ec9 8d3d d05d 0abe d956 f7bc 58c5 ef3d
000002d0: e8fe eabd 1496 3a3d 30ae 5abd 4c79 0e3e
000002e0: ddf6 07be 85ed 7e3d 1c8d 91bc 5477 893c
000002f0: 69fe 523d d647 44bd 2490 36bd 51ac 883b
00000300: dd9a e23c 7e19 a0bd 2f7f 20bc bd68 173e
00000310: 575b 0fbe 90d4 a43c ef4a 78bd 4caf b13d
00000320: c79f 4fbe ecd8 ca3d 9d18 88bd 4b96 b5bc
00000330: e8e6 b73d 0cb5 c5bd 34c7 103b 155f 003d
00000340: d7c0 cc3d 01d8 a93d 72c7 11be 0d67 65bd
00000350: da03 073d cb6f 2fbe f82a 2b3d e8ff b3bd
00000360: cd0b 233d d8a6 523e 509a d2bc bef6 d73b
00000370: f1ee 8abd 84ce 3fbd 9733 c3bc 9720 6f3d
00000380: 6821 183e 1b45 cc3d 0f6e 743c d9f1 abbd
00000390: f0b5 763c 4afd 4dbd f47d 66bd 27e5 963b
000003a0: fbf9 fa3d 20c6 493d 7e61 d0bd 9e44 61be
000003b0: f6c9 95bd 8ed4 873c 6412 ab3d 47ad debd
000003c0: 183f 413e fb5e 5d3d b94f 4ebd 7128 343d
000003d0: 3772 a7bc d11e 30bd 9da9 bdbd 96c6 11be
000003e0: 8b29 ee3d 5fa7 12bd 8fb0 e53c 0b98 483b
000003f0: 6505 c7bd e19e a13c 6fec d33c 6a34 37be
0.010322053 0.077190146 -0.041879334 -0.016203979 0.06988335 0.15558948 0.14410919 -0.056794066
-0.13467538 0.12645778 -0.022722432 0.0013520507 0.023977505 -0.0552235 0.06442286 -0.26987478
-0.031232595 -0.061382562 -0.07800547 -0.019871308 0.03240125 0.09782396 0.187283 0.08708979
0.14909235 0.01262913 0.03716166 -0.04923467 -0.14611112 0.036054466 0.058843113 -0.096368216
0.046922877 -0.06547356 -0.011736096 0.13431232 -0.112239935 0.033629447 -0.06478573 0.10534021
-0.18252715 0.06687126 -0.044889815 -0.021247769 0.08865724 -0.07511859 -0.049300965 0.014229276
0.0066438946 -0.002266559 -0.0007297808 -0.016087051 -0.030632483 0.016877241 0.012291665 -0.018940195
-0.0122626815 0.01394737 0.0025833684 0.0031628946 0.0034507937 -0.0040154755 0.005063542 -0.0025763877
0.034486745 0.0040676175 -0.03160434 -0.013835485 0.06379528 0.010723756 -0.012429939 0.03317202
0.009126735 0.024810007 0.010688122 -0.022572147 -0.013235034 -0.051162787 -0.018500699 0.016339768
-0.09159267 -0.04248042 -0.08971013 0.050222665 0.0012821059 -0.07406045 0.123043194 0.041126147
0.045353424 0.048694517 0.010792913 0.029284433 0.13603388 -0.09721617 -0.15292299 -0.039427187
0.10165092 -0.14643003 -0.009852601 0.11480869 -0.11257771 0.07179905 -0.07643803 0.1606314
-0.09382543 0.027807452 0.017712286 0.018970413 0.054577474 -0.049006637 -0.011992221 0.02766141
0.083594024 -0.1283114 -0.08464124 0.032118507 0.05654359 -0.010470093 0.18937425 0.07143654
-0.076853566 -0.078990236 0.12410046 -0.0602662 -0.07262237 0.013122855 0.16249916 0.03187551
0.0263458 -0.06249401 -0.012524663 0.16189495 -0.14631374 0.030041488 -0.0324326 0.06706929
-0.20860621 0.08604794 -0.016873617 -0.034881923 0.06709788 -0.096112326 0.0022550032 0.055759035
0.07153556 -0.012275987 -0.046160653 0.023080518 -0.027714312 -0.0041495194 -0.07321414 0.014018725
-0.011765956 0.07564088 -0.019638184 -0.057116758 0.041428495 0.0002923802 0.017456703 -0.012642889
0.06840334 -0.17662744 -0.044219702 0.15794057 -0.11666353 0.0138482265 -0.00425424 0.10629651
-0.1645665 0.009796103 0.027275214 0.007128287 0.074347034 0.040117577 0.021842023 -0.013914473
0.06923209 -0.13512349 -0.03019278 0.11707562 -0.11474401 0.045553282 -0.053388774 0.13913459
-0.13277765 0.062238235 -0.017767482 0.016780533 0.051512156 -0.04792007 -0.044571057 0.0041709323
0.027661735 -0.07817362 -0.009795948 0.14786048 -0.13999687 0.020120889 -0.060618337 0.08676013
-0.20275794 0.09904656 -0.066453196 -0.022166392 0.08979589 -0.096536726 0.002209139 0.031340677
0.09997719 0.082931526 -0.14236239 -0.05600648 0.032962658 -0.1713249 0.041789025 -0.087890446
0.039806176 0.20571458 -0.025708348 0.0065906933 -0.06783856 -0.046827808 -0.02382831 0.05838069
0.14856493 0.09974118 0.014918818 -0.08395738 0.015058026 -0.050290383 -0.056272462 0.004604954
0.12254711 0.049261212 -0.10174845 -0.21998832 -0.073139116 0.016580846 0.08353117 -0.10872894
0.18871725 0.05404566 -0.050369 0.04398388 -0.020440204 -0.04299814 -0.09260867 -0.14235911
0.116290174 -0.03580415 0.028038291 0.0030608203 -0.09717826 0.01972908 0.025869576 -0.17891088

positional_embedding_table.weight f4 [8, 16]
00000000: 7323 d23d 8b7a 3f3d ac49 45bc 7ca4 3ebe
00000010: d356 26be 0e64 e0bb bb9f 2c3d 9cd4 923d
00000020: a6d3 a9bb aa97 6dbb 8c73 f43d 3cf4 8d3d
00000030: b29f 913d bf93 a43c d056 8dbd fe4a 08bd
00000040: 330d c53d 7b99 303d a7d3 bb3b 11d6 06be
00000050: 730c bfbd 2360 09bc b672 f43c eacb 8a3d
00000060: c5f0 823c c027 b0bc cf14 d63d 7c5f a33d
00000070: f2d0 353d d8e5 ce3c 0544 83bd 34e3 60bc
00000080: bff5 8e3d 7b8a fe3b 5e7f 833c be69 bbbd
00000090: 0dad 6bbd 803e d0bc c443 723b dbb3 f33c
000000a0: bc7c 2d3c 2640 2bbd 9cff b83d 0852 663d
000000b0: 90b9 a43c 1863 483c 5999 85bd 7b72 f4bc
000000c0: 1df7 3b3d 61e8 373a 0a09 d93c 816f 31bd
000000d0: a958 85bc 82b1 5bbd 31f9 5dbc 6a30 d83c
000000e0: 45e4 8d3c 6246 44bd 1027 9f3d 9d12 4e3d
000000f0: edc9 a93b 4240 8c3b 94bd a3bd 8694 08bd
00000100: a99f f93c 0ef9 91bc d98f 253d 042c 703a
00000110: d8e1 9b3c 58ea 99bd 6f6e 90bc 0425 0d3d
00000120: 7bd5 e93c b56b 45bd f9c5 833d 5467 183d
00000130: 98d5 47bc c63a f6bb 8453 b1bd 890b 1ebd
00000140: 8072 533b 432a 20bd e370 803d 0a46 463d
00000150: adb7 313d 3c80 d4bd 6550 1abd d49d e43c
00000160: ea08 013d 5845 36bd a24b 613d 1259 cd3b
00000170: 9a4b 29bd 8e1a ffbc f488 99bd 0666 5bbd
00000180: 49c5 13bd cb37 30bd 6d15 d83d f68d f23d
00000190: 2cc7 a93d 21c6 e9bd 7031 07bd f7b0 813c
000001a0: ab6c 5c3c 46f0 a1bc 058a 663d 681e 81bc
000001b0: d4fb 62bd 09e0 f4bc 46c1 42bd d616 44bd
000001c0: 2077 9cbd b964 1ebd a807 a43d 1b5e 713e
000001d0: 0068 0d3e 9c5d d23b a735 aebd 38e3 9cbd
000001e0: be87 a53d 0e37 8cbd 10bb 14be 3a95 6a3a
000001f0: 73ca 99bd 6f7b ccbd d1c0 f1bd 08d7 1d3c
0.10260668 0.046747725 -0.0120414905 -0.18617433 -0.16244058 -0.006847865 0.04214452 0.07169458
-0.005182701 -0.003625373 0.11936101 0.0693135 0.071105376 0.020089982 -0.06901324 -0.033274643
0.09621658 0.04311512 0.005732018 -0.13167597 -0.093285464 -0.008384737 0.029839855 0.06777175
0.015983948 -0.02150333 0.10453188 0.079771966 0.04438872 0.025256082 -0.06409458 -0.013726044
0.06980466 0.007767973 0.016051944 -0.09151028 -0.05753808 -0.025420427 0.003696666 0.029748848
0.010588821 -0.041809224 0.090331286 0.056230575 0.020108014 0.012230657 -0.06523389 -0.029839745
0.045889962 0.0007015523 0.026493568 -0.04331923 -0.016277628 -0.05363608 -0.013548181 0.026390273
0.017320761 -0.047918685 0.077711225 0.05031072 0.005181542 0.004280121 -0.079951435 -0.033344768
0.03047164 -0.017818954 0.040420387 0.0009161832 0.01902859 -0.07515401 -0.017630784 0.03445913
0.028544178 -0.04819842 0.06434245 0.037207916 -0.012196921 -0.0075143306 -0.086585075 -0.03858522
0.0032264292 -0.039102804 0.062715314 0.04840664 0.043388058 -0.10376021 -0.037674326 0.02790729
0.03150264 -0.044499725 0.05500377 0.0062667215 -0.041331865 -0.031140592 -0.07496825 -0.053564094
-0.036076818 -0.04302196 0.10550962 0.11843483 0.08289942 -0.11414743 -0.03300613 0.015831454
0.013453643 -0.019767892 0.05628397 -0.01576157 -0.055415943 -0.029891985 -0.0475476 -0.04787334
-0.07639909 -0.038670275 0.08009273 0.23571055 0.13809204 0.0064198505 -0.08506327 -0.07660526
0.080825314 -0.06846438 -0.14524484 0.0008948628 -0.07509317 -0.099844806 -0.11804355 0.009633787

heads.0.heads.0.tril f4 [8, 8]
00000000: 0000 803f 0000 0000 0000 0000 0000 0000
00000010: 0000 0000 0000 0000 0000 0000 0000 0000
00000020: 0000 803f 0000 803f 0000 0000 0000 0000
00000030: 0000 0000 0000 0000 0000 0000 0000 0000
00000040: 0000 803f 0000 803f 0000 803f 0000 0000
00000050: 0000 0000 0000 0000 0000 0000 0000 0000
00000060: 0000 803f 0000 803f 0000 803f 0000 803f
00000070: 0000 0000 0000 0000 0000 0000 0000 0000
00000080: 0000 803f 0000 803f 0000 803f 0000 803f
00000090: 0000 803f 0000 0000 0000 0000 0000 0000
000000a0: 0000 803f 0000 803f 0000 803f 0000 803f
000000b0: 0000 803f 0000 803f 0000 0000 0000 0000
000000c0: 0000 803f 0000 803f 0000 803f 0000 803f
000000d0: 0000 803f 0000 803f 0000 803f 0000 0000
000000e0: 0000 803f 0000 803f 0000 803f 0000 803f
000000f0: 0000 803f 0000 803f 0000 803f 0000 803f
1.0 0.0 0.0 0.0 0.0 0.0 0.0 0.0
1.0 1.0 0.0 0.0 0.0 0.0 0.0 0.0
1.0 1.0 1.0 0.0 0.0 0.0 0.0 0.0
1.0 1.0 1.0 1.0 0.0 0.0 0.0 0.0
1.0 1.0 1.0 1.0 1.0 0.0 0.0 0.0
1.0 1.0 1.0 1.0 1.0 1.0 0.0 0.0
1.0 1.0 1.0 1.0 1.0 1.0 1.0 0.0
1.0 1.0 1.0 1.0 1.0 1.0 1.0 1.0

heads.0.heads.0.key.weight f4 [4, 16]
00000000: 2f2e 0e3f 218f d13c 1ab9 053b 101c 85bf
00000010: 51f2 45bd 40e1 883e 67a1 583e 86c9 4d3e
00000020: 11f9 ae3e 677c 2dbc 637d 8b3f 777a b83e
00000030: 53de 02bf b9e2 10bf 4b4a 31be af81 1ebf
00000040: f505 eb3e 4742 da3d d824 463e 722b 62bf
00000050: 27ab cc3e 246f 1ebe 57db f03c ab07 9c3c
00000060: bbba 113f f6ae f03d feae 863f 3041 c13e
00000070: a802 56bf 6292 55bf 52c2 b639 c8ef 26bf
00000080: c974 85bd 323e 11be e9f5 0a3f 4bce bbbd
00000090: 8a8d 213f 1790 0bbf d38a a73d d4a0 3a3e
000000a0: c50b b63e c3c5 95bd 6385 203f 3d62 ff3d
000000b0: 12e5 98be 3ce3 13bf 6dd3 b2bd 3965 36bf
000000c0: 2f35 15bb dccb a43e 53d0 333f 0ec2 e8be
000000d0: 151a d9bc 5657 ecbe f1ac 8ebe b846 be3e
000000e0: f24a 0e3e c647 b7be 5023 c53e 5b59 0a3f
000000f0: 3998 593d 243c d9be e784 b23c 2abd 82be
0.5553922 0.025580944 0.0020404519 -1.0399189 -0.048326794 0.26734352 0.2115532 0.20096406
0.34174398 -0.010588742 1.089764 0.36030933 -0.5112049 -0.5659595 -0.17313497 -0.6191663
0.45902982 0.10657173 0.19349992 -0.8834754 0.3997433 -0.15472084 0.029401464 0.019046625
0.56925553 0.11752121 1.0522153 0.37745047 -0.83597803 -0.8342649 0.00034858525 -0.6520963
-0.065164156 -0.14183882 0.5428148 -0.09170207 0.63106596 -0.5451674 0.081807755 0.18225414
0.35555854 -0.07313111 0.6270353 0.12469909 -0.29862267 -0.5776861 -0.087317325 -0.71248204
-0.0022767296 0.32186782 0.7023975 -0.45460552 -0.026501695 -0.46160382 -0.2786632 0.3716333
0.13895777 -0.35796946 0.38503504 0.54042596 0.053123686 -0.42428696 0.021791888 -0.25534946

heads.0.heads.0.query.weight f4 [4, 16]
00000000: f0eb 243e 6c99 a23d 3e5f 76bd 3e34 9ebe
00000010: 0608 0fbf 8575 cd3d 135b e03d 029b b53d
00000020: e591 30be 0591 a3bd cc7a d33d a7a0 063e
00000030: 824e 863e 93ef 263e 97b4 0fbe 72cf 09bd
00000040: 2a1e ee3d 77cb aabc ea8d 2e3d d0e7 8cbe
00000050: be45 14bf 5a6f 5f3d 9373 d43d 4522 fb3d
00000060: d75a 80bd 8de3 9ebd 1ddd de3c a8fd be3d
00000070: 75d4 9a3e 3e45 253e 7bc9 d4bd 1272 fe3c
00000080: 6014 773d 577c 26be 43e8 b33d e9f8 84bd
00000090: df2f 2ebf 296d 5a3d cd4c b23b 3288 553e
000000a0: 62d7 15be 5421 1dbe 6b3e 03be 4118 dc3d
000000b0: 99e6 963e 5749 483e 6def cdbd 38c5 2e3e
000000c0: 67b3 813e 1c7f 3dbe 23fc 42be 82a5 29be
000000d0: 7613 ffbe b9b4 8a3d a511 a83d 7b74 e33d
000000e0: f95a 2bbe 5e9b c23d 72b5 bebd 3cfe 653c
000000f0: a619 973e 7142 5e3d 185c f63c 666e 263e
0.16105628 0.07939419 -0.060149424 -0.30899233 -0.5587162 0.10032181 0.10954871 0.08867456
-0.17243154 -0.07986645 0.10326156 0.13147222 0.26231772 0.16302328 -0.14033733 -0.0336451
0.11626847 -0.020848973 0.04261581 -0.2752061 -0.5791892 0.054549553 0.103736065 0.12262396
-0.06267326 -0.077582456 0.027205044 0.09325725 0.30240217 0.16139695 -0.10389992 0.031060252
0.060322165 -0.1625837 0.08784535 -0.06492788 -0.68041795 0.05332676 0.0054412843 0.20852736
-0.14632943 -0.15344745 -0.1281678 0.107468136 0.29472807 0.19559227 -0.100554325 0.1706742
0.25332186 -0.1850552 -0.19041495 -0.16567042 -0.49819535 0.06772751 0.082064904 0.11106201
-0.16733922 0.0950229 -0.09311952 0.014037665 0.29511756 0.054262582 0.03007321 0.16253051

heads.0.heads.0.value.weight f4 [4, 16]
00000000: 9a55 a93c 1962 9a3d f5a6 d53c 1974 24bd
00000010: 1298 053d 3be6 2dbd 0e76 b8bd 08fb c0bc
00000020: e867 7dbc 1c7c 973d 9427 203d 5591 8d3c
00000030: 83ed 713d 170a 0dbe 8074 10bd 56fd 37bd
00000040: 3f81 943b 4445 843d 8d55 553d a212 46bd
00000050: eba6 3c3d edfa e3bd 4605 a3bc 54cd 3e3c
00000060: 6c60 2fbd d6d0 f03b d5ba 553c cf8e 633d
00000070: 7496 8dbc 2934 b3bc ff70 af3c eaff 033d
00000080: 7b7a 7d3c bfcf d73c c1ea 7bbd dd1a a03c
00000090: d2f6 633d 6621 983d 08d3 87bd 6405 8c3b
000000a0: 6edb 82bd d57c d6bc 9ca8 fabd ebd4 c33d
000000b0: 53ef d93d 933b a0bd 8685 49bd a1c4 f93d
000000c0: 2308 df3c 2c5c babd f627 38bd 0124 a93c
000000d0: ba9f 8dbd 5c26 2dbc 1ca6 a43d 9fd5 9ab8
000000e0: 40c8 8d3d 3593 123e 56aa fe3c 272a 0fbd
000000f0: e867 efbc 543c 16bd 75bb 5b3c 9ac4 57bc
0.0206707 0.07538242 0.026080588 -0.04014978 0.03261573 -0.042455893 -0.09006892 -0.023557201
-0.015466668 0.07396719 0.039100245 0.017281214 0.0590644 -0.1377338 -0.035267353 -0.044919334
0.004532009 0.06458524 0.05208354 -0.048357613 0.046057623 -0.11131845 -0.019899976 0.011645634
-0.042816564 0.007349114 0.0130450325 0.055556115 -0.017283656 -0.021875458 0.021416185 0.03222648
0.015471096 0.026344178 -0.061503176 0.01954406 0.055655308 0.07428245 -0.06632048 0.0042731036
-0.06389509 -0.026182571 -0.12239191 0.09562095 0.106413506 -0.07823863 -0.049199603 0.12195707
0.02722556 -0.09099612 -0.044959985 0.02064705 -0.06915231 -0.010568228 0.08039495 -7.383082e-05
0.0692296 0.14313968 0.031087082 -0.03495231 -0.029224351 -0.036678627 0.013411392 -0.013169432

heads.0.heads.1.tril f4 [8, 8]
00000000: 0000 803f 0000 0000 0000 0000 0000 0000
00000010: 0000 0000 0000 0000 0000 0000 0000 0000
00000020: 0000 803f 0000 803f 0000 0000 0000 0000
00000030: 0000 0000 0000 0000 0000 0000 0000 0000
00000040: 0000 803f 0000 803f 0000 803f 0000 0000
00000050: 0000 0000 0000 0000 0000 0000 0000 0000
00000060: 0000 803f 0000 803f 0000 803f 0000 803f
00000070: 0000 0000 0000 0000 0000 0000 0000 0000
00000080: 0000 803f 0000 803f 0000 803f 0000 803f
00000090: 0000 803f 0000 0000 0000 0000 0000 0000
000000a0: 0000 803f 0000 803f 0000 803f 0000 803f
000000b0: 0000 803f 0000 803f 0000 0000 0000 0000
000000c0: 0000 803f 0000 803f 0000 803f 0000 803f
000000d0: 0000 803f 0000 803f 0000 803f 0000 0000
000000e0: 0000 803f 0000 803f 0000 803f 0000 803f
000000f0: 0000 803f 0000 803f 0000 803f 0000 803f
1.0 0.0 0.0 0.0 0.0 0.0 0.0 0.0
1.0 1.0 0.0 0.0 0.0 0.0 0.0 0.0
1.0 1.0 1.0 0.0 0.0 0.0 0.0 0.0
1.0 1.0 1.0 1.0 0.0 0.0 0.0 0.0
1.0 1.0 1.0 1.0 1.0 0.0 0.0 0.0
1.0 1.0 1.0 1.0 1.0 1.0 0.0 0.0
1.0 1.0 1.0 1.0 1.0 1.0 1.0 0.0
1.0 1.0 1.0 1.0 1.0 1.0 1.0 1.0

heads.0.heads.1.key.weight f4 [4, 16]
00000000: 1144 1e3e 6a56 41be 5682 e03e 4986 34bd
00000010: 176f 03bf 65ed d4be efdf 43be d9b3 143f
00000020: f032 04be 6526 48bf e28e 943e fc7d d43e
00000030: 831f f73e 1e76 213e b091 0cbf ff7a ddbc
00000040: 0bdb 713e 3d95 bbbd 2831 003f 5e5f 28be
00000050: d89f 0abf 1683 4bbe b86f 4bbd ee58 0b3f
00000060: c49e fabd b55a 43bf bb13 de3e fc4c c13e
00000070: d67d d23e 76d6 133e 411d 06bf 7aa9 5abe
00000080: a0b0 263e 0bc8 febd 3d37 073f 4366 093d
00000090: d6e2 30be 5761 d5be a557 34be 1088 eb3e
000000a0: 0c78 2dbe 7c58 1dbf 80d8 933e b3ab e73e
000000b0: 478c b93e 070b cdbd d8be bbbe 1b53 17be
000000c0: 7957 2abd 8cc6 2d3e b786 41be 532c f1be
000000d0: df56 683e f48d b03e f379 2b3f 7edc 3ebe
000000e0: 8586 873e 4112 6a3e ff36 6ebd e3ea bdbb
000000f0: 3b50 cebe 9e41 123e 8998 323b c36a 58be
0.15455653 -0.1888062 0.43849438 -0.044073377 -0.51341385 -0.41587368 -0.19128393 0.58086926
-0.12910056 -0.78183585 0.2901526 0.41502368 0.4826623 0.15767714 -0.549098 -0.027036188
0.23618715 -0.09159324 0.50075006 -0.1644263 -0.5415015 -0.19874224 -0.04966709 0.5443257
-0.122373134 -0.7631028 0.43374428 0.37754047 0.4111163 0.14437279 -0.5238839 -0.21353713
0.16278315 -0.12440499 0.5281866 0.03354479 -0.17274031 -0.41675827 -0.17611559 0.46002245
-0.16940325 -0.6146314 0.28876114 0.45248184 0.36239836 -0.10011869 -0.3666904 -0.14777796
-0.041587327 0.16970271 -0.18899046 -0.4710413 0.22689389 0.34483302 0.66982955 -0.18638799
0.26469818 0.22858526 -0.058157917 -0.005795823 -0.40295586 0.14282843 0.0027251563 -0.21134476

heads.0.heads.1.query.weight f4 [4, 16]
00000000: 94aa 733e 29c5 203e 5a24 91be e501 edbe
00000010: df13 8abe 362b e13d ff6d c23c f1ca 863c
00000020: ccd1 45bb bf8e 2f3e b523 d83c 4e61 673d
00000030: a62f eb3c 9574 593d 4459 523d 3f69 80bc
00000040: ef52 333e a476 283e 93ae 6fbe 43e0 0cbf
00000050: b3f8 98be dd07 a53d 627d ba3d 96f4 1e3d
00000060: 79fb 01bd 3753 f33d a7aa 9f3d 823c cc3d
00000070: 0041 813d 6fc1 8d3d ba97 a23b a15f 0f3c
00000080: 6b9b 163e c99e cc3d be29 86be 2e75 04bf
00000090: a8b7 80be 08e1 e13d f16d ca3d cfd4 fbbc
000000a0: c807 963d 8fd2 333e 6295 303d f61b 9dbc
000000b0: 69f1 113a 16f1 b33c 5a97 2b3d 8820 263d
000000c0: a921 bcbe d3a7 e2bd 6b6d a73e c0ba 983e
000000d0: 3a10 9c3d 7eb6 eb3d 7acc 4d3e 770d 5c3e
000000e0: 1a16 80be 675b a9be 520a ec3d 22ee c03d
000000f0: 268f 863d 4392 8bbd f8df e0bd 7108 68be
0.23795539 0.1570021 -0.28348047 -0.46290508 -0.26968285 0.1099457 0.02373409 0.016454192
-0.0030184863 0.17144297 0.026384214 0.05648928 0.028709244 0.053089697 0.05135466 -0.015675185
0.17512105 0.16451508 -0.23406439 -0.55029696 -0.29877242 0.080581404 0.09105946 0.038807474
-0.031733964 0.11881106 0.07796221 0.099724784 0.06311226 0.0692166 0.004961935 0.008750827
0.14707725 0.09991223 -0.26203722 -0.517413 -0.2514012 0.110292494 0.09884251 -0.030741123
0.07325703 0.1756079 0.043111213 -0.019178372 0.0005567284 0.021965545 0.041892387 0.040558368
-0.3674443 -0.11067166 0.32700667 0.2982998 0.076202825 0.11509417 0.20097533 0.21489511
-0.25016862 -0.33077547 0.11525406 0.0942042 0.06570272 -0.068150066 -0.10980219 -0.2265947

heads.0.heads.1.value.weight f4 [4, 16]
00000000: a737 8f3d f0c5 59bd f88e 33bd 7add 8c3c
00000010: 76dd 093d 9621 823d d442 473d 3020 e5bb
00000020: 1b13 0b3d d5d5 ceba 6154 94bc c776 ddbc
00000030: 67f0 b6bd 09b8 693d ee2e 9abc 641c 8fbc
00000040: 6670 123d 9a98 303d cb44 42bd 1321 a03c
00000050: 096c 95bb 4f9b c43d decf 053d 36a8 263c
00000060: 9ef8 87bd d770 ac3d 2217 1dbc 84db bcbc
00000070: 9388 1bbd a48a d3bd 68ed b1bd 6e2c 563d
00000080: 9906 eebc b112 0b3d 6303 98bd 4775 2bbc
00000090: 56b6 453d 0018 9a3d 8ad9 4f3c ffa4 f0bc
000000a0: 7cc9 513d 0788 743d d0ed fdbd 80b5 d3bc
000000b0: f128 a9bd 3b93 7bbd 92c4 833c 4639 483d
000000c0: bf67 58bc 5f5a 833d bf23 cebc c2e2 a0bc
000000d0: ab2e de3c bde7 ed3c d91b c83d 239b 8dbd
000000e0: 729e 803d 644e 233b 72b1 39bc 9e14 83bd
000000f0: f80b 89bc 679b 553d 506f ac3b 7fbe 9abd
0.06993037 -0.053167284 -0.043837517 0.017195452 0.033658467 0.06354062 0.048647717 -0.0069923624
0.033953767 -0.001578028 -0.018106641 -0.027034177 -0.08932572 0.057060275 -0.018821206 -0.017469592
0.035751723 0.043114282 -0.047428887 0.019547021 -0.004559998 0.09599935 0.03266894 0.010171941
-0.06639217 0.0841996 -0.009588035 -0.023053892 -0.037972044 -0.10329178 -0.0868786 0.052288465
-0.02905588 0.033953372 -0.07422521 -0.010464973 0.048269592 0.07524109 0.012686143 -0.029375551
0.05121754 0.05970004 -0.12398875 -0.025843382 -0.08259762 -0.061419707 0.016084943 0.048882745
-0.013208329 0.06413721 -0.02516353 -0.019639377 0.027121862 0.029041165 0.097709365 -0.069143556
0.06280221 0.002491855 -0.01133381 -0.06400417 -0.01672934 0.052150156 0.005262293 -0.075558655

heads.0.heads.2.tril f4 [8, 8]
00000000: 0000 803f 0000 0000 0000 0000 0000 0000
00000010: 0000 0000 0000 0000 0000 0000 0000 0000
00000020: 0000 803f 0000 803f 0000 0000 0000 0000
00000030: 0000 0000 0000 0000 0000 0000 0000 0000
00000040: 0000 803f 0000 803f 0000 803f 0000 0000
00000050: 0000 0000 0000 0000 0000 0000 0000 0000
00000060: 0000 803f 0000 803f 0000 803f 0000 803f
00000070: 0000 0000 0000 0000 0000 0000 0000 0000
00000080: 0000 803f 0000 803f 0000 803f 0000 803f
00000090: 0000 803f 0000 0000 0000 0000 0000 0000
000000a0: 0000 803f 0000 803f 0000 803f 0000 803f
000000b0: 0000 803f 0000 803f 0000 0000 0000 0000
000000c0: 0000 803f 0000 803f 0000 803f 0000 803f
000000d0: 0000 803f 0000 803f 0000 803f 0000 0000
000000e0: 0000 803f 0000 803f 0000 803f 0000 803f
000000f0: 0000 803f 0000 803f 0000 803f 0000 803f
1.0 0.0 0.0 0.0 0.0 0.0 0.0 0.0
1.0 1.0 0.0 0.0 0.0 0.0 0.0 0.0
1.0 1.0 1.0 0.0 0.0 0.0 0.0 0.0
1.0 1.0 1.0 1.0 0.0 0.0 0.0 0.0
1.0 1.0 1.0 1.0 1.0 0.0 0.0 0.0
1.0 1.0 1.0 1.0 1.0 1.0 0.0 0.0
1.0 1.0 1.0 1.0 1.0 1.0 1.0 0.0
1.0 1.0 1.0 1.0 1.0 1.0 1.0 1.0

heads.0.heads.2.key.weight f4 [4, 16]
00000000: e1b6 f7be 8324 34bf 44e2 1b3e 19ac 5abf
00000010: 3879 83be 6e4b 4dbe b93f 9a3e 6ab0 b73d
00000020: d17e 303f 9be3 9dbe 3f67 923e 01c5 583e
00000030: c132 d13e 492a 3cbe aa4a 133d 408a 1e3f
00000040: b16f 89be f62c 0ebf dedc e13e 4ceb f6be
00000050: d519 743e 18b8 aabe 4ccf f93e a457 7f3e
00000060: a33c 963e 40ab b6bb 4e87 283f 2b31 a93e
00000070: 2712 113d 4068 86be 5ed4 7dbe 8d5b 82be
00000080: f073 bd3e d13f fcbe 7acf 283f 5398 f9bd
00000090: 8f7f 28be 29be 12bf 976c ddbd 9021 133f
000000a0: 4b1e 99bd 4cc4 1fbe 84af 323f 1234 753e
000000b0: 42da c0bc 4f0e 52be 7907 05bf 50b4 62bb
000000c0: 2085 62be a68c f33e c91b 13bf 89aa 863e
000000d0: e7c4 a9be c990 ee3e cf03 62be ccab 43be
000000e0: 6118 d9bd c037 e73b e59b 1dbf 4cc2 cbbe
000000f0: 8025 083d dd41 ab3e 7bcb 043f f877 2f3e
-0.48381713 -0.7036821 0.15223032 -0.8541885 -0.2567842 -0.20048305 0.30126742 0.08969195
0.68943506 -0.30837712 0.28594396 0.21168901 0.40859035 -0.18375506 0.035959877 0.619297
-0.26843026 -0.55537355 0.4411382 -0.48226392 0.23837979 -0.33343577 0.48790967 0.24935776
0.29343137 -0.005574614 0.6583146 0.33045325 0.035417702 -0.2625141 -0.24788043 -0.25460473
0.37002516 -0.49267438 0.65941584 -0.12187257 -0.1645491 -0.5732141 -0.108117275 0.5747309
-0.07476481 -0.15602225 0.69799066 0.23945644 -0.023541573 -0.20513271 -0.5196453 -0.0034592338
-0.22121096 0.47568244 -0.5746427 0.26301983 -0.33158037 0.46594837 -0.22071765 -0.19108504
-0.10600353 0.0070562065 -0.61566 -0.39796674 0.033238888 0.33448687 0.51872987 0.17135608

heads.0.heads.2.query.weight f4 [4, 16]
00000000: 89e2 703e 2ba0 fc3d 18cd 3bbe 2bce fabe
00000010: 932f 8bbe 630a 443d 9d8f 823d d65a f63d
00000020: bad5 92bc 685f eb3d 29a7 e03d c838 ae3d
00000030: 6eb9 133e c3c6 fe3c d036 3bbd 66da 66bd
00000040: 5832 833e dab9 813e dca0 3dbd 5afb 20be
00000050: c9d5 94be cb16 e33c 30ad 46bd bd91 ea3c
00000060: d43b 53be d180 43bc a35e 653d 9f16 4b3e
00000070: e2a1 193c 0836 793e a5f8 843a e44b 22be
00000080: 7047 613e 0fab 973e 6deb e0bd 70c0 a8bd
00000090: 389c 70be 39d9 553e e8c9 07bd 8192 1ebe
000000a0: 5349 80be e9af db3d 3eed ddbc 0480 fa3d
000000b0: 5306 613d 383a 523d e64d b83d 5f39 3bbe
000000c0: 1f48 84be 3447 8cbe dac4 88bb aada fb3d
000000d0: 120a 693e 1ce4 85bd bd8b da3d 8629 9d3d
000000e0: 6739 463e 91e0 18bc a726 f13c bfce 4fbe
000000f0: 1c6b 99bc e5c7 26be 9d4b c6bd 79ca 483e
0.23523916 0.12335237 -0.18339956 -0.4898542 -0.27184734 0.047861468 0.06375048 0.12029044
-0.017924178 0.11492807 0.10969383 0.08506924 0.14426205 0.031100636 -0.04570657 -0.056360625
0.25624347 0.25337106 -0.046295986 -0.15720883 -0.29069355 0.02772083 -0.04850501 0.028633947
-0.20628291 -0.011932568 0.055998456 0.19832848 0.009376975 0.24337018 0.0010144903 -0.15849262
0.21999907 0.29622695 -0.10982404 -0.082398295 -0.23497093 0.20883645 -0.033151537 -0.15485574
-0.25055942 0.107269116 -0.027090665 0.12231448 0.054937672 0.051325053 0.08999233 -0.18283604
-0.25836274 -0.27398074 -0.004173857 0.12297566 0.22757748 -0.06537649 0.10671184 0.076739356
0.19357835 -0.009330885 0.029437376 -0.20293711 -0.018727832 -0.16287191 -0.09682391 0.19608487

heads.0.heads.2.value.weight f4 [4, 16]
00000000: 5ba1 d1bc cff5 e4bc 9e41 ed3d ee4f 22ba
00000010: 62f7 0cbd ec46 cabc 394e b93c 8ff0 e03c
00000020: 4cfe bdb9 9381 9a3d 92ac c53d 464b d9bc
00000030: 79d8 5ebd 2a71 963c eec9 bfbd 077b bfbd
00000040: ac85 3d3d ac83 273d cc25 27bd d15b a7bc
00000050: 7113 3e3d 1c09 ba3d caf0 08bd cff2 f63c
00000060: 588a f7bc af50 74bd 866c 34bd 5bf5 213c
00000070: 81db 98bd 084e 363d 5ad1 3c3d 9747 1fbd
00000080: 97af 923c 2552 8abd e4e7 91bb 75dc f8bc
00000090: 6097 253c d4a0 51bd e207 0a3c 51c1 06bd
000000a0: 1fe4 a93b a612 f53d 4ea1 bb3d 3982 bebb
000000b0: 4801 fc3c d748 b0bb 8f54 d4bc 5bfa 22bc
000000c0: 22a4 293c 28a7 023e daf0 6cbc e46d b3bc
000000d0: fd60 db3d 438c 243d 0e43 59bd f549 b7bd
000000e0: 7014 81bd 1739 7cbd 3eec e7bd 5ac0 e03d
000000f0: 13a6 313d 01a7 87bc 6f49 4d3c 32e2 243d
-0.025589636 -0.027949242 0.11584781 -0.000619172 -0.03441561 -0.024692021 0.022620307 0.027458457
-0.00036238355 0.075442456 0.09652056 -0.026525151 -0.054405663 0.018364508 -0.09364687 -0.093496375
0.046270058 0.040897056 -0.04080753 -0.020429524 0.04640526 0.09083769 -0.03343276 0.030145077
-0.030217335 -0.05964726 -0.04404881 0.009885157 -0.07463742 0.04450801 0.04609809 -0.038886633
0.017905993 -0.06753949 -0.0044526923 -0.03037856 0.010106891 -0.05117877 0.008424731 -0.032899205
0.005184665 0.119664475 0.09161626 -0.0058138636 0.03076233 -0.005379777 -0.025919227 -0.009947385
0.010354074 0.12759078 -0.01446172 -0.021902986 0.107118584 0.040172826 -0.053042464 -0.08949653
-0.06302726 -0.061577883 -0.113243565 0.10974188 0.04337127 -0.016559126 0.012529715 0.04025478

heads.0.heads.3.tril f4 [8, 8]
00000000: 0000 803f 0000 0000 0000 0000 0000 0000
00000010: 0000 0000 0000 0000 0000 0000 0000 0000
00000020: 0000 803f 0000 803f 0000 0000 0000 0000
00000030: 0000 0000 0000 0000 0000 0000 0000 0000
00000040: 0000 803f 0000 803f 0000 803f 0000 0000
00000050: 0000 0000 0000 0000 0000 0000 0000 0000
00000060: 0000 803f 0000 803f 0000 803f 0000 803f
00000070: 0000 0000 0000 0000 0000 0000 0000 0000
00000080: 0000 803f 0000 803f 0000 803f 0000 803f
00000090: 0000 803f 0000 0000 0000 0000 0000 0000
000000a0: 0000 803f 0000 803f 0000 803f 0000 803f
000000b0: 0000 803f 0000 803f 0000 0000 0000 0000
000000c0: 0000 803f 0000 803f 0000 803f 0000 803f
000000d0: 0000 803f 0000 803f 0000 803f 0000 0000
000000e0: 0000 803f 0000 803f 0000 803f 0000 803f
000000f0: 0000 803f 0000 803f 0000 803f 0000 803f
1.0 0.0 0.0 0.0 0.0 0.0 0.0 0.0
1.0 1.0 0.0 0.0 0.0 0.0 0.0 0.0
1.0 1.0 1.0 0.0 0.0 0.0 0.0 0.0
1.0 1.0 1.0 1.0 0.0 0.0 0.0 0.0
1.0 1.0 1.0 1.0 1.0 0.0 0.0 0.0
1.0 1.0 1.0 1.0 1.0 1.0 0.0 0.0
1.0 1.0 1.0 1.0 1.0 1.0 1.0 0.0
1.0 1.0 1.0 1.0 1.0 1.0 1.0 1.0

heads.0.heads.3.key.weight f4 [4, 16]
00000000: 6d27 403f b355 d6be 06fa a1bd 1188 8dbe
00000010: 0614 10be d10d b8be 8d1c 56be 557b 95bd
00000020: 2493 683e b003 bd3e 02c2 973d f288 f23e
00000030: 0a3b 90be 0002 5a3d 7f67 a4be af65 5b3e
00000040: 54dc 16bf eee0 d33e 2047 4d3d 1b74 57bc
00000050: 0bc2 913e d023 a63e 1517 c93e cb9b 9c3d
00000060: c6ff b4bc 6e73 82be e0c8 f53d e970 14be
00000070: 93af abbe cb84 a0be cf9d 853e 8703 cabe
00000080: 4120 ccbe caa6 b83d 2969 283e 73c9 c83e
00000090: d247 763e 3f1b 35be fb2c a7be b060 21bf
000000a0: e851 5fbd 8b6b ed3d f069 1ebf c159 92bd
000000b0: 982a 1a3e 5a8d 10bb 1718 a63e ae8c 1d3f
000000c0: f6d2 853e 060b 233d b0d7 363f b419 41be
000000d0: b358 303e fe64 6ebf 2c6b 2dbf beed 2cbd
000000e0: 6912 ff3d b779 66be 836f 0a3e 6475 1f3f
000000f0: 03c1 993c 63aa 27bd c596 4ebe 1c98 b73e
0.7506016 -0.41862258 -0.07909016 -0.27642873 -0.14070138 -0.3594804 -0.20909329 -0.07298914
0.2271238 0.36916876 0.07410051 0.47370106 -0.28170043 0.053224564 -0.3211021 0.21425508
-0.58929944 0.41382545 0.05011666 -0.01315024 0.28468356 0.32449198 0.39275423 0.07646903
-0.022094619 -0.2547869 0.120012045 -0.14496197 -0.3353239 -0.31351313 0.2609696 -0.39455816
-0.39868358 0.090161875 0.16446365 0.39216194 0.24050835 -0.17686175 -0.32651505 -0.6303816
-0.05452147 0.11592778 -0.618804 -0.071460254 0.1505531 -0.0022056908 0.32440254 0.61542785
0.26137513 0.039805435 0.71422863 -0.18857461 0.17221336 -0.9312285 -0.67741656 -0.042218916
0.12454683 -0.22507368 0.13519101 0.622885 0.018768793 -0.040933978 -0.20174702 0.35858238

heads.0.heads.3.query.weight f4 [4, 16]
00000000: d3c3 debd 9cf9 0d3e 68cc 9d3d 3d0f dcbe
00000010: 92cb 76be f99a 8a3e 5ed6 f73c df33 473e
00000020: cc3f 89bd 06ea a4be cd66 af3e dfcf 923e
00000030: 8467 fe3d ae3a 233d 9f78 b9bd 9aa5 c9bd
00000040: a51b 5b3e 5e1f 1fbd 7511 35be 1268 ec3e
00000050: 3d48 1a3e 0c09 e2be 3d46 59be 1d3f e1bd
00000060: cb0e fa3c 2695 e33d 5f40 96be 7480 abbe
00000070: 2beb c83e 3c6d 283e 771e 323e afeb 6ebd
00000080: 8e15 cdbe 2eb8 703c dea4 d53e 84ad e03e
00000090: ebc3 433e 2b54 8e3e 08ee b23d 2171 d83d
000000a0: 6c4e 55bd 08d0 c9bc 3b38 71bd 3efc 18be
000000b0: 4e3a b9be d8dc 9ebe 093d 13be dbf9 233d
000000c0: 2f91 cebe ea06 87bd 01ed e43e 5116 b5be
000000d0: 0534 d23d 1997 8d3d 80f1 e5bd eca1 15bd
000000e0: d791 243e e9ce b3be 06cf ee3c 2e79 603e
000000f0: 9a3f fd3d 865f 43bd d389 49ba 27d2 ad3e
-0.10877194 0.1386475 0.07705003 -0.42980376 -0.24101093 0.2707136 0.030253585 0.19453381
-0.067016214 -0.32209796 0.34258118 0.28674218 0.12422088 0.039850883 -0.0905621 -0.09846039
0.21397264 -0.038848273 -0.1768244 0.4617315 0.15066619 -0.44147527 -0.212182 -0.10998366
0.030524632 0.11112432 -0.29345986 -0.3349644 0.3924192 0.1644792 0.17394434 -0.058330234
-0.40055507 0.014692349 0.41727346 0.43882382 0.19117706 0.2779859 0.08736807 0.105684526
-0.052076742 -0.02463533 -0.058891516 -0.14939973 -0.36177295 -0.31027865 -0.14378752 0.040033203
-0.4034514 -0.06593116 0.4471207 -0.3536859 0.10263828 0.06913585 -0.11227703 -0.036531374
0.16071258 -0.35118797 0.02915145 0.21921226 0.12365647 -0.04769852 -0.0007688079 0.33949396

heads.0.heads.3.value.weight f4 [4, 16]
00000000: e5c6 273d c793 cb3d cbc9 a6bb e2a6 903d
00000010: 819b 17bd 95eb bc3c 9f37 a1bd 7a22 0f3d
00000020: 2a68 93bd 01ae 8bbd c300 3f3d a303 babd
00000030: 6edd a3bb 2f22 07bb dbc7 31bd 7466 063c
00000040: 5302 96bd f1e2 61bd a719 f5bc e64f 35bd
00000050: 373f 3b3d fff1 e7bc ca6c 143c bda3 d0bb
00000060: bcc9 f03c fbeb 373d 9cd5 0b3d bb62 42bd
00000070: 52e9 a93d 1a12 963c 2666 aa3d 6fb2 e2bd
00000080: ac48 a73d 6258 1ebc 8d44 a93d 8dd3 9ebc
00000090: f932 593b 159b 2abe 2f8c fbbd 0eff 65bd
000000a0: 3519 25bd eac7 1e3d b74b 373d 04ba 2c3d
000000b0: a95d b03d 6e3a 6fbc 25e0 f7bc 0ce3 143d
000000c0: ae8b 68bd 4953 04bd 4fb9 bb3d a3e8 88bc
000000d0: 570e b6bc 7701 6dbd 4254 e43d 1f07 ea3d
000000e0: 61d8 a4bd 0d86 91bd 31da d63c f411 fabc
000000f0: bf30 cdbc 6acd 81bd 0096 843d 1fcc 3e3b
0.040961165 0.09940296 -0.0050899736 0.0706308 -0.037013534 0.023061553 -0.07871937 0.03494499
-0.07197602 -0.06820298 0.046631586 -0.09082725 -0.0050007617 -0.002061974 -0.043403488 0.008203138
-0.07324662 -0.05514807 -0.029919459 -0.04426565 0.045714583 -0.028313635 0.00905914 -0.0063671754
0.02939307 0.044902783 0.03413926 -0.047457438 0.082964554 0.018319178 0.083202645 -0.1106919
0.08168158 -0.009664627 0.08265028 -0.019387985 0.0033141954 -0.16660722 -0.12282597 -0.056151442
-0.040307242 0.03876487 0.04474994 0.042169586 0.08611614 -0.014601333 -0.030258248 0.03634934
-0.056773834 -0.03230599 0.09166204 -0.016712492 -0.022223635 -0.057862725 0.111488834 0.114271395
-0.080490835 -0.07105646 0.026227089 -0.030526139 -0.025047658 -0.06338008 0.06473923 0.0029113365

heads.0.ffwds.net.0.weight f4 [64, 16]
00000000: a4eb 663d 9877 003e d061 1abd c4b4 873d
00000010: 6cc0 103d 2711 d93d d786 06be b416 91bd
00000020: 4d13 52bd 7204 4dbd bdd1 22be 766f a4bd
00000030: 2449 a4bc 4302 1b3c 5c73 883d 3423 cd3d
00000040: ed35 e5bd 1a17 17bc e200 e5bd 1766 d7bc
00000050: e95c f8bb 3201 cc3c a942 ff3d dba7 ce3b
00000060: bbaa 083e d65e dabc e493 29be 25be 3bbd
00000070: 8b2c 213b 3b25 b8bd eba1 5f3d 63ba b23d
00000080: 1ba2 b9bd 95f7 c5bd d9e5 1cbd efe4 a9bd
00000090: c1f1 6b3c 2598 623c a53c bfbc ebdd 45be
000000a0: 2f4e a53d 641f 873d 9738 8f3d 6a82 7a3d
000000b0: bc3c e4bb 4fbc 033e 546b 08bd df0d 8e3d
000000c0: da3f a8bd 3c42 c93a 3630 b43d 0697 863d
000000d0: 33b1 febd 4d2c d73d e353 413c b907 9abd
000000e0: 268a 34bc 3d1c f43d 7d35 703d ddbd 3cbd
000000f0: 43d0 16be 58e8 193e 97c0 02be 1aa3 c33b
00000100: 481a 80bb f7f6 c03c 8e1c 37bd ba0f 27be
00000110: 9e2b 423e e0c5 783d 3da4 2f3c ed63 b33d
00000120: a44f debc 332c 9e3b d88f 753a 1989 11be
00000130: 1518 a5bd eb74 323e e4db 313d da3a 60bd
00000140: f11f 563d 53a7 e8bc b415 fbbd e4ba 583d
00000150: a664 aabd 84af d2bd 8ad8 01be 2ae2 eb3c
00000160: 0c35 be3d 9706 d73d e60d fc3d 8204 9cbd
00000170: 22a5 c0bb e574 6f3d 763a cd3d 158d 96bd
00000180: c018 0cbe 7d1b 4d3a 6b00 123d 7abc cdbd
00000190: 2430 b8bd ad5b 773d dc6b eb3d 5938 cabc
000001a0: f980 673b 10c6 86bd dc36 d53c 8e52 4b3d
000001b0: 0cd4 473d b551 14bd b880 063d a0a5 333d
000001c0: b5bd a6bc 1e84 2d3c 0531 0dbe ab25 6fbd
000001d0: 4289 9d3d 101c ecbc babf c83b b4bc 793d
000001e0: 9ed2 afbc 3e2e 3ebc 3834 f0bd 2564 903c
000001f0: 3f0e ff3d 94dc f3bd ad3f 283e 59b1 2c3c
00000200: 8cc6 b73d 9806 92bd 8311 203c 847c 353d
00000210: a772 d6bd b8bb 56bd 3606 0ebe 0229 393d
00000220: c7f5 113d 49f7 1cbd b463 9c3c d249 d13c
00000230: 73d9 a23d 0508 c23a 8eb6 fc3d 13d3 bebd
00000240: 004d 493d 21c9 b93c 6405 d43d 549b 91bd
00000250: c07f 8f3c 29d1 5ebd 0204 0b3e 2241 b53d
00000260: 7149 0cbe ad84 a13d 2e4a c2bd 1e11 11be
00000270: 2743 32bc a6f6 25be 1041 8fbd 75aa 5e3e
00000280: 08f3 81bd c2ce f9bd e057 133e dbd9 ddbd
00000290: 3e48 a43d 3bd0 95bd 9027 833c de8f 003e
000002a0: 8804 b6bc 2490 43bd 0a83 813d 6a7c 203c
000002b0: 6b9f 1cbd 6854 28bc b9c0 a63d 2403 1bbb
000002c0: c407 aebd f848 a43b 4827 8b3d 0d55 ab3c
000002d0: 4a1b 56bd c629 89bd 06f4 0c3d d293 023d
000002e0: 7271 12bd a472 15be 96ba 72bc a14e 833c
000002f0: 1e79 913d 735b 063e a68c a5bc 6f40 983d
00000300: 01dc 7a3d dd38 9f3d 0aa1 5f3d edb8 64bd
00000310: 1c43 04bd 0f43 453b 3bc7 c93c d15a 94bd
00000320: 9142 6cbd ba33 e53d 8890 f23b 247a 023d
00000330: 0e58 5cbd 5570 ecbb a547 433e de38 d0bc
00000340: 90e0 a3bd 17a4 eb3d 2499 90bb 0cec 11bd
00000350: 02c6 77bc e5ae 76bd ba8d 14be 64c8 17be
00000360: 1436 443d 21d8 db3d 3f37 a43d aa91 e9bd
00000370: 0d29 38bd 8515 0d3d 4483 4f3d a439 0a3e
00000380: f54a 233c c857 29bd 7035 bb3d 6b69 d8bc
00000390: d519 f13b 3952 693d 2202 c03d a116 d03d
000003a0: ce82 38be 5796 34bd b631 f0bd ca49 babd
000003b0: 21aa 6cbc e91b 84bd 44bc d5bc dac2 073e
000003c0: e61a d5bd 9d35 c2bd 7ff2 e8bc dde6 32bc
000003d0: 40ac 07bd 9fb9 5bbd 60b9 83bd 7e4c 7e3c
000003e0: ecb1 a73c 84e8 4fbd 477e c13d 070e 973d
000003f0: 9ee1 5dbc 4e48 f93d 67fc 033e bbe9 febd
0.05637707 0.12545621 -0.037690938 0.06626275 0.035339758 0.10598975 -0.13137375 -0.070844084
-0.051287938 -0.050053068 -0.15900321 -0.08029072 -0.020054407 0.009460988 0.06662628 0.1001648
-0.11191926 -0.009221816 -0.11181809 -0.026293797 -0.007579435 0.024902914 0.12463886 0.006306631
0.13346379 -0.02665655 -0.16560322 -0.045835633 0.00245932 -0.08991476 0.054597776 0.08726957
-0.09064122 -0.09666363 -0.038305137 -0.08295619 0.0144009 0.013830219 -0.023344347 -0.19322936
0.08071553 0.06597784 0.069932155 0.06115953 -0.006965248 0.12864803 -0.03330548 0.069362395
-0.08215304 0.0015354822 0.08798258 0.06571774 -0.12436142 0.105064966 0.011799785 -0.07521004
-0.011019265 0.119194485 0.05864476 -0.046079505 -0.14727883 0.15030038 -0.1276878 0.005970371
-0.003909383 0.023555262 -0.044704966 -0.16314593 0.18961951 0.060735583 0.01072031 0.08759294
-0.027137585 0.0048270463 0.00093674427 -0.14212455 -0.08061234 0.17427413 0.043422595 -0.054743625
0.052276555 -0.028400099 -0.12259999 0.052912608 -0.083199784 -0.10287383 -0.1268026 0.028794367
0.09287462 0.10499304 0.123073384 -0.07618047 -0.0058790604 0.05846109 0.10020916 -0.07351128
-0.13681316 0.00078242255 0.03564493 -0.10045715 -0.08993557 0.060390163 0.11495182 -0.024685072
0.0035324676 -0.06580746 0.026027136 0.049639277 0.048786208 -0.036210734 0.0328376 0.043859124
-0.020354131 0.010590581 -0.1378823 -0.058385532 0.076921955 -0.028821975 0.006126371 0.060970977
-0.021462735 -0.011607705 -0.1172871 0.017625878 0.12453889 -0.11907306 0.1643054 0.01054033
0.08973417 -0.07130164 0.0097698 0.0443082 -0.10471087 -0.052425116 -0.13869557 0.045205124
0.035634782 -0.038321767 0.01909051 0.025547896 0.079516314 0.0014803415 0.12339507 -0.09317603
0.0491457 0.022678914 0.10352591 -0.071097046 0.01751697 -0.05439869 0.13575748 0.08850314
-0.1369989 0.07886634 -0.09486805 -0.14166686 -0.010880268 -0.1620737 -0.069948316 0.21744712
-0.06345183 -0.12197639 0.1438899 -0.10832568 0.080215916 -0.073151074 0.016010076 0.12554881
-0.022218958 -0.047744885 0.06323822 0.009795288 -0.03823797 -0.01027403 0.08142228 -0.0023652995
-0.08497575 0.0050135814 0.06794602 0.020914579 -0.05227212 -0.06697421 0.034412406 0.031879254
-0.03575272 -0.14594513 -0.014814993 0.016028704 0.071031794 0.13120823 -0.020208668 0.07434165
0.06124497 0.07774518 0.05459694 -0.05584042 -0.032290563 0.0030099784 0.024631133 -0.07243884
-0.05768067 0.11191507 0.0074024834 0.031854764 -0.053794913 -0.0072155395 0.19070299 -0.025417741
-0.08001816 0.11505907 -0.004412787 -0.035625502 -0.015122892 -0.060225386 -0.1450719 -0.14822537
0.047903135 0.10734583 0.0801835 -0.11404736 -0.044961024 0.03444435 0.050662294 0.1349855
0.009966602 -0.04134348 0.09141052 -0.026417455 0.0073578157 0.05696318 0.09375407 0.10160566
-0.18018648 -0.044088688 -0.117282316 -0.090961054 -0.014444859 -0.06450636 -0.026090749 0.13257924
-0.10405521 -0.09482882 -0.028435944 -0.0109193 -0.033123255 -0.05364382 -0.06431842 0.015521167
0.020470582 -0.050758854 0.094479136 0.073757224 -0.013542561 0.12171994 0.12889253 -0.12446924

heads.0.ffwds.net.0.bias f4 [64]
00000000: 063d bdbd bc9d ddbd 6623 08bd 08af e5bd
00000010: c256 fbbd 3679 0dbd 1229 d0bc 2562 52be
00000020: 64ae cebd 7ea6 953c 21b8 babd 4813 9dbb
00000030: 37a7 cbbd 9a72 3e3c 8e99 28be 82bf 1abe
00000040: c377 15bd 43c5 a1bd bfdd 69bc d0ed 27be
00000050: f2a6 dbbd 8e91 0abe 32ba c0bd 84fc 90bd
00000060: 9d2b a3bd dfc3 22be c25e f4bd 81cd 3bbd
00000070: e91f f2bd 881f e1bd 22fc a0bd 4ba6 36be
00000080: 4e08 01be 4bd2 36be f514 d2bd 6a50 19be
00000090: 715d 85bd 597b efbc 244e 72bc 9eb7 f3bd
000000a0: fc37 c4bd b02a 65bc 164d e0bd cc24 0ebe
000000b0: e72a 39bd b38e eebd 53a3 f9bc 8964 72bd
000000c0: 92ae b1bd a0d0 b9bd 76b9 97bd 71fa 12bd
000000d0: 3503 04be 8471 27bd b809 0dbd 6693 24bd
000000e0: 064d 0dbe 9323 8abd 0891 a8bd c0b4 1abe
000000f0: 6bd8 3dbd a87c edbc d6c3 06be d715 dfbc
-0.09240155 -0.10821101 -0.033236884 -0.11215025 -0.12272407 -0.034539424 -0.025410209 -0.20545252
-0.10091856 0.018267866 -0.09117151 -0.0047935583 -0.09944003 0.011624003 -0.16464826 -0.15112117
-0.036491167 -0.07898953 -0.01427406 -0.16399312 -0.10725202 -0.13532087 -0.09410514 -0.070794135
-0.07967303 -0.15895031 -0.11932136 -0.04585028 -0.11822493 -0.10992342 -0.078605905 -0.17836873
-0.12600824 -0.17853658 -0.102579035 -0.14972082 -0.06511963 -0.029233621 -0.014789138 -0.119002566
-0.09580991 -0.013987228 -0.10952203 -0.13881224 -0.04520693 -0.116483115 -0.030473387 -0.05917791
-0.08675875 -0.09072995 -0.07408421 -0.03588337 -0.12891848 -0.04087974 -0.034433097 -0.040179633
-0.13798913 -0.067450665 -0.082307875 -0.15108013 -0.04634897 -0.028990105 -0.13160643 -0.027232094

heads.0.ffwds.net.2.weight f4 [16, 64]
00000000: a056 2c3e 9adf 833c 3cb0 fabc b3b7 da3d
00000010: 497d 28be 470b 97bd 4f8a 06bc b694 5ebe
00000020: 0a44 74bd 7348 44be ad50 b03c 4d1e 773d
00000030: dd63 9f3d 42ff 953c ee0d 00be 3a8f 74bc
00000040: 329c 0bbe fcff ab3d 7255 14bd 4d97 69bd
00000050: 3306 51bd 2c33 9bbd 4d65 abbd 682f 993c
00000060: 027d 38be 8fa6 123e 8d46 7f3e fdc8 6e3d
00000070: 9218 d43d 8a2b 1f3e e8ec 00be c104 85bd
00000080: fb0c d2bd d4bf 123d 8958 19be f9d6 3dbe
00000090: d8e7 3d3e 23d8 503b 694d 58bc b227 4a3e
000000a0: 8718 2b3a 8aa4 763d 8391 fd3d 29a3 2c3b
000000b0: ebbe ab3b f88e 65bd 5108 5bbd aafb 38bd
000000c0: 5720 74bd dca7 9bbc 37a3 ef3d 6fb4 e43d
000000d0: 48f1 963c 0864 01bd dfdc 013e 60ea a0bd
000000e0: 0f5a 1b3d d4b1 0fbc d376 10be 4f62 46bd
000000f0: ffab aa3d 5c73 243d a7bc a03d 0aed 013c
00000100: 2c9b 213d ef26 af3d a0aa 28be 7378 203e
00000110: edf0 85bc bc6c a63d 82a5 82bd 536f a6bd
00000120: ac88 633c c89b cc3d 349d 48bd 97cd b5bd
00000130: ac9e a0bd 6432 aabc 55db 413e a0d0 7fbd
00000140: 0231 ed3d b79b b13c c4ef a4bd a0a0 633e
00000150: c25e 95bc f48f 363c ab1d 0f3d 74cf b83c
00000160: d553 18be 6c4f 323d 9374 37be 8cc6 abbd
00000170: 0895 1d3d 046c a1bd f009 133e 9928 0f3e
00000180: 3fb9 dfbd b10c ccbd 3f83 e43d c699 da3d
00000190: 05c9 bb3d 9ff1 fa3b a715 343d f467 06bd
000001a0: 2f28 073e 7981 b83d cc03 c1ba 19db fdbd
000001b0: 71ab ccbd 5071 c1bc 49af b2bc 3b69 873d
000001c0: 9e6b e63d 6d5f 593e ebe5 273e 3bfa 8bbc
000001d0: 93e1 a73a a0a6 99bd 6dae ae3d 7858 483b
000001e0: 6f96 85be 2836 603c 7a00 3fbc 2048 913d
000001f0: 0c55 2d3b 44b4 7bbe d99c 273e d7b1 dbbc
00000200: 3d99 093e 18c9 a6bb 6cbd 593d e80f 1c3d
00000210: 0714 fabc cb92 a4bd f9f7 9fbb 5906 5abc
00000220: 301b f2bd b78f 1fbc 50fc 77bd 2eba 0e3e
00000230: e9fd b43d 6e85 f43d 1e35 0ebd e701 f93d
00000240: f460 c4bd def9 9f3d dce6 f4bc b2e7 343b
00000250: 6a1d c33a d2ab ad3d 8926 8bbd b3f9 b83d
00000260: 070c 8cbc f2a0 613d 7be7 5cbc 2e1f efbc
00000270: 4edb ddbd de2b 0dbc 3a8a dabc 8895 0abe
00000280: 0636 843c 38dc a9bd 68bf f93c d30b 4fbd
00000290: 31ea db3c 0ac8 a03d 6bdc b63c de0c 20bb
000002a0: 1389 b93b bc54 46bd 2b7f 243d fc52 07bc
000002b0: fbaa 143e 0e8f 1b3d f58f 39bd 851e 773c
000002c0: 1fc4 233e e564 40be 4053 1abd 186f 2abd
000002d0: 023d bb3c c11b b53e 623e f6bc 94b7 ab3d
000002e0: 4cb8 2ebd b0fb 33be 8278 293d 7898 09be
000002f0: dcff 993d d197 1dbd d097 e9bd 5117 f5bd
00000300: 5615 57bd a811 b6bd 3e6d 3fb9 1218 a9bd
00000310: 3df4 273d cab9 0d3e 684a 453e 10c3 913c
00000320: 0b7f afbc b8c1 1abe 02fc e3bd 36f2 0dbd
00000330: 0372 2abd 00b9 7cbd 102a 08be dccf 0cbe
00000340: bc69 ebbd b04d d0bd c57c d3bc fdad e0bc
00000350: ceee 923d 32c1 753c 202f b53c f78c 28bc
00000360: c927 a73d 3d91 ab3d 28ab c43d 3208 ef3d
00000370: 238b 013e 91b2 f13d 9a45 12bd 160f e03d
00000380: 6e37 6d3c cdfa e4bc 8de4 30be f350 02be
00000390: bf8c ca3c 2a66 6d3d a1ab 00bc a0e4 b93d
000003a0: d7c1 41bd 2a84 8d3d 1077 403d 0d25 02be
000003b0: 299b 71bc 1a73 6c3d 63d3 923d db9a f5bc
000003c0: bf25 54bc c8bd 243c aaa3 1abd 9cb7 023e
000003d0: 38a9 0abd edef 8bbd 7a63 da3c 0023 e53c
000003e0: 28a2 6c3e a5dd 053e c963 ef3d 2623 393d
000003f0: 4dc6 12bd eed9 e63c b2fc 4f3d 5f89 3d3e
0.1682992 0.016097832 -0.030601613 0.10679569 -0.16454042 -0.07375198 -0.008211686 -0.21736416
-0.0596352 -0.19168262 0.021522844 0.06033163 0.07782719 0.018310193 -0.12505314 -0.014926726
-0.13633803 0.083984345 -0.0362143 -0.057029057 -0.051031303 -0.0757812 -0.08368931 0.018699363
-0.18016437 0.1432135 0.24929257 0.058297146 0.10356249 0.15543953 -0.12590373 -0.06495047
-0.10256382 0.035827473 -0.1497518 -0.18539037 0.18545473 0.0031867109 -0.01320205 0.19741705
0.0006526787 0.06021551 0.1238127 0.0026342368 0.005241265 -0.05604455 -0.053474728 -0.04516188
-0.059601154 -0.01900094 0.11701053 0.111672275 0.018425599 -0.031589538 0.12681912 -0.078572035
0.037927683 -0.008770425 -0.14107828 -0.048433598 0.08333587 0.040149078 0.078484826 0.00793005
0.039454624 0.08552348 -0.16471338 0.15670948 -0.016350234 0.08126208 -0.06379224 -0.08126702
0.013887566 0.099906504 -0.048978046 -0.08877104 -0.07842764 -0.020775981 0.18931325 -0.06245482
0.11581613 0.021680696 -0.08053544 0.22229242 -0.01823366 0.01114272 0.034940403 0.022559859
-0.1487573 0.043532774 -0.17915563 -0.08387479 0.038472205 -0.078819305 0.1435926 0.1398033
-0.10924005 -0.09963358 0.11157846 0.10673861 0.09169201 0.007658198 0.04396596 -0.03281398
0.13198923 0.0900907 -0.0014725863 -0.12395305 -0.09993637 -0.023613602 -0.021812098 0.06611868
0.11250995 0.21227808 0.163963 -0.017087093 0.0012808315 -0.07502484 0.08529363 0.003057031
-0.26091334 0.013684787 -0.011657828 0.07093835 0.0026448397 -0.24580485 0.16368426 -0.0268182
0.13437362 -0.00508989 0.053159162 0.038101107 -0.030527128 -0.08035811 -0.0048818556 -0.013307177
-0.11821592 -0.009738854 -0.06054336 0.1393821 0.08837492 0.11939512 -0.034718625 0.12158566
-0.09588805 0.0781133 -0.029895239 0.0027603921 0.0014886085 0.08480038 -0.067944594 0.09032001
-0.017095579 0.05508513 -0.013482924 -0.029189672 -0.10832845 -0.008616416 -0.02667724 -0.13533604
0.016139042 -0.082939565 0.030486777 -0.050548386 0.02684507 0.078506544 0.0223219 -0.0024421732
0.0056620925 -0.048420653 0.04016034 -0.008259531 0.14518349 0.037978224 -0.045303304 0.01508296
0.15992783 -0.18788488 -0.03767705 -0.041609854 0.02285624 0.35372737 -0.030059043 0.08384624
-0.042656228 -0.1757648 0.04137469 -0.13437068 0.075195044 -0.03847486 -0.11405909 -0.11967338
-0.052510582 -0.088900864 -0.00018255875 -0.08256544 0.04100441 0.13840404 0.19266665 0.017793208
-0.021422883 -0.1511296 -0.11132051 -0.03465482 -0.041612636 -0.061699867 -0.13297296 -0.13751167
-0.114947766 -0.10171068 -0.02581633 -0.027426714 0.07174455 0.014999675 0.022117198 -0.010287515
0.08161885 0.083773114 0.09602958 0.11671485 0.12650733 0.11801637 -0.03571091 0.109403774
0.0144785475 -0.027951622 -0.17274685 -0.12726192 0.024725316 0.05795876 -0.0078534195 0.0907681
-0.047304 0.06909974 0.046988547 -0.12709446 -0.014746466 0.057726957 0.07169225 -0.029981067
-0.0129484525 0.010055013 -0.03775374 0.12765354 -0.033852786 -0.068328716 0.026658762 0.02797079
0.23108733 0.13072832 0.116889544 0.045199536 -0.035833646 0.028180089 0.0507781 0.18509434

heads.0.ffwds.net.2.bias f4 [16]
00000000: 8076 7fbb acf3 21bd be1f b4bc bd58 073d
00000010: 171f 0dba 0559 de3c a95b fbbb 2f5a cabb
00000020: 59a1 a73b 9ca8 053c 69c0 083d 43b4 2dbd
00000030: 53b9 a33c 7b58 d3bc e2d8 4b3c 46e2 333a
-0.0038980544 -0.039539024 -0.021987792 0.03304361 -0.0005383356 0.027142057 -0.007670839 -0.0061753015
0.0051156697 0.008157875 0.03338662 -0.04240824 0.01998583 -0.025799027 0.012441846 0.00068620255

heads.0.norm1.weight f4 [16]
00000000: ae51 993f ac44 863f 35f2 933f 09f7 c33f
00000010: 938f b43f 02c6 9c3f 934f 873f 9aec 733f
00000020: 30af 7c3f b225 8f3f 8234 a33f 45b3 883f
00000030: 0286 903f 512a 7d3f c0b1 633f 7530 883f
1.1978052 1.0489707 1.1558291 1.5309764 1.4106315 1.2247927 1.0571159 0.952829
0.98704815 1.1183379 1.2750399 1.0679709 1.1290896 0.98892695 0.889431 1.0639788

heads.0.norm1.bias f4 [16]
00000000: f7d7 ed3c 9dff 64be 6d47 893e 6946 d4be
00000010: 28e8 86bb 96a2 56be 812d 523d fc0c b23e
00000020: beed 053e eb38 e3bd c1ae f63e 78f9 273e
00000030: 0f10 ddbc 4837 f3bd d23c 4fbe 034d c6bd
0.029033644 -0.22363134 0.26812306 -0.4145997 -0.0041170307 -0.20960459 0.051312927 0.3477553
0.13078973 -0.110948406 0.48180202 0.16403759 -0.026985196 -0.118757784 -0.20238045 -0.096826576
