gpt/models/model.pt (torch, 95973 bytes, 88 tensors)

token_embedding_table.weight f4 [65, 16]
00000000: 8429 95bd f9bc 3fbd c582 80be 1f96 0e3e
00000010: d706 873c 230e 86ba bf0a 8e3c a0ef 7abd
00000020: 03ae bd3d ba33 233d f7fa 55bc 2d97 a63d
00000030: e780 dbbb 168e c0bc 6e7d 7e3d 908d dcbd
00000040: 2cd1 e8bd d4ab cdbd d344 513d 42db 69bd
00000050: 8171 c73d fed2 c63d 4776 493d c7a4 d9bc
00000060: 00ed b93d e23c dcbc 69de a6bc 1033 d83c
00000070: cafc 5bbe 99d5 c73d 2a0f 763c 5551 7f3d
00000080: 18f1 6e3d da53 f73c d63d a23d 5036 5a3e
00000090: 0071 19be 1ed3 27bd 449b afbd f77a 273e
000000a0: 309f 613c e955 043e 8dd1 d1bd 16d4 cabc
000000b0: 9c7d 173b 8cc6 8bbd 34c0 553d f6a6 38bd
000000c0: 0afd dc3b 12c1 16bb 4f30 42ba e8c4 85bc
000000d0: aeb4 febc 9751 8c3c ca6a 4c3c 837d 9dbc
000000e0: 1bee 4bbc 98f2 673c bcd4 2b3b 0569 523b
000000f0: f88b 653b 2a90 85bb e96c a83b 465d 2bbb
00000100: d320 d03c c9f4 603c a81d b8bc 38b4 c1bc
00000110: 0def 613d eb33 a83a a4a0 45bb 3f30 c53c
00000120: 1741 b1b9 2a4f 7f3c a487 a73c 890b 5abc
00000130: 82b6 bcbc e263 2dbd b35f 16bc f5d0 e43b
00000140: 8779 1bbe f833 d33c 0df4 92bd 1dc9 b6bc
00000150: 1384 4a3c a9d5 eb3c 04f4 163d 8e2c d23d
00000160: 8bc5 b9ba e464 a73d afae 913c cbd1 c73d
00000170: eb36 cbbd cf98 0ebe a67b 05bd 75f4 cc3d
00000180: 29a6 053e 461e 06be 6f7f 44bb 5d53 213e
00000190: 6224 c7bd fa99 aa3d 1a23 d1bd 0459 ad3d
000001a0: 8c0f b6bc 0ddd 0f3e 9a8d 6fbd 39db ecbd
000001b0: 2fc5 5d3d cfe2 86bd 252e 203d 9970 473d
000001c0: 109c b0b8 6c1b 3dbe 1f62 1c3d 07cd 1b3d
000001d0: a6ae d13b a9c2 dc3d 2b50 31be 1a37 aa3d
000001e0: 569a ba3d acf3 9ebd 042d 9c3d 40b3 f5bc
000001f0: dbdd 2b3b 7712 113e fed4 623d d3e4 1bbd
00000200: bd9b e63b 1d32 8fbd e43e 103e 596f 613e
00000210: 8ea2 e5bd a6f3 bb3c c580 05be edeb f73d
00000220: 6609 0c3e 1b74 bd3d 7913 39bd 5978 7dbd
00000230: 06d0 2dba ffe3 1abe add2 bd3c 9398 2abb
00000240: 0d87 933d 986e bcbb 7a8a 1e3d 9ae6 e23c
00000250: 666a 57bd 97cc 9ebc 3469 ecbc aaaa 4d3c
00000260: 219d 93bd 6848 8f3d 03e7 10bd fafb a4bd
00000270: b5a9 133d 2e86 c63b c862 e4bc e2be 8fbc
00000280: fdb9 d23d 5463 febd 8a2c f3bd efd0 6c3e
00000290: f345 bbbd 91eb 723d a4c5 b6bd afc0 c23d
000002a0: 3a60 8a3d b57e 0e3e fc28 d7bc d9f8 53bd
000002b0: 785c a53c 8ff4 16bd f203 b53c 0410 cdbb
000002c0: ff15 8c3d 53da 5abd b7c3 d9bb 8ffa 333e
000002d0: f1d3 12be a792 6dbd b08c 7bbd 5d80 083e
000002e0: 055e 80bd 38f1 363e 2164 eebd 34e6 0ebd
000002f0: e04b 1cbc 816d 52bd 266e 363d b633 8bbd
00000300: 5ed1 803c 4013 2f3c e76f e23d 2869 5b3e
00000310: 877d 21be 6bf9 eebc 1d7f 7dbd 1093 1f3e
00000320: 0587 923d bc0c f73d 143d d0bd af87 94bc
00000330: 9046 b5bc 277b d0bd c5a5 603d 272a 81bd
00000340: 59ba 283e 7d8e 553c 3796 20be 38b6 56bd
00000350: 4eec abbd bb4b b6bd 84f5 00be eb0b 903c
00000360: 8079 0c3e 3439 bc3c d6c0 143b c4d4 5dbd
00000370: 161a ca3d f37e ea3d 61d2 c6bd c831 f43c
00000380: db8b 533e 1609 743d 574c b63c 43f6 dabc
00000390: d01b 213d 75a3 003d fe9d 11be 4927 b33c
000003a0: 3d95 3d3d 1ac9 eebd d7cb edbd e1da 65bc
000003b0: 2e84 993d 916e 093d afdf fbbc cb25 19be
000003c0: 1315 083e 88a5 293e 8371 a0bd 1189 b43c
000003d0: 183a e33d a9bd d6bc cc02 08be c0f6 c5bd
000003e0: fb1b 01bc 2d2d 62bd 39de b2bd 2a84 cf3d
000003f0: 3e8b 8d3b baff 393d 614a 6a3c a3a1 0dbe
-0.07283309 -0.046811078 -0.2509977 0.13924454 0.016482754 -0.0010227602 0.017339109 -0.06126368
0.09261706 0.039844252 -0.013060323 0.08134303 -0.006698716 -0.023505252 0.062131338 -0.107691884
-0.11368021 -0.10042539 0.051091027 -0.057093866 0.09738446 0.09708212 0.049185064 -0.02656783
0.09078407 -0.0268845 -0.020369725 0.026391536 -0.2148315 0.097575374 0.015018264 0.062333424
0.058335394 0.03019135 0.079219505 0.21309781 -0.14984512 -0.04097282 -0.085745364 0.16355501
0.013770863 0.12923397 -0.10245047 -0.024759334 0.002311564 -0.06824979 0.052185252 -0.0450811
0.006744032 -0.0023003262 -0.0007407711 -0.016329244 -0.031092014 0.017128749 0.012476632 -0.019224888
-0.0124469055 0.01415696 0.002621933 0.0032106054 0.0035026055 -0.0040760236 0.005139936 -0.0026148125
0.025406277 0.013730236 -0.022475079 -0.023645505 0.055159617 0.0012832856 -0.0030155564 0.024070857
-0.00033808567 0.015582839 0.02045042 -0.013308414 -0.023036245 -0.042331584 -0.00917809 0.0069829174
-0.15183078 0.025781617 -0.07175455 -0.022312695 0.0123605905 0.028788405 0.036853805 0.102624044
-0.0014173252 0.0817354 0.017783491 0.09756812 -0.09922584 -0.1392548 -0.032588623 0.10007564
0.13051666 -0.13097486 -0.0029983183 0.15754457 -0.09723736 0.0833015 -0.10211773 0.08464244
-0.02222421 0.14049168 -0.05848465 -0.11565251 0.054143127 -0.06586229 0.039106507 0.048691366
-8.421403e-05 -0.18467492 0.038179513 0.038037326 0.0063989935 0.10779316 -0.17315738 0.08311291
0.091114685 -0.077613205 0.076257735 -0.0299927 0.0026224765 0.141672 0.055378906 -0.03806002
0.0070376084 -0.0699198 0.14086491 0.22015132 -0.112126455 0.022943329 -0.13037403 0.12105546
0.1367546 0.09250661 -0.045184586 -0.06188235 -0.0006630424 -0.15126036 0.023171747 -0.0026030883
0.07203493 -0.0057504885 0.03870628 0.02769785 -0.052591704 -0.019384665 -0.028858759 0.0125528965
-0.07207704 0.06996232 -0.03537656 -0.08055873 0.036050517 0.006058476 -0.027879134 -0.017547075
0.10289381 -0.12421289 -0.118737295 0.23126577 -0.09144201 0.059306685 -0.08924416 0.09509408
0.06756635 0.13915522 -0.02626466 -0.05175099 0.020185694 -0.036854323 0.022096608 -0.0062580127
0.06840133 -0.053430866 -0.0066456455 0.1757605 -0.14338662 -0.058001187 -0.061413467 0.13330217
-0.06267933 0.17865455 -0.11640192 -0.034887508 -0.009539574 -0.051373962 0.04453864 -0.067969725
0.015724834 0.010685742 0.110565 0.21426833 -0.15770541 -0.029171666 -0.061888803 0.15583444
0.07154659 0.12062976 -0.101679 -0.018131105 -0.022128373 -0.101797394 0.05484559 -0.06306868
0.16477336 0.01303446 -0.15682302 -0.05241987 -0.08394681 -0.08901163 -0.12593657 0.017583808
0.13718224 0.022976495 0.0022697947 -0.054157987 0.09868257 0.11449995 -0.09708095 0.029808894
0.2065882 0.059578978 0.022253199 -0.026728755 0.039333165 0.031405885 -0.14220425 0.021869319
0.046284903 -0.11659451 -0.11611145 -0.014029236 0.074959144 0.03355271 -0.03074631 -0.14955823
0.13289289 0.16567051 -0.07834151 0.022038015 0.11095065 -0.026213484 -0.13282317 -0.096662045
-0.007880206 -0.055218864 -0.08733792 0.1013263 0.0043195775 0.045409895 0.01429996 -0.13831191

positional_embedding_table.weight f4 [8, 16]
00000000: 464b 183c 6d21 8fbd 0afc 0e3c 2826 8c3d
00000010: 7313 3cbd 3be1 e23d 9d30 9bbc a88c c23c
00000020: 38f8 67bd 29be 04bc e0df d9ba 7e8d 533e
00000030: 13fb 443d d999 7a3d fc84 80be f5a7 0ebd
00000040: 34c9 693c e16d 42bd 33c6 823a 488e 0d3d
00000050: b1d7 9abc 5318 e53d 54fa 0dbb 97d6 483d
00000060: d67f ecbc 6d32 7cbc 23a8 69bc 340b 263e
00000070: 97c3 3c3d ff0d b53c 561c 32be 67d7 5abb
00000080: a5d5 973c 64bb 39bd 3eb0 cbbc 2376 b13a
00000090: ebcd 6bbb ed62 b03d 5082 babc c038 803d
000000a0: 1de2 b8bc fec2 aabc 284a cdbc 1029 dd3d
000000b0: a10d bb3c 5e54 a1bc 249a 02be b171 55bc
000000c0: 53a5 943c 61b5 13bd 3087 46bd 73b8 bfbc
000000d0: f30d c03c 1b87 8c3d 551f b9bc 3190 a23d
000000e0: 9f8b 13bc 2df2 97bc dc59 71bc 84cd a03d
000000f0: 895a f93b 8a74 35bd 1cbd 94bd 3e3b 22bc
00000100: a85d d23c 09f6 8fbc 9346 6ebd 5070 54bd
00000110: ed27 3a3d 74d7 483d 8a10 dbbc 4536 be3d
00000120: b0ac a13b 5c01 21bc 1034 1d38 967f 523d
00000130: a0cd e8bb 2617 85bd 18d4 93bc 5314 6dbc
00000140: 4139 cf3c 4681 56bb 6395 9bbd 0a5b a4bd
00000150: 9140 943d 1463 133c 807e 47bd 663b c93d
00000160: f454 d13b 625c 623b ceb1 963c f3cb ed3b
00000170: e29d 0cbd 3903 a8bd 461c 103d f0ab 7dbc
00000180: dc36 a23c fb78 3e3c 23c7 8dbd a17e b9bd
00000190: 406a 063e 89b9 fcbc 08de 9ebd 1a5c c93d
000001a0: 4531 773c 3cb3 d93c 5448 963d ec89 e0bc
000001b0: 7607 3fbd 49fd cdbd 7cd5 e13d 3db0 c73b
000001c0: 76ad b33c 7beb f93d 7f0b f7bd a5f1 8dbd
000001d0: 6cf3 7f3c b293 88bd 829e 423d 014d 543d
000001e0: 55c0 183d 667a a1bd c626 e7bb 1508 3dbe
000001f0: 7e50 82bd 1983 cabd f64a 8d3e fb59 4f3d
0.00929529 -0.06988797 0.008727083 0.06843215 -0.045916986 0.110781156 -0.018944079 0.02374871
-0.056633204 -0.008101978 -0.0016622506 0.20659444 0.048091006 0.061181877 -0.2510146 -0.034828145
0.014269162 -0.04746807 0.0009977281 0.034559518 -0.018901678 0.1118628 -0.00216641 0.049032774
-0.02886955 -0.015392882 -0.014261278 0.16215211 0.046084967 0.0221014 -0.17393622 -0.003339255
0.01853449 -0.045344725 -0.024864312 0.0013539236 -0.003598089 0.086126186 -0.022767216 0.06260824
-0.022568757 -0.020844933 -0.025059775 0.10798848 0.022833647 -0.01969355 -0.12754112 -0.013027594
0.018145239 -0.03606165 -0.04846877 -0.023403382 0.023444152 0.06861707 -0.022597948 0.079376586
-0.009005456 -0.018548096 -0.014730897 0.07851699 0.0076096696 -0.044300593 -0.07262632 -0.00990182
0.025679424 -0.017573373 -0.058172774 -0.051864922 0.045448232 0.049033597 -0.026741285 0.09287695
0.004933916 -0.009826984 3.7480204e-05 0.051391207 -0.0071045905 -0.06498556 -0.01804547 -0.014470178
0.025295855 -0.0032730862 -0.07596853 -0.08025177 0.072388776 0.00899579 -0.048704624 0.098257825
0.006388301 0.0034539928 0.01839533 0.0072569787 -0.034330256 -0.0820374 0.035183214 -0.015482888
0.01980155 0.011625524 -0.06922748 -0.09057356 0.13126469 -0.030850189 -0.07757193 0.0983202
0.01508743 0.026574723 0.07338014 -0.027409516 -0.046637975 -0.10058076 0.11027047 0.0060940073
0.021933299 0.122031175 -0.120627396 -0.06930856 0.015622001 -0.06668796 0.047514446 0.05183125
0.037292797 -0.07884674 -0.0070541827 -0.18460114 -0.06363009 -0.09888286 0.27596253 0.05062292

heads.0.heads.0.tril f4 [8, 8]
00000000: 0000 803f 0000 0000 0000 0000 0000 0000
00000010: 0000 0000 0000 0000 0000 0000 0000 0000
00000020: 0000 803f 0000 803f 0000 0000 0000 0000
00000030: 0000 0000 0000 0000 0000 0000 0000 0000
00000040: 0000 803f 0000 803f 0000 803f 0000 0000
00000050: 0000 0000 0000 0000 0000 0000 0000 0000
00000060: 0000 803f 0000 803f 0000 803f 0000 803f
00000070: 0000 0000 0000 0000 0000 0000 0000 0000
00000080: 0000 803f 0000 803f 0000 803f 0000 803f
00000090: 0000 803f 0000 0000 0000 0000 0000 0000
000000a0: 0000 803f 0000 803f 0000 803f 0000 803f
000000b0: 0000 803f 0000 803f 0000 0000 0000 0000
000000c0: 0000 803f 0000 803f 0000 803f 0000 803f
000000d0: 0000 803f 0000 803f 0000 803f 0000 0000
000000e0: 0000 803f 0000 803f 0000 803f 0000 803f
000000f0: 0000 803f 0000 803f 0000 803f 0000 803f
1.0 0.0 0.0 0.0 0.0 0.0 0.0 0.0
1.0 1.0 0.0 0.0 0.0 0.0 0.0 0.0
1.0 1.0 1.0 0.0 0.0 0.0 0.0 0.0
1.0 1.0 1.0 1.0 0.0 0.0 0.0 0.0
1.0 1.0 1.0 1.0 1.0 0.0 0.0 0.0
1.0 1.0 1.0 1.0 1.0 1.0 0.0 0.0
1.0 1.0 1.0 1.0 1.0 1.0 1.0 0.0
1.0 1.0 1.0 1.0 1.0 1.0 1.0 1.0

heads.0.heads.0.key.weight f4 [4, 16]
00000000: 6135 a5be f728 0e3d 357d 7fbe 7129 393f
00000010: d3af 84be 8c64 16ba 9927 2dbf 6439 0dbe
00000020: 8692 133f 024f 1a3c 057d c6be 8f37 64be
00000030: b714 2f3f 7d1a b63e 5749 bd3e 230b 71be
00000040: 1641 003f bae2 cebe f989 66be 7819 d7be
00000050: 5ec7 b73e a59a 603d e22d 7dbe 3242 0e3f
00000060: 3902 edbd 94ed 913e 028d d33e 81dd a13e
00000070: d99a a0be 9a2e 12be 84d5 babd dbc5 85be
00000080: 403f 17be 5471 8ebe aec2 423e 1abe ebbe
00000090: 8730 143e 0303 b53e 311c 893f 887d f8bd
000000a0: 0cf4 5bbe 1081 d63e 709c 1bbd 18f0 8e3e
000000b0: 5205 65bf a919 8abe ce0b 09bf 0660 b03d
000000c0: dba8 a43e 76aa 16bf 2a08 2abf ccc5 4f3e
000000d0: fea6 c43d c681 1c3e c7c1 09bf 4750 273f
000000e0: a356 b13b 4945 ea3e 2628 ec3e 338c b63e
000000f0: cc14 143e 5383 edbd e4d3 b6bd 6dff fabe
-0.32267287 0.034707036 -0.24950106 0.7232886 -0.25915393 -0.00057370286 -0.67638546 -0.13791424
0.5764545 0.009418251 -0.38767257 -0.22286819 0.68390983 0.35567084 0.36970016 -0.23539405
0.50099313 -0.40407354 -0.2251357 -0.4201162 0.35894293 0.05483498 -0.24724534 0.55569756
-0.115726896 0.2850157 0.41318518 0.31614307 -0.3136814 -0.1427559 -0.09122756 -0.26127514
-0.14770222 -0.27820837 0.19019577 -0.46043473 0.14471637 0.3535386 1.0711728 -0.12133318
-0.21479815 0.41895342 -0.037990987 0.27917552 -0.89461243 -0.26972702 -0.5353364 0.08612065
0.32160076 -0.5885385 -0.6641871 0.20290297 0.09602164 0.1528388 -0.53811306 0.6535687
0.005411939 0.45755985 0.4612438 0.3565384 0.14461058 -0.11597314 -0.08927134 -0.49023

heads.0.heads.0.query.weight f4 [4, 16]
00000000: 6e43 1c3c 9394 833e 8c51 c1bd 8270 8bbe
00000010: ba8d e23e 7c76 51be dffd 143e 956e ebbd
00000020: 0850 bebb 2119 cebd 2e4f fa3d 37e5 4fbe
00000030: 3cbb 78be 63ab 5abd 390f b63e c1ae 1f3d
00000040: a8d5 c13d 3885 6f3d e2c5 5ebd 4aa5 703e
00000050: 6052 58be d18d 993d 505b b4be 47c5 98ba
00000060: 1b2d 033e e84f 043d cd25 48be b37f 82bd
00000070: 10e3 9b3e cee2 3f3e 11c1 1abe d05a 8abd
00000080: bc2f 243d 0720 e6bd 14aa cf3d 86b0 283e
00000090: c284 1bbe adb0 853e 1d70 e5bd 6d3c b23d
000000a0: 0dca 42bd fc5b 0fbe 6965 42be 7457 8b3e
000000b0: ef2f 393e 8e3c 263e 4f04 15bf a59f a8bd
000000c0: 7dca 823e b174 973e 6bf4 edbd 0f3c 303e
000000d0: 8723 7a3d 53d8 16be 925b ddbe 547f 13be
000000e0: 5407 6a3e a797 acbd 49c7 82be 838d 22be
000000f0: c9c9 a33e 93bc 7d3e a5b0 7ebd 8bbe 0ebe
0.009537561 0.2569929 -0.09439382 -0.27234274 0.44248754 -0.20455354 0.14549969 -0.11495701
-0.0058078803 -0.10063387 0.122221336 -0.20302282 -0.24290174 -0.053386103 0.3555849 0.038985018
0.0946458 0.058476657 -0.054387935 0.23500553 -0.21125174 0.074977525 -0.35225916 -0.0011655473
0.12810175 0.032302767 -0.1954567 -0.06372013 0.30446672 0.18738863 -0.15112711 -0.06755602
0.040084586 -0.112365775 0.10139862 0.16473588 -0.15187362 0.26111355 -0.112030245 0.087029316
-0.047555972 -0.13999933 -0.18983997 0.2721516 0.18084691 0.16234037 -0.582097 -0.08233575
0.2554511 0.29581216 -0.11618885 0.1721041 0.061069038 -0.14730959 -0.43233925 -0.1440404
0.22854358 -0.08427363 -0.25542668 -0.15874295 0.31989887 0.24778967 -0.06218018 -0.13939874

heads.0.heads.0.value.weight f4 [4, 16]
00000000: c2e0 0ebd 059a 02bd 5d68 ab3d 2489 61bd
00000010: 34c0 b33b af20 d9bc fbf6 24bc c28e c63b
00000020: e4e5 0ebe 560b 023d 9ef1 dd3d d038 fb3c
00000030: f91a 4cbd 1667 6cbd 2f43 7abb 65b8 17bd
00000040: e89c 2e3d fc3e 1c3d cb30 13bd 2bea 62bb
00000050: 3f56 bdbd 6ed4 943d e5e6 c4bd 8a6b 8a3d
00000060: 8cf0 23bd 2715 9a3d 60ed 78bc de6b 2ebd
00000070: 180b 8b3d 472d 1a3c 91a4 62bc 02e7 743d
00000080: 559f 2bbc c915 f0bd 1e15 01bd 137e 30bd
00000090: 57fc b63d 6527 393d 91ee 0dbd 4f81 0e3d
000000a0: 5561 12be 93a9 803d ec48 2b3e bfc6 b93d
000000b0: 3a18 27bd 05bb ba3c 7c46 d4bc 2871 b5bc
000000c0: 9512 e0bd ec01 243d af1e 10bd 7349 cb3b
000000d0: cbe0 023d 7203 8a3d aa7e 8f3d 4743 47bd
000000e0: 65f4 cebb 7bdb b5bd c711 193d 3820 633c
000000f0: bd8f 83bd cc45 ac3d 1eac 80b9 0df1 a93d
-0.034882315 -0.031885166 0.08369515 -0.055062428 0.005485559 -0.026504843 -0.01006865 0.0060594985
-0.13954884 0.031749092 0.108371004 0.030666739 -0.04983041 -0.057715498 -0.0038187017 -0.037041087
0.042630106 0.038146004 -0.035935204 -0.0034624438 -0.09244966 0.0726708 -0.09614352 0.06758793
-0.040024325 0.07523566 -0.015193313 -0.04258334 0.06789225 0.009410209 -0.013833181 0.05979062
-0.010474999 -0.11722905 -0.03151428 -0.043088984 0.08934849 0.045203585 -0.034651343 0.034791287
-0.14294942 0.06282344 0.16727036 0.09071111 -0.04079459 0.022794256 -0.025912516 -0.022148684
-0.10941044 0.040040895 -0.035185512 0.006203824 0.03195266 0.067389384 0.07006581 -0.048648145
-0.006315755 -0.08879753 0.03737047 0.013862662 -0.064239 0.0841175 -0.000245423 0.0829793

heads.0.heads.1.tril f4 [8, 8]
00000000: 0000 803f 0000 0000 0000 0000 0000 0000
00000010: 0000 0000 0000 0000 0000 0000 0000 0000
00000020: 0000 803f 0000 803f 0000 0000 0000 0000
00000030: 0000 0000 0000 0000 0000 0000 0000 0000
00000040: 0000 803f 0000 803f 0000 803f 0000 0000
00000050: 0000 0000 0000 0000 0000 0000 0000 0000
00000060: 0000 803f 0000 803f 0000 803f 0000 803f
00000070: 0000 0000 0000 0000 0000 0000 0000 0000
00000080: 0000 803f 0000 803f 0000 803f 0000 803f
00000090: 0000 803f 0000 0000 0000 0000 0000 0000
000000a0: 0000 803f 0000 803f 0000 803f 0000 803f
000000b0: 0000 803f 0000 803f 0000 0000 0000 0000
000000c0: 0000 803f 0000 803f 0000 803f 0000 803f
000000d0: 0000 803f 0000 803f 0000 803f 0000 0000
000000e0: 0000 803f 0000 803f 0000 803f 0000 803f
000000f0: 0000 803f 0000 803f 0000 803f 0000 803f
1.0 0.0 0.0 0.0 0.0 0.0 0.0 0.0
1.0 1.0 0.0 0.0 0.0 0.0 0.0 0.0
1.0 1.0 1.0 0.0 0.0 0.0 0.0 0.0
1.0 1.0 1.0 1.0 0.0 0.0 0.0 0.0
1.0 1.0 1.0 1.0 1.0 0.0 0.0 0.0
1.0 1.0 1.0 1.0 1.0 1.0 0.0 0.0
1.0 1.0 1.0 1.0 1.0 1.0 1.0 0.0
1.0 1.0 1.0 1.0 1.0 1.0 1.0 1.0

heads.0.heads.1.key.weight f4 [4, 16]
00000000: 782c 173e abaa 243f 8195 2d3e ef27 8d3e
00000010: 5fba 8cbe 4fd7 e2be e77b 95be 0b3b 4bbe
00000020: 7440 77be 291a b0be c36a b6be 2605 6dbe
00000030: eb62 1b3f 433c debd 8f72 a43e cde2 bc3e
00000040: c732 ae3e 22cb 433e 4242 a3bd 98f9 4d3e
00000050: 92a8 54be 0177 643d fae0 7dbe 5297 ae3e
00000060: 8520 21bf c2c3 11be 5aae 32bd 752a 173e
00000070: c1ad ec3e cd18 01bf 50ca 25be 4ba4 383d
00000080: bc38 a33e 7449 1b3e af61 94be 6d5c b4bb
00000090: c864 4a3e d8f5 cebd 91ee 2fbe 2fcf da3e
000000a0: ada6 0fbf 0cae a2bd a6c9 f33d 58f2 ce3d
000000b0: 796b 373e d04d 1cbf c8d6 e43d 0934 a73d
000000c0: 5d3a 373b e54e 79be 39a0 90bf 29ec cfbd
000000d0: ce99 093f 61ae 753f 65c6 723d b2e5 953f
000000e0: ec0a 06bf a5e7 50be 6886 6e3f 3df3 783f
000000f0: 9420 f0be a2d5 3ebf 892a 29bf 7a30 78bf
0.14763057 0.6432292 0.16951562 0.2756953 -0.2748594 -0.44304892 -0.29196092 -0.19846742
-0.2414568 -0.3439496 -0.35628328 -0.23146495 0.6069781 -0.10851338 0.3211865 0.36891785
0.34023115 0.19120458 -0.07971622 0.20114744 -0.2076743 0.055777553 -0.24792853 0.34099823
-0.62940246 -0.14234832 -0.043623306 0.1476229 0.46226314 -0.5042847 -0.16190457 0.045078557
0.31879222 0.15164739 -0.28980777 -0.005504182 0.19765007 -0.10105485 -0.1718085 0.42736194
-0.561137 -0.07943353 0.11903696 0.10104817 0.17912091 -0.6105623 0.11173779 0.08164222
0.0027958371 -0.24346502 -1.1298896 -0.10152466 0.5375031 0.95969206 0.059271235 1.1710722
-0.52360415 -0.20400865 0.9317384 0.9724615 -0.46899855 -0.7454473 -0.6608053 -0.9694897

heads.0.heads.1.query.weight f4 [4, 16]
00000000: b1dd 90bd 329d 3cbe 3398 e93d 2d49 6fbe
00000010: ee22 cdbd f49d 0ebd 05b4 a0bc 8161 c03d
00000020: 2f89 7b3e 8d64 b73e c503 853e c321 abbe
00000030: b97a 3cbe 2bde aabe b88c 9c3e 696f 653a
00000040: 4124 cfbe fce3 98be 00d6 ba3e 5965 4dbe
00000050: bd33 b5be 3fe4 183e 37e6 623e 0e11 a73c
00000060: a6db 523c fa60 a33e b0bc 5a3e b077 efbd
00000070: 9dbc a6bd 5de2 413e bffb 9abe 532d 573e
00000080: 8a54 43be bb88 b4be c939 eb3d 4c64 e5be
00000090: de91 5cbe 0ae9 56bc 1310 ba3e 0d74 72be
000000a0: 4e68 073e a66a a53e ed55 1bbe 9539 ecbd
000000b0: 330e 853c efbd de3e 6949 2dbe 2a2b 7c3e
000000c0: 75a4 503d 18e8 43be 6c6c 213e 5be0 6abd
000000d0: abbc 1bbe c4c4 c33d 3bb9 813d c767 6dbe
000000e0: 3548 8cbe 7d20 303d 1af8 80be 067c a63e
000000f0: 0954 aa3e c6c2 0d3f 5c8a 1ebf 5286 943d
-0.07073534 -0.1841934 0.11405983 -0.23367758 -0.10016428 -0.034818605 -0.01961709 0.093935974
0.2456405 0.35818902 0.25979438 -0.33424196 -0.1840619 -0.33372626 0.3057611 0.0008752258
-0.40457347 -0.29861438 0.36491394 -0.20058192 -0.35391036 0.14930819 0.22158132 0.020393874
0.012869751 0.31909925 0.21361041 -0.116927505 -0.08141444 0.18934007 -0.30270192 0.21013384
-0.19075218 -0.35260567 0.11485631 -0.44803083 -0.21540019 -0.013117084 0.3634039 -0.23677082
0.13223383 0.3230793 -0.15169497 -0.115344204 0.016242122 0.43504283 -0.16922535 0.24625841
0.05093809 -0.19131505 0.15764016 -0.05734287 -0.1520869 0.095590144 0.06334158 -0.23184119
-0.2739884 0.042999733 -0.25189286 0.32516497 0.3326724 0.55375326 -0.6192987 0.07252182

heads.0.heads.1.value.weight f4 [4, 16]
00000000: 5da3 16bd 5780 12bb 558d 89bd 2868 343b
00000010: 2de3 9bbc a13a 0e3c a58d f73d 8b1f 7dbd
00000020: 5243 2f3d 11ef 6dbd 1a4a 86bd e2b4 3dbc
00000030: f110 bebc f401 143e cb8f 853d e85f 133d
00000040: 9713 133d 6a55 8f3d e087 2abd 097e b43d
00000050: 104a b0bd 3d92 22bd cbc3 17bd 2e31 bf3c
00000060: 8011 29bd d649 7bbd 34e8 8d3c 0ddb c1bb
00000070: 1dc9 c53d 085a 13be 3f9b 08bc b35d db3c
00000080: 12d5 c53c cee1 97bd 34f9 ab3c a8fb 4c3c
00000090: 16ea c1bd 1485 07bc a3bd 413d 6dac 5b3d
000000a0: ef6d e33d 68f6 d13d 545e 0ebc 80e0 cfbc
000000b0: 5669 84bd a325 41bc 355d 7d3c 364e 9bbd
000000c0: d6ea 35bd e3d5 0a3d c2db c63c 0efe 48bd
000000d0: 79c9 b1bd bd5a 803c 47cd 7a3d 350b 11bc
000000e0: 8e75 443d ab47 cd3c e3d8 04bd 8504 aebd
000000f0: d94b 4d3d 25ce f53c 3bfe 87bb 1103 953d
-0.03677689 -0.0022354329 -0.0671641 0.0027527902 -0.019029224 0.00868097 0.120875634 -0.06179766
0.04278881 -0.05808932 -0.065571025 -0.01157877 -0.023201438 0.1445387 0.06521567 0.035980135
0.035907354 0.06998713 -0.041633487 0.08813102 -0.08607876 -0.039690245 -0.037051957 0.02333888
-0.041276455 -0.061349712 0.017322637 -0.0059160055 0.096575 -0.14389813 -0.008337795 0.026778078
0.024149451 -0.07416116 0.020992853 0.012511171 -0.094684765 -0.008271474 0.047299992 0.053631235
0.111049525 0.102520764 -0.008689482 -0.025375605 -0.06465404 -0.011788758 0.015464117 -0.07583277
-0.04441341 0.033895385 0.02427471 -0.04907041 -0.08681006 0.015668267 0.061230924 -0.00885277
0.04796367 0.025058588 -0.0324334 -0.08496956 0.050121162 0.030005524 -0.0041501797 0.072759755

heads.0.heads.2.tril f4 [8, 8]
00000000: 0000 803f 0000 0000 0000 0000 0000 0000
00000010: 0000 0000 0000 0000 0000 0000 0000 0000
00000020: 0000 803f 0000 803f 0000 0000 0000 0000
00000030: 0000 0000 0000 0000 0000 0000 0000 0000
00000040: 0000 803f 0000 803f 0000 803f 0000 0000
00000050: 0000 0000 0000 0000 0000 0000 0000 0000
00000060: 0000 803f 0000 803f 0000 803f 0000 803f
00000070: 0000 0000 0000 0000 0000 0000 0000 0000
00000080: 0000 803f 0000 803f 0000 803f 0000 803f
00000090: 0000 803f 0000 0000 0000 0000 0000 0000
000000a0: 0000 803f 0000 803f 0000 803f 0000 803f
000000b0: 0000 803f 0000 803f 0000 0000 0000 0000
000000c0: 0000 803f 0000 803f 0000 803f 0000 803f
000000d0: 0000 803f 0000 803f 0000 803f 0000 0000
000000e0: 0000 803f 0000 803f 0000 803f 0000 803f
000000f0: 0000 803f 0000 803f 0000 803f 0000 803f
1.0 0.0 0.0 0.0 0.0 0.0 0.0 0.0
1.0 1.0 0.0 0.0 0.0 0.0 0.0 0.0
1.0 1.0 1.0 0.0 0.0 0.0 0.0 0.0
1.0 1.0 1.0 1.0 0.0 0.0 0.0 0.0
1.0 1.0 1.0 1.0 1.0 0.0 0.0 0.0
1.0 1.0 1.0 1.0 1.0 1.0 0.0 0.0
1.0 1.0 1.0 1.0 1.0 1.0 1.0 0.0
1.0 1.0 1.0 1.0 1.0 1.0 1.0 1.0

heads.0.heads.2.key.weight f4 [4, 16]
00000000: 2665 343d 362e 603d f571 2b3e b762 523e
00000010: f50e 09bf cbc2 28bf 6668 4d3e fcce bbbd
00000020: 26a3 7c3e 6f3c 0bbf deb2 903d 0b03 67bf
00000030: c235 063f 408f 8b3e ffc7 a43e 1355 dc3e
00000040: 27be 3a3d 36db 81be 326a 31bf 083d 4fbf
00000050: 960b a43e 17f2 933e 72aa d5be 1708 333d
00000060: 16ea 603e 682b 6c3f edf8 40bd a11d 273f
00000070: a4a7 77be 7cb1 8a3e b6df 93bd b9f6 8d3e
00000080: d793 cb3e 42d6 a6be 2fc3 06be d320 b3be
00000090: 38a6 f1bd fbbd 153f 2917 32be f9ac a5be
000000a0: 3b7a 763d 25a5 eb3e 68ca 04bf 0b16 5b3f
000000b0: c57a d6be 7bb2 973e fe85 133d 16af 49be
000000c0: 0bf9 1f3e 9f5e 41bd 2bf4 99bd d9da 6f3c
000000d0: 3245 363f d784 b63e 2e46 4dbd 61cd c93e
000000e0: 856a e1be 3dbf 513e 8995 c43e de3d ef3e
000000f0: 5c69 04bf 45ba 2bbf 3aa9 96be 1ece 4fbf
0.044041775 0.05473157 0.1674269 0.20545469 -0.5353845 -0.6592223 0.20059356 -0.091703385
0.24671611 -0.5438909 0.07065366 -0.9023902 0.5242578 0.2725773 0.32183835 0.43033656
0.0455915 -0.25362557 -0.69302666 -0.809525 0.3204009 0.28895637 -0.41731602 0.043708887
0.21964297 0.9225373 -0.047112394 0.65279585 -0.24185044 0.27088535 -0.07220404 0.27727297
0.3976123 -0.3258534 -0.13160394 -0.3498598 -0.11799282 0.5849301 -0.17391647 -0.3235853
0.06017516 0.46024433 -0.5187135 0.8558051 -0.4189054 0.29628357 0.036016457 -0.19695696
0.15622346 -0.04720938 -0.075172745 0.01463958 0.71199334 0.35648224 -0.050115757 0.39414504
-0.4402658 0.20483108 0.38395336 0.46726888 -0.51723266 -0.670811 -0.29425985 -0.81173885

heads.0.heads.2.query.weight f4 [4, 16]
00000000: e131 e43c 160e e33d 1770 143d 38cc efbd
00000010: 4764 713e 9961 8cbd 74c6 acbd 60b1 163b
00000020: c8eb 313c 11c5 233e 1ef6 18be 95ed 24be
00000030: eb8b 68be 94c8 41be d4af 0e3f 17e5 bb3d
00000040: 6726 76be e393 6a3d 7459 373e cc89 b93e
00000050: daf2 83be b2c2 063d cc6a 8c3e 68e6 593e
00000060: 7de3 15be be81 6bbe 42ce 763e 6ccb 40bd
00000070: 8a47 513c 12a1 c53c 6b0d 42bf b7d6 cabd
00000080: 4c4e 50be 21cc 45bd 5f09 153e 1ca4 883e
00000090: fa38 9bbe ac0e 3e3e 1204 0d3d 1bb0 6e3d
000000a0: 8156 0cbe a21e b83d 3465 21be 0088 e83e
000000b0: 540e 30bd 3302 c23d e061 50bf 61a7 63bd
000000c0: e0db 0d3d 0641 62be b9c6 3cbe 848b 93bd
000000d0: fdf4 99be e7cd 30bc 5326 2a3e 2cb9 b4bd
000000e0: e6a3 ae3d 79e1 21be 99a3 973e 22dd a13d
000000f0: c63a d43e c172 673e c630 c9be 1231 fa3d
0.027855815 0.11086671 0.03623971 -0.117088735 0.23573409 -0.06854553 -0.084362894 0.0022993907
0.010859437 0.15993144 -0.14937636 -0.16106255 -0.22709624 -0.1892417 0.5573704 0.09174555
-0.24038087 0.057269942 0.17905217 0.36237943 -0.2577122 0.03290052 0.2742523 0.212793
-0.14637561 -0.22998711 0.24102119 -0.047069 0.012773404 0.024124656 -0.75801724 -0.09904235
-0.20342368 -0.048290376 0.14554356 0.26687706 -0.30316907 0.18560284 0.03442771 0.058273416
-0.13704874 0.08990218 -0.15761262 0.4541626 -0.042982414 0.09473076 -0.81399345 -0.055579547
0.034633517 -0.22095117 -0.18435182 -0.07204345 -0.30069724 -0.010791278 0.16616182 -0.08824381
0.08527355 -0.15808667 0.29617003 0.07903506 0.4145109 0.22602369 -0.39295024 0.12216391

heads.0.heads.2.value.weight f4 [4, 16]
00000000: 1cf0 aa3d cf13 ebbc 914a c0bc b45e 59bd
00000010: bda4 473d 0214 373d 0948 8abd f6f6 e1bd
00000020: 19d3 e13d bc4d 27bc 6281 9b3c aedf f73b
00000030: f655 50bc f3a2 b03d 0ef8 6cbc dc0a 5a3d
00000040: f358 7b3c cb2e b3bb 1ba3 68bd bc33 48bd
00000050: 1753 dd3d e1cc c33c 1ada f8bd 995e d83d
00000060: cf22 8fbd 58aa af3d b7d2 463d cea9 453d
00000070: e6d6 45bd 6c0f ae3b d2d0 68bd 3368 06bd
00000080: 143d f5bd b7fb 0ebd 99b4 78bd f0ed 9bbc
00000090: bab0 ec3c 90be 0abd 50ad ea3d bf60 5dbd
000000a0: 283e abbc d416 86bc 1e6a 853c e29f 2a3d
000000b0: 6e33 ac3d d518 883d 924a 903d ae0d a03d
000000c0: 47de 62bc a708 5d3d abd1 22bd 4ef0 ac3d
000000d0: 1b61 153d e37b 0c3d fd2b e23c 5d5f adbb
000000e0: 2a91 373d ffe1 cbbd 6929 e0bd b074 a8bb
000000f0: c512 b13c bfe7 49bc 8ece c23c 97bf 6ebc
0.083465785 -0.028695969 -0.023473056 -0.05306883 0.04874109 0.044696815 -0.06752021 -0.11033432
0.11026592 -0.010211404 0.018982593 0.0075645065 -0.012715807 0.0862483 -0.014463438 0.053233013
0.015341031 -0.0054682246 -0.056796174 -0.048877463 0.10806864 0.023901405 -0.121509746 0.10564918
-0.06989061 0.08577412 0.048540797 0.04825764 -0.048300646 0.005311897 -0.05683977 -0.032814216
-0.1197454 -0.034908023 -0.060719106 -0.019034356 0.028892864 -0.03387314 0.11458838 -0.054047342
-0.020903662 -0.016368307 0.016285952 0.041656382 0.08408247 0.06645361 0.07045473 0.07815109
-0.01384694 0.05396333 -0.039750736 0.08444272 0.03646956 0.034297835 0.027608866 -0.005290909
0.044816174 -0.09955215 -0.10945398 -0.0051408634 0.021615395 -0.012323319 0.023780134 -0.014572046

heads.0.heads.3.tril f4 [8, 8]
00000000: 0000 803f 0000 0000 0000 0000 0000 0000
00000010: 0000 0000 0000 0000 0000 0000 0000 0000
00000020: 0000 803f 0000 803f 0000 0000 0000 0000
00000030: 0000 0000 0000 0000 0000 0000 0000 0000
00000040: 0000 803f 0000 803f 0000 803f 0000 0000
00000050: 0000 0000 0000 0000 0000 0000 0000 0000
00000060: 0000 803f 0000 803f 0000 803f 0000 803f
00000070: 0000 0000 0000 0000 0000 0000 0000 0000
00000080: 0000 803f 0000 803f 0000 803f 0000 803f
00000090: 0000 803f 0000 0000 0000 0000 0000 0000
000000a0: 0000 803f 0000 803f 0000 803f 0000 803f
000000b0: 0000 803f 0000 803f 0000 0000 0000 0000
000000c0: 0000 803f 0000 803f 0000 803f 0000 803f
000000d0: 0000 803f 0000 803f 0000 803f 0000 0000
000000e0: 0000 803f 0000 803f 0000 803f 0000 803f
000000f0: 0000 803f 0000 803f 0000 803f 0000 803f
1.0 0.0 0.0 0.0 0.0 0.0 0.0 0.0
1.0 1.0 0.0 0.0 0.0 0.0 0.0 0.0
1.0 1.0 1.0 0.0 0.0 0.0 0.0 0.0
1.0 1.0 1.0 1.0 0.0 0.0 0.0 0.0
1.0 1.0 1.0 1.0 1.0 0.0 0.0 0.0
1.0 1.0 1.0 1.0 1.0 1.0 0.0 0.0
1.0 1.0 1.0 1.0 1.0 1.0 1.0 0.0
1.0 1.0 1.0 1.0 1.0 1.0 1.0 1.0

heads.0.heads.3.key.weight f4 [4, 16]
00000000: b17e 163e 5bdc 1cbe 11e0 a0bd d0e1 b0bd
00000010: 2ed5 073e f059 62bd 62bc 123d 5a7a 093f
00000020: edc7 6bbe 2fcd 0d3e 3b2f 413f 686f 9a3e
00000030: 95d1 04be 03e2 5fbf 7c4f 1fbf 2d9a 723d
00000040: 9220 80be 94bb fbbe 2513 16bf 5a6c 733e
00000050: 2efb 4e3e 3f5b 4b3e b588 69bb 8197 883e
00000060: 4b1c 0f3e 90c4 163f 7cb8 013f e6b6 193f
00000070: 250b 66be 0ca2 bdbe 7748 0bbf 3d8c 0d3c
00000080: 9593 0d3f dda5 91be 7f09 febe 63d1 59be
00000090: 126c 5f3f 0447 b0be 3378 333e 4db8 333f
000000a0: 118c 5b3e 7179 83bd 529f 233f a6da e63d
000000b0: bd66 a0be c217 a9be 7866 bdbe 24d2 97be
000000c0: edd7 bebe 2454 7b3f 95f1 5b3f b499 573e
000000d0: 1a19 96bd 730d 69be de3b f5be 3095 2f3d
000000e0: e79e 3cbf b0eb 0cbf ed8a c6be 1325 c2be
000000f0: ba4e fe3d 8f3c 12bf fb07 203f ce6c 963e
0.14696766 -0.15318434 -0.07855237 -0.0863682 0.13264915 -0.055261552 0.035824187 0.5370232
-0.23025484 0.13847803 0.7546269 0.3016312 -0.12970574 -0.8745424 -0.6223066 0.059229065
-0.2502485 -0.49166548 -0.5862296 0.23771802 0.20213005 0.19859026 -0.0035634462 0.26678088
0.13975637 0.5889368 0.50672126 0.60044706 -0.22465189 -0.37037694 -0.5440745 0.008639392
0.5530332 -0.28446856 -0.4961662 -0.21271281 0.8727428 -0.3442918 0.17526321 0.70203096
0.2144015 -0.064196475 0.6391498 0.11272173 -0.31328383 -0.33025938 -0.3699224 -0.29652512
-0.37274113 0.98175263 0.859155 0.21054727 -0.073290065 -0.22759037 -0.47897238 0.042866886
-0.73679966 -0.5504713 -0.38777867 -0.3791891 0.1241736 -0.57123655 0.6251218 0.29379886

heads.0.heads.3.query.weight f4 [4, 16]
00000000: 71cd cc3d 6a19 913d f7d6 b93d 1790 063e
00000010: b6f0 66be 968a 21be ab38 053e f949 8d3d
00000020: f885 b7be e459 52bd 1a07 bcbd 398d a33e
00000030: b80a 493e 652a 6a3e 650e 03be 9063 a0be
00000040: 3a5d 9039 4a15 8d3d c98e 313e 1ded 753e
00000050: f47b 3cbe a6bc a83d b928 b53b 8ed4 8f3d
00000060: ea0b 5fbe f91a 1dbe 3d04 f0bd e357 8d3e
00000070: fea8 2b3e 7418 193e 2fd3 b1be d851 5fbe
00000080: c540 b3bd efec dc3d 3524 973e 8783 ff3d
00000090: 050f 80be 4ad7 233d 46cb e83d db3e 833d
000000a0: 678d dbbe bdfd b53c 228d 9dbd 7440 bd3e
000000b0: cf51 babc 93da f13d 2b79 fbbd c609 09be
000000c0: 8652 4c3d 9cff 7b3d 0474 71be 9d4c 75be
000000d0: 65a3 633e 0383 8ebe 9b81 743c 8e53 ae3d
000000e0: de00 7f3e fbd2 333c 2b44 8cbc a471 bbbe
000000f0: 8cf2 d9bd d0e1 a8bd 0c7c ed3e 1ab0 c2bc
0.10000122 0.070849255 0.090742044 0.13140903 -0.22552761 -0.15775523 0.13009898 0.06898875
-0.35844398 -0.051355258 -0.09181042 0.31943682 0.19632995 0.22867735 -0.1279846 -0.3132596
0.0002753528 0.06888826 0.17339624 0.24016233 -0.1840666 0.08239107 0.005528536 0.070229635
-0.21781889 -0.1534232 -0.117195584 0.27606115 0.16763684 0.14950734 -0.34731433 -0.21808565
-0.08752588 0.10787379 0.2951981 0.12476259 -0.2501146 0.040000238 0.11366896 0.06408473
-0.4288132 0.022215718 -0.076929346 0.36963236 -0.022744088 0.11809268 -0.1227897 -0.13382635
0.049883388 0.061523065 -0.23579413 -0.23955007 0.22230299 -0.2783433 0.0149234785 0.085120305
0.24902675 0.010975595 -0.017122349 -0.36610138 -0.10641965 -0.08246195 0.46383703 -0.023765612

heads.0.heads.3.value.weight f4 [4, 16]
00000000: f3d6 533d 19cd b3bd 2dbd 9639 13d0 ad3c
00000010: ecbe c93d 41cf c23d ddab 6dbd 16c1 6dbc
00000020: b1e4 913d 4686 15bd 29bd 103d 004f 89bc
00000030: 705f e0bd 1c13 0a3e 0512 eabc ff75 723d
00000040: ab49 d33d 634c e4b9 1dec 91bd b503 20bd
00000050: 5aee e2bd d03f b3bd 2a20 cf3d 0bd9 38bd
00000060: 0fd1 8a3d 9df9 ee3d a140 2fbd 88b0 d6bb
00000070: aaeb 0d3c 6737 7e3d f7f1 fbb9 45e4 033d
00000080: 40c8 b23d aee9 a6bd 8996 89bd 8a65 3dbd
00000090: 7505 a33d a92b 7cbd 85ed a0bc 08e0 2dbd
000000a0: 58d4 113e 9f5e ba3d 7643 813e d396 c83c
000000b0: 72a4 c8bc 9a2b 2abd 7019 f0bd 43e5 953d
000000c0: 7952 16be 5919 33bd deba c4bc 2afe 3c3d
000000d0: aeca ce3c 28b5 583d 3ba4 41bd 0029 43bd
000000e0: 6d3d 8a3c 5035 04bd 0a69 473d d653 313d
000000f0: 083c 3ebd c6d4 a63b b2f0 583d a97e 3c3d
0.051718663 -0.08779354 0.00028751176 0.021217382 0.098508686 0.09512187 -0.05802523 -0.014511367
0.071236975 -0.036505006 0.035336647 -0.016761303 -0.10955703 0.13483852 -0.028573046 0.05919456
0.103167854 -0.0004354446 -0.07125113 -0.039066035 -0.11080618 -0.08752406 0.10113557 -0.045128863
0.06778156 0.11668704 -0.042786244 -0.006551806 0.008662144 0.062064555 -0.00048054729 0.032200117
0.08729601 -0.081500396 -0.067181654 -0.046239413 0.07960025 -0.061565075 -0.019644508 -0.04244998
0.14241159 0.09100079 0.2524678 0.024485981 -0.024492476 -0.041545488 -0.11723602 0.07319119
-0.14679898 -0.043725345 -0.024014886 0.046140827 0.02524313 0.05290714 -0.047275763 -0.047646523
0.016874993 -0.032277405 0.048684157 0.043292843 -0.04644397 0.0050912825 0.05296392 0.04601923

heads.0.ffwds.net.0.weight f4 [64, 16]
00000000: bed0 d8bd 3553 d63c 67b2 8d3e df6e 073d
00000010: cb61 733d a2c8 fdbd 85e7 6bbd 75c4 85bc
00000020: 81b6 fd3d 0fa0 e8bc 6856 a43c f497 47bc
00000030: 60d4 973c 0d79 c3bd 5940 e9bd 382a 2e3d
00000040: 2a24 8dbd b8b1 30bd 04da 8abc 29f1 2cbd
00000050: 0e7b e8bd ad33 763d 3e6f ea3d 3cb7 f8bd
00000060: 4323 34bc 3b20 c53d 4835 fcbd 1efd 3abe
00000070: f895 13bd 7347 973e 5218 1d3e b805 8a3c
00000080: f10c 2ebc 2611 2abe 6271 eebb 4e31 ce3d
00000090: cdad cabd b96c 96bb 9a50 39bd 7e07 aa3c
000000a0: ef5f 4e3d 9942 e5bc 9847 73bc e7d3 d4bd
000000b0: ba0b 6cbd 3064 463d d026 fa3b 9849 a03e
000000c0: 6553 40bd 0ffa 39bd d612 593c 0901 063d
000000d0: 911f fb3c 4477 2b3c 1782 29be 58eb cabc
000000e0: 4c5f 8b3d 5937 a23d d517 1dbe dc3c b0bd
000000f0: bf9d 9e3d 29b0 fa3d 763d e83d 746e 3a3b
00000100: ba32 11bd cf23 093e 6ab0 663d 5934 babb
00000110: 5a28 04be d2fc a73d 3445 2b3d 0142 06be
00000120: 5435 a1bd 14cb b9bd 9409 1b3d 086c eebd
00000130: a21b 34bc e7ae 2b3e b431 f83d 5c53 ffbd
00000140: 6472 af3c 3165 dc3d 34d6 173e 5abd df3c
00000150: bdcf bcbd 5fe5 19be 5976 17be 2cf8 183d
00000160: e882 113e f283 4d3c b194 eb3c 2e95 953c
00000170: 2ad8 7dbd f4cd f9bd 9c5d 0cbd c599 c23c
00000180: 48e1 f43b 4186 10bd 9a75 72bc 70a3 293e
00000190: f657 9d3d 0aa0 e93d 8d44 d9bb 03c6 19be
000001a0: 93b5 f7bd 42b0 09be 017b 77bc c31b 12be
000001b0: dd65 d53d e899 9a3b 8420 923d 23f4 313e
000001c0: 30fe d33c 2f7a 5dbd 07cf 85bd 7de6 f0bd
000001d0: f24d 943c 30d8 5a3c 8935 95bd 79bf cb3c
000001e0: a66c b53d e9e3 1c3d d62e 5bbd bfbc d43d
000001f0: ae09 86bb 36ad a2bd 4790 203e f21f 1abc
00000200: c481 cf3c 1d6f 343d 7a14 e6bd 947a c03d
00000210: 4ce3 77be 0d33 2fbe e690 e0bc f9f4 8b3c
00000220: 08e3 aa3d 1c94 a1bb c3e8 1c3d 4fb9 49bb
00000230: 8329 c63d a51a 5ebd 110b cd3c d9ce 363e
00000240: 1dab 20bc b654 fa3c 7410 5f3d e4fc dcbb
00000250: 7280 05bd b7f9 7abd e247 433e a3e3 dbbd
00000260: 76ed ef3d 8962 8c3d 0b73 e6bb 9829 3ebd
00000270: d1c0 16be d1a0 9b3d 1c07 bb3b c2cc b4bd
00000280: 91cb 57bd e966 033d 7a6d 553d f5ab 15be
00000290: 70dc 183e d4f7 a23c c1d6 a13c 7077 76bd
000002a0: b274 b3bd 1c9a 6cbb b570 49bc 27ee e83c
000002b0: 052b 3bbc 9562 913c b4f7 a23d 0c92 133d
000002c0: 8654 c2bd 6c4d 083e 1e22 903d 0ba4 31be
000002d0: a301 11be 5404 18be 4c1f 023e ec73 51be
000002e0: d4da e83c a49c 9e3d aa6c 323d ae70 f9bd
000002f0: 1603 c93d 335a 2b3e c272 463d 4766 f83c
00000300: 0bcb f43d 9f12 b8bd 625c 0e3e 0358 3a3e
00000310: 1f32 0abd c221 7bbb 0e9a 5a3d ba62 e03c
00000320: 7c3d 47be ed36 13be b644 543d 8331 b7bd
00000330: 778a d9bb 5c31 b43d ad81 f13d bbce 603d
00000340: c81b 543e 6cb7 153c 0496 4e3d 88dc f63d
00000350: 87c6 e33b 8d69 eb3c bce2 94bd ce4e debd
00000360: c3a2 22be fa37 093d 27a4 07be c0fd 083d
00000370: 9e17 38bc b18b 03be 0eef 6e3d f469 b0bd
00000380: b6ca fa3d 8416 243d 288c 5abc 9148 203d
00000390: d587 6abe 1f13 71bd 72a5 253e 1fa9 9fbd
000003a0: acea 733d 44b5 d73b 2a0a de3d ac74 e8bd
000003b0: 706d 26be b223 fe3c 519a 16bd 8b4a dbbc
000003c0: 5186 853d dfbe db3c d2ab 483c 012d 92bd
000003d0: a0f5 5bbe f22e 74be 9ef0 ed3c 26d8 3cbe
000003e0: f225 fd3d 246b 74bd b217 963c cae6 ffbd
000003f0: ff7e e33d e037 c5bb 8a3c 943d 23b2 c33d
-0.105866894 0.026162723 0.27675173 0.03306472 0.059419435 -0.12391783 -0.05759384 -0.01632903
0.123883255 -0.028396634 0.020060733 -0.012182225 0.018533885 -0.09544573 -0.113892265 0.04252073
-0.06891663 -0.043138236 -0.016949661 -0.042222176 -0.11351596 0.060107876 0.11446999 -0.12144324
-0.010994735 0.09625288 -0.1231485 -0.18260619 -0.036031693 0.295467 0.15341309 0.01684843
-0.010623203 -0.16608104 -0.0072767 0.10067998 -0.09896431 -0.0045905975 -0.045242883 0.020755526
0.05038446 -0.027985858 -0.014848612 -0.1039198 -0.05762837 0.04843539 0.0076340213 0.31306148
-0.04695453 -0.04540449 0.01324912 0.03271583 0.0306547 0.010465447 -0.16553532 -0.024770424
0.06805286 0.07920713 -0.15341122 -0.08605358 0.077449314 0.12240631 0.11339848 0.0028447183
-0.035448767 0.13392566 0.056320585 -0.00568251 -0.12906018 0.082025185 0.041814044 -0.13111116
-0.078715 -0.09071937 0.03785093 -0.11641699 -0.010992916 0.16765939 0.12118855 -0.124670714
0.02141685 0.10761488 0.14827806 0.02731197 -0.092193104 -0.15028904 -0.1479124 0.03734605
0.14210093 0.012543665 0.028757425 0.018259611 -0.06197373 -0.121974856 -0.03426896 0.023754964
0.0074731447 -0.035284285 -0.014798546 0.16566253 0.07682793 0.11407478 -0.0066304863 -0.15016942
-0.120951794 -0.13446143 -0.01510501 -0.14268403 0.104198195 0.004718054 0.07135108 0.17378287
0.025878042 -0.0540716 -0.06533628 -0.11762712 0.018103573 0.013357207 -0.07285602 0.024871575
0.08858614 0.03830329 -0.053511463 0.10387563 -0.0040905094 -0.079431936 0.15680037 -0.00940703
0.025330432 0.04405128 -0.11234374 0.0939838 -0.242078 -0.17109318 -0.027412843 0.017084586
0.08344084 -0.004930986 0.038307916 -0.0030780619 0.096758865 -0.05422463 0.025029691 0.17852344
-0.009806422 0.030557971 0.05445905 -0.006744014 -0.032593198 -0.061273303 0.1907039 -0.10736778
0.11715214 0.068547316 -0.007032757 -0.046426386 -0.14721991 0.07599033 0.0057076346 -0.08828117
-0.05268437 0.032080565 0.052106358 -0.14616378 0.1492784 0.019893564 0.019755723 -0.0601725
-0.08762492 -0.0036102599 -0.012294938 0.028433872 -0.011423831 0.017747203 0.07957402 0.036027953
-0.09488778 0.13310784 0.07037757 -0.17347734 -0.1416078 -0.14845401 0.12707251 -0.20454377
0.028424658 0.077447206 0.04356066 -0.12179695 0.09815042 0.16733627 0.048449285 0.030322207
0.1195279 -0.08987927 0.13902429 0.18197636 -0.033739205 -0.0038319682 0.053369574 0.027390826
-0.19457048 -0.14376421 0.05182334 -0.089449905 -0.0066388207 0.08798477 0.11792312 0.054884654
0.20713723 0.009137969 0.050436035 0.12053782 0.0069511565 0.028736854 -0.07269809 -0.108548746
-0.15882401 0.03350065 -0.13246213 0.03344512 -0.0112360995 -0.12846257 0.05833345 -0.08613959
0.12245695 0.040060535 -0.01333908 0.039131705 -0.22903378 -0.058856126 0.16176394 -0.07795929
0.059549972 0.006582888 0.108417824 -0.113503784 -0.16252685 0.03102288 -0.03676826 -0.026768943
0.065197594 0.026824413 0.012247996 -0.0713749 -0.21480417 -0.23846033 0.0290454 -0.18441829
0.12360753 -0.05967249 0.018321846 -0.124951914 0.11108207 -0.0060186237 0.072381094 0.09555461

heads.0.ffwds.net.0.bias f4 [64]
00000000: 8701 25be 3f12 1bbe 71c0 1fbd d2d1 433c
00000010: 087a f0bc caca e9bd 5b7f abbd 4a3e 2dbd
00000020: 0d81 a4bd e20b 47be 268f 30bd 38c2 fdbc
00000030: 7f4f a4bd a1ce cfbd abea e2bd c9ed 12be
00000040: 0509 10be 7992 02be 0eee ccbd 2fde 89bd
00000050: 2e54 473c 9ee1 fbbd 809e 05be 376c 6abb
00000060: 4e4e 85bd 9c9a 00be 6a29 623c 8665 78bd
00000070: 4995 a6bd 2bdc cdbc d5f5 45bd 3490 93bd
00000080: c5ee 6dbe bb0b dfbd 1886 6fbd a1f6 43be
00000090: c852 e83c 7bf3 e1bd dd6e 11be 4270 0bbe
000000a0: 041d 48be 1b88 59bd ca95 1dbe ab97 31bd
000000b0: 5f92 bebd 702a 9abd 555c 97bd d50a 10be
000000c0: d9a2 a4bd 92b3 d0bd fdd3 7bbd ac57 8bbd
000000d0: 67cd 95bd aaa0 bcbd 714d adbd 65a9 88bd
000000e0: 884c f8bd 2e3d 10be a5ab 82bd 89ee 3ebd
000000f0: 1897 12bc 366f b5bc f088 85bd c45d 98bd
-0.16113864 -0.15143679 -0.039001886 0.0119518805 -0.029355064 -0.11415632 -0.083739005 -0.04229573
-0.08032427 -0.19438127 -0.043105267 -0.0309764 -0.08022975 -0.10146833 -0.110799156 -0.1434852
-0.1406594 -0.12751187 -0.10006343 -0.06731831 0.012166066 -0.122988924 -0.13048744 -0.0035770067
-0.06509076 -0.12558979 0.013803819 -0.060643695 -0.08133943 -0.025129398 -0.048330147 -0.07205239
-0.23235615 -0.10890909 -0.05847749 -0.1913705 0.028359786 -0.11032768 -0.14202447 -0.13617042
-0.19542319 -0.053108316 -0.15389171 -0.043357532 -0.09305262 -0.075276256 -0.07390658 -0.14066632
-0.08038873 -0.101905 -0.061481465 -0.068038315 -0.07314568 -0.09210332 -0.084620364 -0.066729344
-0.12123972 -0.14085838 -0.06380395 -0.046614204 -0.008947156 -0.022147756 -0.065202594 -0.074397594

heads.0.ffwds.net.2.weight f4 [16, 64]
00000000: fead 08be a191 0bbd 4d09 cabd e568 943c
00000010: 0c8b 82bd 4bc5 d63d d97b 0fbe 5b9c 163c
00000020: f1d6 3bbe 21c5 5e3d 8721 d0bc cfbe d4bd
00000030: c22b 2bbe 6588 ecbd 0bb1 923c b28b cd3c
00000040: 2a76 b6bd dd16 04bd 9130 bcbc a46c 433e
00000050: fe18 0c3d c77c e53d b1be 323e adb9 5dbd
00000060: 6b54 2ebe bedb db3d ec54 16be 9c3a 973d
00000070: d127 bd3d ccc1 df3d f1f0 34bd 68de 823c
00000080: 5981 123d 78d5 06bd 75ce e03d e4bf 27be
00000090: 2df9 163e d451 babc ee12 1c3e 34ca eb3d
000000a0: fdb9 6f3d fdf5 3e3d 7cdb 1dbe ed16 013d
000000b0: b5ff 06bc cf3d dcbc 668e dbbd 0ae3 08bd
000000c0: 9000 413d 58b0 25bb 7752 4c3e 640e b7ba
000000d0: 4e78 4cbd 040c 873d c5a4 643e 3b6e 58bd
000000e0: ab5d b63c 4f48 d7bb f69d 44be d946 563d
000000f0: c1c3 c2bc 8a63 46bc 3e59 873c 827e 3cbb
00000100: fb9b 0cbd 0fc3 a63d da7c 563e 3353 00bd
00000110: 3217 073e b95b 77be 42bd 763d 403f 0a3c
00000120: efe1 f9ba d374 073e 2a03 a8bd 8758 4abe
00000130: 9c28 ccbd a7ab 29bc e13d 41bb 8304 9ebd
00000140: d73b 3e3e 5a08 85be 030d 5f3e 942e 993d
00000150: 017e ddbd f817 5bbe 3305 85bd 290a d6bc
00000160: be92 16bd af78 95bd 7ad8 ddbd 224b d6bd
00000170: ca90 a43d a623 25bc 1c5c ddbd 91f3 bb3d
00000180: f2fb 0f3e 6c28 26bd 10ba 2dbc aa2f 123e
00000190: 2286 d03d f372 ed3d b258 863d 0a16 f8bb
000001a0: 76c4 70bd 8340 9e3d ef05 abbd 5542 c33d
000001b0: 7e14 463d aa7e 6d3d 3efa 463d 79c9 923d
000001c0: 8eb5 493b 0505 2b3d 543b ba3d 9f44 803d
000001d0: 80bc 773b ae4c 3c3e 5820 5bbd f24e af3d
000001e0: 487f d33d 62cb 8f3d 56c2 d5bd c0f5 41bc
000001f0: 9a3b 043d 37e6 a83d 8435 a9bd 73eb f13c
00000200: f2be a3bb 8a06 903d 33ad 333e f682 b13d
00000210: b36f 7d3c 270a 54be 7f4b 9cbe bb68 323e
00000220: b306 a9be 3ee2 3abe 099f c8bc df82 debe
00000230: 4309 5b3d 0ef2 2c3e f6e7 a33c 7897 82be
00000240: 187e 6a3e d8a9 b13d 7a04 9b3e cace a4bd
00000250: 9fd5 b4be e0a5 babd 110d 283e 2c1b a73c
00000260: 42c9 73bd 6c33 083e 4ce9 d0be 7c15 fa3d
00000270: bf1d 03bf b93d 86be a927 713e 3a92 1e3d
00000280: 0555 a63e 16cb ce3d 1b3c debd f529 8dbc
00000290: b28e 6a3e 28ea d73c 3fcd 88be e57e 843d
000002a0: 3809 1fbd 0730 03be 9ccb f63d cec0 d1bd
000002b0: 9652 b5bd 75c5 c5be ed2d 1e3c 1f15 623e
000002c0: e05d bb3d 0ae8 5bbd 9b0b 09be 937e 17bc
000002d0: b57d 793e 7be7 f7bd 4e00 1d3e b289 383e
000002e0: 6202 d1bd d705 de3c e8c2 e0bd 828c 21bd
000002f0: 6a26 a2be 3480 0bbe 94a2 f2bb 48a8 963e
00000300: 8228 00be 2681 173e 4798 d6bd cb34 6a3d
00000310: 0575 373d 9d7d cc3d a7c3 60bd ff66 0d3d
00000320: ec49 25bd cc43 a43d 2721 343d d778 50bd
00000330: 8c17 2a3d 8466 213e c044 bcbd 3f3b 393c
00000340: cf1a 62bd 1fa3 993e a1d3 30bd 020a 673d
00000350: bca5 a93d fc8c 26bd bc84 adbd d89b b5bd
00000360: 4ac0 b9bd c91a a43d 6c27 3dbd fab6 433e
00000370: 3c34 533c a4e2 013c e66b d93d 985b dd3d
00000380: 4622 c93d aa54 2f3c 5ff2 c8bc e976 19be
00000390: 6c1a cc3d 85be 683d 822c 0b3e 21f8 203d
000003a0: a343 74be 4c5d 733c f573 10be 2da9 91bd
000003b0: 60ed 87be 89c5 093e 352d 393d 7fdf c63d
000003c0: 4eaf 0dbe 2b1e 39bc 0ab2 06bd 96e1 b13d
000003d0: fa69 c93d f7f6 adbd 996d 893d 0c9e 863e
000003e0: ec63 d13d 9889 85bd 9a7e 5e3d 71df ab3d
000003f0: e454 dfbd 6907 143e 59e9 e2bd 10f6 253e
-0.13347623 -0.03407443 -0.09865055 0.018116424 -0.06374177 0.104868494 -0.14012088 0.0091925515
-0.18343712 0.054387216 -0.025406612 -0.10387956 -0.16715911 -0.11549453 0.017906686 0.025091026
-0.08909257 -0.032248367 -0.022972377 0.19084412 0.034203522 0.1120544 0.17455555 -0.054132152
-0.1702439 0.10735272 -0.14680833 0.07384226 0.0923611 0.10925636 -0.044175092 0.015975192
0.035767887 -0.032918423 0.109768786 -0.16381794 0.1474349 -0.022744097 0.15241596 0.115131766
0.05852698 0.04662131 -0.15415758 0.031516004 -0.008239676 -0.026884941 -0.1072052 -0.033419646
0.047119677 -0.002528211 0.19953333 -0.0013966081 -0.04991942 0.06594089 0.2232848 -0.0528395
0.022261461 -0.006569899 -0.19200882 0.05231366 -0.023774983 -0.012108693 0.016522046 -0.0028761928
-0.034328442 0.08142673 0.20946065 -0.031329345 0.13192442 -0.24156083 0.060239084 0.008437932
-0.0019064526 0.13228159 -0.082037285 -0.19760333 -0.09968683 -0.0103558665 -0.0029486346 -0.07715704
0.18577515 -0.25982934 0.21782307 0.07479587 -0.10815049 -0.21395862 -0.06495132 -0.026127892
-0.036761038 -0.07298409 -0.10832305 -0.10463549 0.08035429 -0.0100793 -0.10808584 0.09177316
0.14060953 -0.040565893 -0.010603443 0.14275995 0.10181834 0.115941904 0.06559886 -0.0075709866
-0.05878111 0.077271484 -0.08350741 0.09534136 0.048359387 0.057982124 0.048578493 0.07167334
0.003077838 0.041752834 0.09093347 0.062630884 0.0037801564 0.18388626 -0.053497642 0.085599795
0.10327011 0.07021214 -0.10437457 -0.0118383765 0.032283403 0.08247035 -0.082621604 0.029531216
-0.0049971277 0.07032497 0.17546539 0.08667557 0.015468526 -0.20706998 -0.3052635 0.17422764
-0.33012924 -0.18250367 -0.024489896 -0.43459222 0.05347563 0.16889212 0.020008069 -0.25506186
0.22899663 0.08674973 0.30276853 -0.080472544 -0.3531923 -0.091136694 0.16411234 0.020398699
-0.059518106 0.13300866 -0.4080299 0.12211129 -0.51217264 -0.26218966 0.23550285 0.03871367
0.3248674 0.10097329 -0.10851308 -0.01723192 0.22905996 0.026356772 -0.2671909 0.06469516
-0.03882715 -0.1281129 0.12050554 -0.10241853 -0.08853643 -0.3862721 0.009654504 0.2207837
0.091487646 -0.053688087 -0.13383333 -0.009246486 0.2436436 -0.12104698 0.15332147 0.18021277
-0.102055326 0.027102394 -0.109746754 -0.03944064 -0.31669933 -0.13623124 -0.0074046347 0.29425263
-0.12515453 0.1479536 -0.10478263 0.057179254 0.044789333 0.09984896 -0.05487409 0.034522053
-0.0403537 0.08020744 0.04397693 -0.05089649 0.041526362 0.15761763 -0.091928005 0.011305629
-0.055201348 0.30007264 -0.043170575 0.05640603 0.082835644 -0.040661797 -0.08472583 -0.088676155
-0.09069879 0.08012921 -0.046180174 0.19112769 0.012890872 0.0079275705 0.10616283 0.10808486
0.0982099 0.010701338 -0.024529634 -0.14986767 0.09965977 0.05682232 0.13591197 0.039299134
-0.23853926 0.014853787 -0.14106734 -0.07112346 -0.2654829 0.1345426 0.04520913 0.09710597
-0.13836405 -0.0112986965 -0.032884635 0.08685605 0.098346666 -0.084943704 0.06710357 0.26292455
0.10224137 -0.065203846 0.054319955 0.083922274 -0.109048635 0.14455952 -0.11079664 0.16207147

heads.0.ffwds.net.2.bias f4 [16]
00000000: c4a0 e4bc fee2 69bd 22b3 cdbd ed61 88bd
00000010: 4e4e 8a3d 2b9c 1bbd c66e 1f3d b020 a8bc
00000020: ddfa be3d df31 cf3c 1621 cfbc 7553 82bd
00000030: 9d64 e93a eabb b33b 2e5b 063d d2ca 723c
-0.02790869 -0.057101242 -0.100439325 -0.06659303 0.06753217 -0.03799073 0.038924 -0.0205234
0.09325192 0.025292335 -0.025284331 -0.063635744 0.0017806474 0.0054850476 0.0328018 0.014818864

heads.0.norm1.weight f4 [16]
00000000: fbb2 7f3f cbb1 933f 8b44 8d3f 62aa 8f3f
00000010: 63ad 9f3f 09c3 883f f791 983f fe98 943f
00000020: 5536 8f3f ba92 933f 0db9 913f 70bc a93f
00000030: c9e5 923f 3a5c 9f3f 88fc c53f 2847 833f
0.9988248 1.1538633 1.1036543 1.1223872 1.2474788 1.068452 1.1919545 1.160919
1.1188456 1.1529152 1.1384598 1.3260632 1.1476375 1.245002 1.5467691 1.025609

heads.0.norm1.bias f4 [16]
00000000: 156c f33d 6aaa 58be 0d0c e4be 7681 1cbe
00000010: 7984 523e e37b 333e 3a62 863b 7705 853e
00000020: 1022 fdbd 6a98 513e a238 b93e 5720 d23e
00000030: 9beb 85be ef27 f2bd 94b7 b9be 1a67 cbbd
0.118858494 -0.21158758 -0.44540444 -0.1528376 0.20558347 0.17527728 0.004101065 0.25980732
-0.123600125 0.20468298 0.3617602 0.41040298 -0.26156315 -0.11824023 -0.36272871 -0.099317744
